heater_experiments/heater_NN3.onnx (onnx, 39865 bytes, 14 tensors)

fc1.weight f4 [8, 3]
000000 1d 97 c7 3e ed 9c f9 be a6 0c 93 3e 3a 17 7d be
       0.38982478 -0.48752537 0.28720587 -0.24715891
000010 6f a2 91 be 8f 0d 16 be e1 ad bc 3e 54 42 ce 3e
       -0.2844424 -0.1465361 0.3685141 0.4028498
000020 c3 60 c5 3e fa 24 96 be 11 c1 1f be 89 b1 95 3e
       0.38550386 -0.29325086 -0.15600993 0.2923701
000030 7a 7d 84 3e 5b dc b2 bd 99 6f d0 3e 97 00 e5 bd
       0.2587698 -0.08733436 0.40710142 -0.11181753
000040 7a bc d8 be d2 0d d5 3e 95 2a 82 3e 43 73 a7 3e
       -0.42331296 0.41612107 0.25423113 0.32705125
000050 e5 e8 d1 bc b6 4f 02 bf de 61 0e bf b0 01 c7 3e
       -0.025623748 -0.5090288 -0.55618083 0.38868475

fc1.bias f4 [8]
000000 85 45 25 be 79 ec cb 3e 3d 87 f7 bb e8 c2 23 bd
       -0.16139801 0.39828852 -0.0075539635 -0.0399808
000010 8c 62 c2 bd 26 96 06 3f 6b 60 b9 be f6 8a 48 bc
       -0.094914526 0.5257286 -0.36206374 -0.012240162

fc2.weight f4 [32, 8]
000000 f9 5d 07 be 1a ce f1 3c 58 5b 8f be 11 24 c0 bd
       -0.13219441 0.029517222 -0.27999377 -0.09381879
000010 83 75 65 be a7 d9 be 3e 0a 45 09 3d 54 f9 98 3e
       -0.22408108 0.3727543 0.033513106 0.29877722
000020 c7 5d 2b be f8 bc 77 be fa ff 6f 3c c1 71 42 3d
       -0.16734992 -0.2419318 0.014648432 0.047471765
000030 75 3d 10 be ad d6 ad be ea 1a a0 bc e6 a2 86 be
       -0.14085944 -0.33952847 -0.019544084 -0.26296157
000040 e5 b4 3e 3e bd 41 72 be cc 23 76 be 08 79 12 bd
       0.18623693 -0.2365789 -0.24037093 -0.035759956
000050 02 56 73 be 63 ab 02 be a4 72 48 be 2c e8 1e 3e
       -0.23763278 -0.12760691 -0.19574982 0.15518254
000060 3a 19 82 be df 3f 72 3d a5 15 0d be 6f ec 10 be
       -0.2540987 0.059142943 -0.13777788 -0.14152692
000070 f9 6f 51 3e 00 ac 42 be ab 28 dd bd fa 64 a3 be
       0.2045287 -0.19010925 -0.107987724 -0.31912977
000080 d8 f5 19 be c8 d8 01 be 19 3c 21 be 85 31 a4 3c
       -0.15035188 -0.12680352 -0.15745582 0.020043144
000090 d3 6d a5 be 90 7a a2 3d cd b8 50 be 91 ca a7 be
       -0.32310352 0.07933533 -0.20382996 -0.32771733
0000a0 f8 b0 43 be ba c1 1e 3e 6a ab 06 3e b5 10 b5 3c
       -0.19110477 0.15503588 0.13151327 0.022102693
0000b0 53 e3 26 be 92 c5 a8 3e 6b 44 80 be 00 2c 9b 3e
       -0.16297655 0.32963234 -0.250522 0.30307007
0000c0 ea 72 0b bd 1b 7d fe bd c0 57 3e 3e 9f 68 19 be
       -0.034045137 -0.12426206 0.18588161 -0.14981316
0000d0 eb 5a 26 be 17 7f 9d bc 99 2b cc bd 09 91 21 be
       -0.1624562 -0.01922564 -0.09969253 -0.15777983
0000e0 e8 e6 99 bd 65 7b 5b bd 6e 6f 6c 3e 31 21 2c 3e
       -0.07514745 -0.053584475 0.23089382 0.16809537
0000f0 6e 24 f2 3d a4 43 21 3e a0 6e fb bb 9b 66 60 3c
       0.11823355 0.15748459 -0.0076730996 0.013696338
000100 a9 3b 46 3e 17 82 14 3d de 60 31 be 42 55 c8 3e
       0.19358696 0.036256876 -0.17322108 0.39127547
000110 f7 7c 92 3d a9 0b e0 3e 7a 09 a7 be e8 be 25 3e
       0.071527414 0.43758896 -0.32624418 0.16186106
000120 46 d5 4a be 1c 82 7c bd 1f 4f 06 3e a4 a9 8c 3e
       -0.1980792 -0.06164752 0.1311612 0.27473176
000130 6c 23 3c 3e 8f 58 63 be 83 96 88 be 41 9b 54 3d
       0.18372887 -0.22201751 -0.2667733 0.051905874
000140 76 d5 1b 3d c1 ea f9 3d a8 bb 53 be 40 36 28 3e
       0.03804537 0.12202979 -0.20677054 0.16426945
000150 7b f4 96 be 4e 9c 4e be 35 bf a4 bd 6f 19 a2 be
       -0.294834 -0.20176813 -0.08044282 -0.3166003
000160 c9 3b b6 3e 52 dd 19 be 26 d5 24 bd e2 76 ce 3e
       0.35592487 -0.15025833 -0.040242337 0.40325075
000170 43 c9 03 bd 7b 3e 5f be e1 ad 3f 3e a8 91 14 3e
       -0.03217436 -0.21801178 0.18718673 0.14508688
000180 66 c5 0c be 25 4d c9 bd b1 a5 a7 bd af 09 77 be
       -0.13747177 -0.09829167 -0.081859 -0.24124788
000190 84 45 46 be 1e 96 22 bd c9 03 81 be 8d 27 57 3d
       -0.19362456 -0.039693944 -0.251982 0.052527953
0001a0 91 34 9f be 81 16 b3 3d b2 73 4f 3d 6f 1d 90 be
       -0.31094792 0.08744527 0.050647445 -0.28147456
0001b0 20 a3 4d bd 66 a6 fb bd a6 49 a4 bb 16 41 2f 3e
       -0.050204396 -0.12287597 -0.0050136624 0.17114672
0001c0 70 6e 4b 3e 4e d4 be 3d b5 4a 79 be 0f 88 40 3e
       0.19866347 0.09317838 -0.24344905 0.18801902
0001d0 3a 00 8c be cc eb 40 be d1 0c 9f 3e bd a0 eb 3d
       -0.27343923 -0.1883995 0.31064466 0.11505268
0001e0 b5 06 2a 3e ec ba 58 be aa 07 98 be d1 18 f4 3d
       0.16604121 -0.21165055 -0.29693347 0.11918796
0001f0 cd a7 21 be cb e7 ed bd ef 25 60 bd 92 99 38 be
       -0.15786667 -0.116164766 -0.054723676 -0.18027332
000200 da 50 01 be 5c f0 2f bd 64 71 b7 3d 4a e5 8f be
       -0.12628499 -0.042953834 0.089571744 -0.2810462
000210 db 7c 8d be b9 81 11 3e 57 28 65 be 91 58 85 3e
       -0.2763432 0.14209642 -0.2237867 0.26044133
000220 85 b0 e7 3e 39 00 3a bd 23 50 e0 bc 22 aa fc 3d
       0.4525186 -0.04541037 -0.027381962 0.12337138
000230 74 89 a7 3e 14 80 e7 3e f7 23 e0 3d 7c 54 8b 3e
       0.32722056 0.45214903 0.1094436 0.27212894
000240 4e 48 87 3e d5 e4 72 be 86 f3 c6 3d 59 bd 2f bd
       0.26422352 -0.23720105 0.09714417 -0.042905185
000250 42 56 0b be b7 ac 45 3e 1f 14 9b bd c1 66 49 3d
       -0.13607123 0.19304167 -0.07572197 0.04917026
000260 65 8d cb bd eb 87 c6 3c 6c ec 12 be d4 a9 92 be
       -0.09939078 0.024234733 -0.14348 -0.28645194
000270 b1 92 bb bd c0 1b 38 be 99 bb 47 bb 0b 8a 08 3e
       -0.091588385 -0.17979336 -0.0030476807 0.13333909
000280 2a 5a b1 be 66 99 c6 bd 9d 14 09 be 9c d8 91 3d
       -0.34639102 -0.09697227 -0.1338677 0.07121393
000290 83 65 2d be 08 c2 82 be 8b 59 fb bd b5 65 9d be
       -0.16933255 -0.2553866 -0.12272938 -0.3074166
0002a0 f0 9c 22 be c0 3d 84 3e 40 fc aa 3e 9f 0f 6e 3e
       -0.1588018 0.25828362 0.33395576 0.23248146
0002b0 ae 13 6f be 3b 67 17 3e a6 cf 13 bd 52 ce 40 3e
       -0.23347351 0.14785473 -0.0360867 0.18828705
0002c0 6c 5e 07 bd 3e bf ad 3e 87 8c bd 3e 5e 08 98 be
       -0.033049032 0.3393497 0.37021276 -0.29693884
0002d0 57 7f fc bd b2 71 98 be 74 95 13 be 5f 69 89 3e
       -0.12328976 -0.29774243 -0.1441248 0.26838204
0002e0 fd c7 55 bd 14 fd b1 bc ed ab 22 be da 47 d0 bd
       -0.052192677 -0.021727122 -0.15885897 -0.101699546
0002f0 73 63 72 be 85 3a 12 be d5 1e ea bd cd 78 03 be
       -0.2367075 -0.14280136 -0.11431662 -0.1283905
000300 8d 05 41 3e 1e 85 68 3d 63 c9 e8 bd dd ab be 3e
       0.18849774 0.056767575 -0.113665365 0.37240496
000310 49 ef bf bd 02 05 d9 3e 45 aa ce 3d 1e 38 7c be
       -0.09371812 0.42386633 0.1009107 -0.24630782
000320 f6 98 27 be ec e1 8a 3d b8 5c 38 be 07 26 a6 3e
       -0.16366944 0.067813724 -0.1800412 0.32450888
000330 95 50 af 3e f7 0f 07 bd d5 86 62 be 80 d4 6b 3e
       0.34241167 -0.03297421 -0.22121747 0.23030281
000340 b1 67 bb 3e cb f4 14 be 11 68 1c be cc ab 6e 3d
       0.36602548 -0.14546506 -0.15274073 0.058269307
000350 8a b0 ad 3e 7d 7f 58 3e ac ab 08 3e 01 a9 0d 3e
       0.3392375 0.21142383 0.13346738 0.13834001
000360 0e 1d d8 3e e3 57 7f 3b e6 fc d4 3c e9 bd 10 be
       0.42209667 0.0038962297 0.025999498 -0.14134945
000370 40 a5 c4 bd 28 0e c4 bd 8e dd ad 3e 50 80 16 3e
       -0.096018314 -0.095730126 0.33958095 0.14697385
000380 f7 aa df bd 0f 18 68 bd 14 47 67 be b9 a3 36 be
       -0.10921281 -0.05666357 -0.22585708 -0.17835893
000390 c0 e4 24 be 84 6b 00 bd 15 e3 24 3e f8 e7 73 be
       -0.16102886 -0.031352535 0.1610225 -0.23818958
0003a0 b0 6c 8b bd 24 49 64 3e da 04 4a be f8 6b a3 3e
       -0.0680784 0.22293526 -0.19728413 0.3191831
0003b0 86 31 67 bc 97 30 bf 3e 97 a3 b3 bd 64 2a 07 3e
       -0.014110928 0.3734176 -0.08771437 0.13199764
0003c0 4d 5d c5 3d b3 b4 32 be 72 6c 65 3e f3 32 af 3e
       0.09636936 -0.17451744 0.2240465 0.3421856
0003d0 ad 5a 2b 3e c8 66 55 3e ea 21 e2 bd 00 72 16 3d
       0.16733809 0.20839989 -0.11041625 0.036729813
0003e0 9b e4 9c 3e 6f a1 9d bd c9 35 8f be 84 64 21 bd
       0.30643162 -0.07696807 -0.27970722 -0.0394025
0003f0 b4 b6 1f be 1a 64 6b be 4f 02 59 be 80 63 14 3e
       -0.1559704 -0.22987404 -0.21192287 0.14491081

fc2.bias f4 [32]
000000 f0 b6 97 3e c5 e6 9a 3e c3 af 26 be f7 1d 5d 3e
       0.29631758 0.30254188 -0.16277985 0.21593462
000010 5d c7 ef 3d d3 09 70 3d 3b a8 a5 be 7e 60 99 3d
       0.117079474 0.05860312 -0.32354912 0.074891075
000020 cc 43 d3 3d e5 8c e9 bd 8f ac 7c 3e 46 1e 18 3e
       0.103156656 -0.114038266 0.24675201 0.14855298
000030 53 40 a1 be 89 56 3d bd 12 3e 35 be 42 7a 8f be
       -0.31494388 -0.046225104 -0.17699459 -0.28022963
000040 9d a8 0d be 3d c4 19 3e 96 57 51 3e 2b 9d 95 3d
       -0.13833852 0.15016265 0.20443568 0.07305368
000050 d5 94 e6 bc fc e5 2b be 8f 01 25 be 4d e8 8e be
       -0.02814714 -0.16786951 -0.16113876 -0.27911606
000060 d2 5f 0d 3e 8f f8 56 3d 56 2f 8a 3e 67 b1 af bd
       0.13806084 0.052483138 0.2698924 -0.08578759
000070 6e bc 62 3e 89 dd 9f 3e d2 51 af 3d 04 fd 5c be
       0.22142193 0.31223705 0.08560528 -0.21580893

fc2_1.weight f4 [64, 32]
000000 47 9e e8 bc 68 c2 d7 bb 7a 92 cb ba 66 ee 36 bd
       -0.028395785 -0.0065844543 -0.0015531324 -0.04466095
000010 47 ea 0e be 48 2c df 3b 43 f3 bc 3d a1 7f a7 bd
       -0.13956557 0.0068106987 0.09226086 -0.0817864
000020 9c b0 02 3e 86 60 9f 3d 30 bc f0 bd 66 9c 90 bd
       0.12762684 0.07782082 -0.11754644 -0.07061081
000030 72 2e 16 3e b5 1b ad 3d 07 06 0b 3e 5e 26 fd 3d
       0.14666155 0.0845255 0.13576518 0.123608336
000040 be f2 f1 bd 84 f2 bb bd 24 ab 0c 3e 59 2f 23 3e
       -0.118138775 -0.091771156 0.1373716 0.1593603
000050 ab 2b 2c 3e 2f 7a 9a 3d a0 fb 12 3e 21 b6 1e be
       0.16813533 0.07542836 0.143538 -0.15499164
000060 dd 86 86 bd 8a ee fe 3d c8 f2 02 3c 0e b7 c7 3d
       -0.06568692 0.124478415 0.007992454 0.09751712
000070 92 a3 e6 bd b0 07 6c bd bd e9 17 be 39 b1 6f bc
       -0.11261667 -0.05762452 -0.14835258 -0.0146296555
000080 53 6d a2 3c b8 81 1c be f9 c3 0e be 1e c4 66 bc
       0.01982752 -0.15283859 -0.13941945 -0.014084844
000090 35 fd 14 bd fc 33 48 bd 21 3a d0 bb e4 b5 32 3e
       -0.03637429 -0.0488777 -0.0063545858 0.17452198
0000a0 e3 a8 24 3d ec 63 0e 3e 53 60 d6 3c 55 d1 98 bd
       0.040200125 0.13905305 0.026168978 -0.07461802
0000b0 40 3d cf 3c 90 61 82 3d 81 45 33 3d c7 00 82 3c
       0.025297761 0.06366265 0.043767456 0.015869511
0000c0 01 0c 5a 3d bf 83 d2 bd 40 33 92 bd 60 29 ea bd
       0.053234104 -0.10279035 -0.071386814 -0.11433673
0000d0 09 18 1d 3d 59 fd d8 bd a6 48 1f be b6 d5 33 bd
       0.038353 -0.10595197 -0.15555057 -0.043904983
0000e0 5d 6b 6d 3c 18 d4 a3 3b 19 89 16 be c7 f4 05 3e
       0.014490929 0.004999649 -0.14700736 0.13081656
0000f0 91 d2 09 be dc c1 10 3e 59 0a b8 bd 62 b5 98 3d
       -0.13459231 0.14136451 -0.08986349 0.07456471
000100 7e 3f fb bc b4 f8 82 3b 29 90 0c 3e db a6 11 3e
       -0.030669924 0.003996933 0.13726868 0.14223807
000110 4f f2 f8 3d 7f cc 2d be 36 88 1f bd c9 35 a0 3b
       0.12155592 -0.1697254 -0.03894826 0.004889224
000120 1f 3f a6 3c d3 0d 91 3d ea ee 0c be 61 d0 c5 3c
       0.02029377 0.07082715 -0.13763013 0.024147214
000130 77 d5 c2 bd eb b9 1d bc 10 ce d1 bc 27 2f 0b 3d
       -0.095133714 -0.009626846 -0.025610954 0.033980515
000140 c1 6f 85 3c a8 88 4d bd de e9 fe 3c 5c 5a eb 3d
       0.01628864 -0.050179154 0.031117376 0.11491844
000150 76 44 cb bd 38 a3 09 be 11 ca 1e bc 3f fe e8 bd
       -0.09925167 -0.1344117 -0.009691731 -0.113766186
000160 3e c2 a0 3d 15 9d 20 be d4 21 8b bd 39 4e 09 be
       0.07849549 -0.15684922 -0.067935616 -0.13408746
000170 d3 9e ac bd fc d9 e4 3d 49 56 13 be f2 11 27 3e
       -0.08428731 0.1117439 -0.14388384 0.1631544
000180 19 9f 8b bd f6 d6 32 3e 99 30 d3 bd b9 7d f2 3d
       -0.06817455 0.17464814 -0.10312004 0.11840386
000190 72 bb be 3d d0 99 16 3e dc 11 e8 bd 7f df 24 3e
       0.09313096 0.14707112 -0.113315314 0.16100882
0001a0 6d e5 49 3d e0 c4 02 bd 1d b2 50 bd 3b 2a 60 3e
       0.049291063 -0.031926036 -0.050951112 0.2189111
0001b0 ba 55 2a be 0f 1d 93 bd 61 cc 41 bb 9d 00 b2 bd
       -0.16634265 -0.07183277 -0.0029571282 -0.08691523
0001c0 40 97 8c bd 65 57 75 3e 8d 14 1d 3e e9 62 2a be
       -0.06864786 0.2395912 0.15339871 -0.16639294
0001d0 b5 4d 91 3c 3a ef e1 3c 12 41 d2 bd c7 54 2e bc
       0.017737249 0.027579892 -0.102663174 -0.01064033
0001e0 ea 5d 14 3e 88 0b 8a bd a7 c2 46 3e 45 f4 1c 3e
       0.1448895 -0.06740481 0.19410191 0.15327556
0001f0 4e 5a 92 bd d6 e6 18 3d d8 0c 0d 3c b1 13 b4 bc
       -0.071461305 0.037329517 0.008609019 -0.021982046
000200 c7 84 95 bd 54 de 8f bd 92 f8 a0 bd 09 86 ba bc
       -0.07300716 -0.070248276 -0.07859911 -0.022768991
000210 36 18 1e 3e 8b 44 05 3d 72 f7 31 bb 42 a2 12 be
       0.15438923 0.03253607 -0.0027155546 -0.14319709
000220 04 f1 e2 3c bf a6 de 3d 6d 3b 81 bd 74 de c7 3c
       0.027702816 0.10871648 -0.06310163 0.024398066
000230 4b 05 df bd a0 43 1a 3e 92 e2 07 be 1b a0 aa 3a
       -0.108896814 0.1506486 -0.13270023 0.0013017686
000240 04 73 39 bd ba 4e 68 3e 8d 6e 9b 3d 69 71 2b 3d
       -0.045275703 0.22686282 0.07589445 0.041856203
000250 4b c1 76 bc 58 9c e0 bd d6 4d 07 3d 6a b1 cf 3d
       -0.015060733 -0.1096732 0.033033215 0.10141261
000260 a8 21 87 3e 61 91 34 3c c9 ce 24 3d ab 73 22 3e
       0.26392865 0.011020989 0.04023627 0.15864436
000270 36 39 6b 3a 9b 66 a7 3d 5f 60 b7 3d 6e b3 15 be
       0.00089730637 0.08173867 0.08953928 -0.14619228
000280 26 ee 4d 3e bc 80 f9 bd fa 7c 2c be f6 6e 0f 3e
       0.20110378 -0.12182757 -0.1684455 0.14007172
000290 56 70 33 3e cc 65 75 3e 64 c3 8a bd cf 56 32 3e
       0.17523322 0.23964614 -0.06775549 0.17415927
0002a0 37 18 60 3a ea 16 bc 3d 32 64 16 3c 44 c6 8c 3c
       0.000854853 0.09184058 0.009179162 0.017184384
0002b0 8c d8 a5 3d ea 86 1e be c4 35 34 3e 38 f9 30 3e
       0.08097944 -0.15481153 0.17598635 0.1728257
0002c0 6f 93 a8 3a 2c 88 e8 3b 2e 91 6d 3e f3 9c 32 be
       0.0012861321 0.007096311 0.23199913 -0.17442684
0002d0 f3 8f 2a be 35 e7 1f 3d f7 8d 9a bd f4 9e ec 3d
       -0.16656475 0.039038856 -0.07546609 0.115537554
0002e0 3f 3b 4d 3d 1f 94 27 bd e4 ec 52 3e cf e1 12 3e
       0.05010533 -0.040912744 0.20598179 0.14343952
0002f0 67 4c a8 3d a7 23 91 3e d7 57 12 3e 46 b6 dc 3d
       0.082176976 0.28347513 0.1429132 0.107769534
000300 a8 33 e6 3d 55 a4 f3 bd 82 c3 f1 3c 48 7e 7d bc
       0.112403214 -0.11896578 0.02951217 -0.015472002
000310 e4 95 ef bd ae a3 6d 3e f4 d4 85 3d e7 76 3d bd
       -0.11698511 0.2320697 0.06534758 -0.046255972
000320 df 58 06 3e a2 c0 15 be cb 1f f3 3d 67 d4 3c 3c
       0.13119839 -0.14624265 0.118712984 0.01152525
000330 a5 d1 df bd fa c8 82 3c a8 fc 21 be 09 d5 32 3e
       -0.109286584 0.015964974 -0.15819037 0.17464079
000340 34 b6 f6 3c e2 d6 b8 3c 1d 1d 59 3e 9d d9 16 be
       0.030116178 0.022563402 0.21202512 -0.1473145
000350 7f 52 4d 3d 28 57 25 3e 19 75 4d be 82 d7 1f be
       0.050127503 0.16146529 -0.200642 -0.15609553
000360 5a e3 5e 3e e6 6e 02 bd 26 58 01 3e 9c 29 b5 3d
       0.21766415 -0.031844042 0.12631282 0.08845827
000370 23 37 b8 3d bc eb 3a 3e 6f 60 23 bc 0b 8f 9a bb
       0.089948915 0.18253988 -0.009971722 -0.004716759
000380 13 9a 2e bd 38 a2 c9 3d 0f 1e 16 3e ff cd 73 bd
       -0.042627405 0.09845394 0.14659904 -0.059522625
000390 e1 f8 8f bd 7b f7 0c 3d d3 db 26 be 1f e0 f2 bd
       -0.07029892 0.034415703 -0.16294794 -0.11859154
0003a0 1b 04 cf bd b1 7b 9d 3a 60 e9 85 3d 3a c4 09 3e
       -0.10108205 0.0012015012 0.065386534 0.1345376
0003b0 fa 8e 85 3d 6f 8f b9 3c 6b e5 2b be 7a 6d 1b 3e
       0.06521411 0.022651402 -0.16786735 0.1517848
0003c0 f1 3b c1 bd ff ce d8 3d 29 17 17 3d a2 5a 12 3e
       -0.09435261 0.10586356 0.03688732 0.14292386
0003d0 64 e7 29 3e 49 0f 88 bc ba 34 aa 3d 16 c6 6a 3d
       0.16592175 -0.016608851 0.08310838 0.057317816
0003e0 51 ac 2c 3e aa 05 19 be e0 f8 19 be bf 20 2d bc
       0.16862608 -0.14943567 -0.15036345 -0.010566889
0003f0 3f e0 8c 3d 6b 78 72 3d 19 de db bd a6 6f 97 bd
       0.06878709 0.05919687 -0.10735721 -0.07394342

fc2_1.bias f4 [64]
000000 15 f5 49 3c 3c a7 c5 bc 87 04 5b bd 0a 06 0e be
       0.0123264985 -0.024127595 -0.053471114 -0.13869491
000010 23 0e 33 3d 60 d5 f9 bc 94 70 ae 3d b3 28 ea bd
       0.043714654 -0.030497253 0.08517566 -0.11433544
000020 ee 98 a3 3d 67 db cc 3c 20 c4 2f 3e 06 03 00 3e
       0.079881534 0.025006963 0.1716466 0.12501153
000030 af e7 f4 3d 19 8e ef 3d 84 e6 1f 3e ca 0b c8 bd
       0.11958253 0.11697025 0.15615278 -0.097678736
000040 23 29 9f 3c fc b0 ae 3d a0 46 31 3e 80 64 09 3e
       0.019428795 0.08529851 0.17312098 0.13417244
000050 60 98 58 3d 69 2d 7e 3d 0c a5 41 bc 55 c6 ad 3d
       0.05287969 0.062055025 -0.011819135 0.084850945
000060 1e 74 be 3d ee 8b cd bc 4d 93 d2 3c 90 dd f0 bc
       0.09299491 -0.025091138 0.025705004 -0.029402524
000070 46 29 83 3b 27 eb e8 bd a0 68 bb 3d b3 c0 c2 3c
       0.004002723 -0.11372977 0.09150815 0.023773527
000080 4c 31 fd bb 52 9b 02 3e 05 69 0c be d4 6c 0f be
       -0.007726824 0.12754562 -0.13711937 -0.14006358
000090 55 3c 1a bc 44 8d 4f 3e 03 46 cf bd 62 22 24 3d
       -0.009413798 0.20268732 -0.101207756 0.040071853
0000a0 ef 91 08 bb 8d 63 2e 3e 21 b9 ea 3d c6 07 3b 3e
       -0.0020838936 0.17030163 0.11461092 0.18264684
0000b0 d9 ff 81 3d d1 51 0a 3e d1 8e 1b bd 04 ba e4 bd
       0.06347627 0.13507773 -0.037977997 -0.11168292
0000c0 1e 07 06 3e 1f ef 04 be a5 6e 0f bc 8e e7 0e 3e
       0.13088652 -0.12981842 -0.008754407 0.13955519
0000d0 23 87 af 3d 24 f7 fb bd 53 5d 58 3e 90 d3 8b bb
       0.08570697 -0.12302998 0.2112935 -0.0042671636
0000e0 b0 6e a7 3d 7d 7f a2 bd c6 9b 3b 3d cb 0f 19 3c
       0.08175409 -0.07934473 0.045802854 0.009342144
0000f0 f4 91 71 3e c7 eb 30 bd 71 48 37 3e 12 92 ea bb
       0.23590833 -0.043193605 0.17898728 -0.007158526

fc2_1_1.weight f4 [64, 64]
000000 a8 e7 98 3d 8c 87 97 3d 0c de 74 3d 9e 52 0a 3e
       0.0746606 0.073989004 0.059782073 0.13508078
000010 92 d9 81 3d 67 7e 7d 3c 80 4d 66 3d 60 85 57 bc
       0.06340326 0.015472031 0.056226254 -0.013154358
000020 81 be be bc 08 dc 1f 3d fd 9d ea 3d 37 cf 1f 3e
       -0.023284199 0.039028198 0.11455915 0.1560639
000030 72 6a 80 bc 94 4e de 3d a6 00 b6 3d 88 01 af 3c
       -0.015675757 0.10854831 0.088868424 0.021363035
000040 72 1b 1e 3e 6e 7f bb 3d 90 f8 1d 3e ee 56 b7 3d
       0.15440157 0.09155165 0.1542685 0.089521274
000050 b0 62 1a 3c bb ca 5c 3e cc 40 14 3d 9a ee 17 39
       0.009422943 0.2156171 0.036194608 0.00014489368
000060 4d 0d 44 3e 79 7c 12 bd 88 19 b2 bc 54 ee d4 3d
       0.19145699 -0.035763238 -0.02174069 0.1039702
000070 91 a7 f6 bb b1 f2 fb 3d 35 7f a7 3b c1 0e 40 3e
       -0.0075272997 0.12302149 0.0051116 0.18755628
000080 04 c0 bd bd 34 08 c6 bc 40 7d d9 bd 60 6b f1 bd
       -0.0926514 -0.024173833 -0.10619593 -0.11788058
000090 75 36 7a 3d 27 90 88 bd fb c9 7c bd 88 99 63 bd
       0.06108709 -0.0666812 -0.06171606 -0.05556634
0000a0 f1 27 3d 3d ac 6f 67 3d 31 51 ba 3d 5a 76 d9 3d
       0.04618067 0.056502983 0.09097517 0.10618277
0000b0 55 06 35 3d 34 a8 17 3e e0 0b ba bb d7 ed 53 3e
       0.04419549 0.14810258 -0.005677685 0.20696197
0000c0 3c 6d 01 3e 8b 03 f3 bd 2e ed 8e 3d 0b 79 64 3d
       0.12639326 -0.1186591 0.06978832 0.055779498
0000d0 df 95 86 3d ae 97 f5 bd 32 d2 c3 bd 6c e4 37 3e
       0.065715544 -0.11991821 -0.09561576 0.1795823
0000e0 d4 3a db 3d e0 b5 cd bd 38 b1 27 bd 68 ff a4 bc
       0.1070458 -0.100444555 -0.040940493 -0.020141318
0000f0 41 7c 2f be cb 99 b4 3d 3c 80 53 3d d0 71 97 3d
       -0.17137243 0.08818396 0.051635966 0.07394755
000100 b8 a6 e7 3d 06 74 d7 3d 00 9f 36 3d 10 e5 e7 bc
       0.11311096 0.105201766 0.044585228 -0.028307468
000110 20 ad a7 bb fa a6 e6 3d fc 44 8c bd 70 10 67 bc
       -0.0051170737 0.11262317 -0.06849095 -0.01410304
000120 44 6b e9 bd 00 23 14 3d 34 b5 a4 bd 70 8c e5 3d
       -0.113974124 0.03616619 -0.08042374 0.11208427
000130 f8 cd fa bd 18 d3 23 3d d8 dc dc 3c fa ad 8f bd
       -0.12246317 0.039996237 0.026960775 -0.07015605
000140 a8 f0 b7 bd bc 7e 06 3d 48 e7 1a bd 48 7d 8f 3c
       -0.089814484 0.032835707 -0.037818223 0.017515793
000150 e0 73 93 bd e0 fa aa bc d4 f6 01 3d e8 3d fd bd
       -0.07199836 -0.02087158 0.031729534 -0.12365323
000160 88 8d 11 bd c6 ef 92 bd 6c e7 3f bd 8e a1 8a 3d
       -0.035535365 -0.071746394 -0.04685156 0.06769095
000170 42 24 cf bd 74 0d cf 3d c0 c7 2c 3c 46 b1 e7 bd
       -0.101143375 0.10109988 0.010545671 -0.11313109
000180 c0 c2 d0 3c 40 84 3a 3c e8 9c 98 3c 5c 65 24 bd
       0.025483489 0.01138407 0.018629506 -0.040135726
000190 50 ae 15 3c 20 ca a4 bb f4 55 95 bd 90 26 a5 3d
       0.009135798 -0.005028978 -0.07291785 0.08063996
0001a0 bc b8 a1 bd 00 c8 9a 3c d0 7e 26 3c 06 dc c2 3d
       -0.078965634 0.018894196 0.01016207 0.095146224
0001b0 80 8a 7d bb 80 4c 3b bd e6 17 d9 3d b8 e7 77 bd
       -0.0038687289 -0.045727253 0.106002614 -0.06052372
0001c0 20 6d 04 3d d0 23 a3 bc b8 61 42 bd d0 38 6c bc
       0.032330632 -0.019914538 -0.047456473 -0.014417842
0001d0 04 1a 0c bd 14 19 c7 bd 64 9f 75 bd 36 5b fb 3d
       -0.034204498 -0.0972158 -0.05996646 0.122732565
0001e0 68 93 89 3c 10 39 0b 3c e4 b3 9a 3d 90 47 0e bc
       0.016793922 0.0084974915 0.07553843 -0.008684054
0001f0 8a b8 80 bd 62 4b e4 bd 18 55 c4 3c 30 aa 23 3c
       -0.06285198 -0.11147191 0.023966357 0.009989306
000200 f0 bf a9 bc c4 38 49 3d 10 de 9b bd b0 89 d4 bd
       -0.020721406 0.0491264 -0.076107144 -0.10377824
000210 70 ce 78 3c b0 dd 7c bd 6c 21 6d bd e2 8a f6 bd
       0.015185937 -0.061734855 -0.0578932 -0.120382085
000220 f0 64 8e bd 62 fe bf bd 78 98 69 bd c8 45 40 bd
       -0.06952846 -0.093746915 -0.05703017 -0.04694155
000230 fc 34 39 bd 2a 7f 9a bd fc ff 75 3d e0 29 ce 3d
       -0.045216545 -0.07543786 0.06005858 0.10066581
000240 38 c2 84 3d 60 ee 8a bb b0 51 67 bd aa 8f e8 bd
       0.06482357 -0.0042398423 -0.056474388 -0.11355527
000250 5e 92 8c 3d 82 19 ad bd 82 f4 c1 bd a0 6a a4 bb
       0.06863855 -0.08452131 -0.09470464 -0.0050175935
000260 40 23 99 3b a8 1e f8 3c bc 21 82 3d 40 99 bc 3b
       0.0046733916 0.030288056 0.063540906 0.0057555735
000270 c6 3a e7 3d ee 71 9c bd 80 80 c7 bb 46 26 9f 3d
       0.11290507 -0.07638918 -0.0060883164 0.07770972
000280 90 b9 84 3d aa cb 84 3d e6 e4 d0 3d 00 a6 05 bd
       0.06480706 0.06484158 0.10199909 -0.032629013
000290 8e 0a a7 bd 44 a5 ad bd 30 4e 07 bd e0 76 dd 3d
       -0.0815631 -0.084787875 -0.03303355 0.10813689
0002a0 1c 04 56 bd 60 5d 51 bd 30 48 e8 bd 12 49 8a bd
       -0.052250013 -0.05111444 -0.11341894 -0.06752218
0002b0 38 c2 fc bd 6c 3f be bd 00 a3 81 bb e4 f5 a6 bd
       -0.12341732 -0.092894405 -0.0039561987 -0.08152369
0002c0 dc 23 f9 bd 28 83 62 3d 96 8f cc 3d d0 8f 39 3c
       -0.12165043 0.05530086 0.09988324 0.0113257915
0002d0 d8 c0 3f 3d f0 4d 48 bc 24 96 8c 3d 60 fd 24 bd
       0.04681477 -0.012225613 0.068645746 -0.0402807
0002e0 4c 19 f2 bd 1c 0f 77 3d 78 d5 07 3d 6a 13 98 bd
       -0.11821231 0.060317144 0.033162564 -0.07425578
0002f0 36 f4 98 bd 5e de 9c bd e4 0c c9 bd 14 04 ca bd
       -0.074684545 -0.07659601 -0.09816912 -0.09864059
000300 84 d3 34 bd 18 47 cf bc e0 ad 8c bd 63 dc ae 3d
       -0.04414703 -0.025302455 -0.068691015 0.08538129
000310 04 3d 51 3e c6 40 04 3d b9 01 b2 bb 6c a1 a0 bd
       0.20433432 0.032288335 -0.0054323343 -0.07843289
000320 e9 62 8f 3d bb 01 a3 3d 80 78 11 3e d8 05 87 3d
       0.070012875 0.079593144 0.14206123 0.065929115
000330 e2 56 01 3e a0 1e 49 3d 91 37 0e 3b 54 46 ec 3d
       0.126308 0.049101472 0.00217006 0.115368515
000340 9a 9b cb bc 32 ec 26 3e a6 d3 18 3e 1d 49 ce bd
       -0.02485447 0.16301039 0.14924487 -0.10072539
000350 68 7f 8f 3d cb 49 4c 3e 94 30 7c 3d 0a ac e1 3d
       0.07006723 0.19950025 0.061569765 0.11019142
000360 b3 eb 36 3e d6 18 2e 3d 80 31 95 bd 6c bc f0 3d
       0.1786335 0.042504154 -0.07284832 0.117546886
000370 b9 3d 77 3d 74 3b 2d 3e c8 2a eb bc 4b 26 ee 3d
       0.060361598 0.16917211 -0.028706923 0.116283976
000380 46 2f a8 bd 30 21 bc bc f0 da fc bd f4 66 80 bd
       -0.08212142 -0.022965044 -0.123464465 -0.06269637
000390 b8 b9 38 3e 3f b5 ca bd c2 cc 58 bd 4c b5 0d bd
       0.18039596 -0.09897851 -0.052929647 -0.034596726
0003a0 e9 0e be bb 72 81 18 bd 43 3a 34 3d 05 9e 36 3e
       -0.0058001173 -0.037232824 0.044000875 0.17833717
0003b0 9a a6 db bb 76 ee 47 3d 08 a8 fb bd b1 a5 e9 3b
       -0.00670321 0.0488114 -0.12287909 0.0071303477
0003c0 e1 66 f5 3d 27 4b 90 3c 44 4c 3e 3e 23 1f 88 bd
       0.11982513 0.01761396 0.1858378 -0.06646564
0003d0 66 63 17 bd 50 fa 0a 3d 15 0c 84 bc f3 b0 ab 3d
       -0.036960028 0.033930123 -0.016119042 0.0838336
0003e0 58 aa 2e 3e f4 24 dd 3d 94 9d b1 3d ec 60 18 3d
       0.17057168 0.10798064 0.08672634 0.037201807
0003f0 21 fd 3e be 05 8c 9a 3d 1f e6 d0 3c b7 13 bf 3d
       -0.18651249 0.07546238 0.025500355 0.09329932

fc2_1_1.bias f4 [64]
000000 f5 b2 80 3d 30 d6 c5 bd 6c b1 3f 3d eb d2 aa bd
       0.06284133 -0.09659994 0.046800062 -0.08341011
000010 50 e7 bc 3d ac 30 8c bd 6f f3 84 bd e9 ff e2 3d
       0.09223807 -0.06845221 -0.06491744 0.11083967
000020 0d cd a7 3d 6a e9 a7 3d 58 00 83 3d 54 4b 2c bd
       0.08193407 0.08198817 0.0639655 -0.042064026
000030 e5 01 b2 3d fa 6d 7d 3d 3d d4 10 bc 1c 7d f4 3c
       0.086917676 0.06187246 -0.008839664 0.029844813
000040 58 48 eb bd 1b d1 5c bc 68 0f 14 bd d8 77 3d bd
       -0.11488408 -0.013477589 -0.036147505 -0.04625687
000050 3f 99 56 bd 20 19 ff bc 11 cf af bd 60 a6 99 3d
       -0.05239224 -0.03113991 -0.08584417 0.07502437
000060 ee 38 b0 3a 90 15 d5 bd 0d b8 98 3d 5e 7d c5 bd
       0.0013444701 -0.10404503 0.0745698 -0.096430525
000070 b9 55 38 3d 30 fe 78 3c 08 f6 86 bd ae 99 f2 3d
       0.045003626 0.015197322 -0.065898955 0.11845718
000080 ab 6d a0 3d c3 81 a1 3d 26 9f 42 3d 8b 9d da 3d
       0.078334175 0.07886078 0.047515057 0.1067458
000090 87 7c f2 3c 1e a8 98 bd 67 90 c9 bc f8 c5 68 bd
       0.029600395 -0.07453941 -0.02460499 -0.056829423
0000a0 6f 0f a6 3c af 68 b5 3c c0 41 96 bb 54 2e 1c bd
       0.020271031 0.022144644 -0.0045854747 -0.03813012
0000b0 8d 7b f4 3d 40 e7 06 3e 48 35 00 bd 2d bc bc 3d
       0.11937628 0.13174152 -0.031300813 0.09215579
0000c0 73 da a7 bd c2 fc 08 3e f8 70 07 bd 94 54 50 bd
       -0.08195963 0.1337767 -0.03306672 -0.05086191
0000d0 a3 3d c7 3d e9 57 8f 3d a0 66 95 bd da 9c bc bd
       0.09728553 0.069991894 -0.07294965 -0.092096046
0000e0 ea 45 96 bd 4a 97 92 bc 26 b0 df bd e0 4e 63 3d
       -0.07337554 -0.017894406 -0.109222695 0.055495143
0000f0 d0 d9 1e 3d 28 74 cb 3d a1 47 01 3e be f3 fc 3d
       0.03878194 0.099342644 0.1262498 0.12351178

fc2_1_2.weight f4 [32, 64]
000000 a5 57 c8 3c 40 7a bf bd 62 f7 c1 bd 87 de d2 3d
       0.024455855 -0.09349489 -0.09471013 0.1029635
000010 81 32 e4 3c 27 f1 a3 3d 0b 8a e0 3d 12 ad 5b 3b
       0.027856113 0.080049805 0.109638296 0.0033519906
000020 80 47 d3 bc 05 6c 3c 3b d1 32 98 bd ca 61 e0 3c
       -0.02579093 0.0028750908 -0.074315675 0.02739038
000030 f0 16 e7 3d fe 6d 74 bb 31 37 af 3b bf 1c cb 3d
       0.11283672 -0.0037297006 0.0053471555 0.09917592
000040 de 7d f6 3d 3e 7f 08 bd 60 3e b8 bd 44 49 15 3d
       0.12035726 -0.033324473 -0.08996272 0.036446825
000050 e1 16 da 38 5c 91 a5 3d 7a b7 ed bd e3 2e 37 bd
       0.000103993116 0.08084366 -0.11607261 -0.04472245
000060 58 7d 02 bd 11 ef 2d 3d e1 f1 7d bd fb ce d5 3d
       -0.03185782 0.04246432 -0.06199825 0.10439869
000070 96 c8 2c 3c a6 fc d0 3d 56 26 da bd 58 af c6 3c
       0.01054587 0.10204439 -0.10651843 0.024253532
000080 7d c7 45 3d b9 0c 28 3c e0 69 e8 3d 1b 27 13 bd
       0.04828595 0.01025694 0.11348319 -0.035925966
000090 4c 82 de bd df 38 73 3d 7f c9 b0 3d 40 a1 48 3d
       -0.10864696 0.05938041 0.08632182 0.048981905
0000a0 f2 c6 b0 bd d7 dc d3 bc 60 00 f4 3c c4 33 f4 bd
       -0.08631696 -0.02586214 0.029785335 -0.11923936
0000b0 f9 d1 ae bd f4 86 87 3c 97 df ad bd dd 83 a7 3d
       -0.08536143 0.016543843 -0.08489912 0.08179448
0000c0 6c 74 d7 bd d2 a1 d4 ba 41 e9 ff bd ae 81 e3 bd
       -0.105202526 -0.0016222543 -0.124956615 -0.11108719
0000d0 72 bf 29 3c c2 43 6a 3d fa 6e 99 3d 36 1f 90 bd
       0.0103605855 0.057193525 0.0749187 -0.07037203
0000e0 93 0a 8e bc 6e a8 0f bd 5c 0b 55 bd 22 a3 ef 3d
       -0.017339027 -0.035072736 -0.052012786 0.11701037
0000f0 98 06 a8 bc 99 bb f1 bd 3e d7 e6 bd b4 3e d4 3d
       -0.020510957 -0.118033595 -0.11271523 0.10363522
000100 3a 7a 86 3d 60 39 a5 3d f8 77 b4 bc ee 31 7e bd
       0.065662816 0.08067584 -0.022029862 -0.062059335
000110 02 6e b6 bd 03 ea 1e bd 10 4b 40 bd 08 d3 e1 bd
       -0.08907701 -0.03879739 -0.046946585 -0.11026579
000120 2c bc 8b 3c 59 ca 7c 3d fd 49 4c 3c 16 d5 14 bd
       0.0170575 0.06171641 0.012468812 -0.036336027
000130 e3 e1 a8 3d b7 e0 f0 bd 44 09 22 3d 08 06 a3 bd
       0.082462095 -0.11761611 0.039559618 -0.07960135
000140 0a a9 b9 3d 1a a5 bb 3c ca 6f 93 bd 00 8a 85 39
       0.09065445 0.022905875 -0.071990564 0.00025470555
000150 b2 4d fa 3d 42 69 f1 3d c8 df c2 3d 35 66 a7 3b
       0.122218505 0.117876545 0.09515339 0.0051086196
000160 7c 04 d0 bd 3d 4c 01 be 86 db 24 3d 88 e4 86 3d
       -0.10157105 -0.12626739 0.040248416 0.065865576
000170 0d d4 f6 3d 70 85 71 bd c6 25 87 3d 35 5a b1 bd
       0.12052164 -0.058965147 0.065990016 -0.08659784
000180 be 8f 45 3d 4c c5 87 bd 6a 58 ec 3c 70 e5 7f bd
       0.048232786 -0.06629428 0.028850753 -0.062474668
000190 62 94 cc bd ef d9 8e 3d 58 47 0b bd 74 04 5c bd
       -0.09989239 0.06975161 -0.034003586 -0.053715184
0001a0 0e 72 74 bc b3 da ea bd 50 83 d4 bd 68 05 02 3d
       -0.014919771 -0.11467495 -0.10376608 0.031743437
0001b0 d0 5c b4 bd 0c 5a 43 bc 36 73 b2 3d c4 6a 87 3d
       -0.08806765 -0.011923324 0.08713381 0.06612161
0001c0 95 62 88 3b 02 f9 d2 3c e8 d9 97 3c 9c a7 1c 3d
       0.0041621425 0.025753502 0.018536523 0.038245782
0001d0 b5 2d dc bd cc b2 d6 3c 78 11 97 bc 1d 03 08 3c
       -0.107509054 0.026208304 -0.018440947 0.0083015235
0001e0 81 dc 48 bd ab 57 b9 3d a2 06 dc bd 24 ef a5 3d
       -0.049038414 0.090499245 -0.107434526 0.08102253
0001f0 40 a3 84 bd 1c 7b e9 3d a0 21 b1 bd bc 37 14 3d
       -0.0647645 0.114004344 -0.086489916 0.036185965
000200 6f d5 fa 3d 2e a0 d1 3d c2 a1 8a bd 83 67 18 3e
       0.122477405 0.1023563 -0.06769134 0.14883237
000210 d3 1b fb bc 2f f9 ae bd b1 14 48 3e 93 c3 00 3e
       -0.030652916 -0.08543622 0.19539143 0.12574606
000220 99 54 3c 3b 54 bc c7 3d 67 7f ad 3d 38 d2 07 3e
       0.0028736948 0.097527176 0.08471566 0.13263786
000230 96 7d 24 3e 59 18 e8 3d 65 b9 3d 3d 51 f2 b5 bd
       0.16063532 0.11332769 0.046319384 -0.08884109
000240 21 04 55 3a a2 a8 1f bd 10 54 d0 3d c4 10 9d 3d
       0.00081259204 -0.03897918 0.10172284 0.076692134
000250 ae d3 ce 3d 80 a2 d6 bc 77 3c a0 3c 00 18 5a 3e
       0.100989684 -0.026200533 0.019560082 0.21298218
000260 3a 25 36 3d 4c 28 25 3c 23 cf a6 3d ee f7 32 3e
       0.044469096 0.010080408 0.08144977 0.1747739
000270 50 3e 6b b9 74 ea 0a 3d 74 92 30 3e 67 40 22 3d
       -0.0002243456 0.033915 0.17243367 0.0396122
000280 b9 28 0c bc 1e 7f 9c 3d 3d 61 dd 3d e3 ba 17 3e
       -0.008554631 0.07641433 0.10809562 0.14817385
000290 50 9f 42 3e 38 5d ea 3d f4 a4 12 3d f0 21 ff 3c
       0.19006085 0.11443561 0.035801843 0.031144112
0002a0 fe 0f 40 3d 71 b2 ba bc 40 46 51 3d a0 24 01 bd
       0.04689025 -0.022790166 0.051092386 -0.03152907
0002b0 63 0a 26 3c a6 33 2e 3e 12 fd 83 3c f2 b6 0a 3e
       0.010134312 0.1701189 0.016111884 0.1354635
0002c0 e4 36 0b 3e 5c 72 c2 3d 58 23 1d 3d b0 da 84 bd
       0.13595158 0.094944686 0.038363785 -0.06487024
0002d0 7b 85 a7 3d 89 63 d2 bd 58 ce b0 3d 0e d1 3a 3e
       0.08179756 -0.10272891 0.08633107 0.1824381
0002e0 cd 9b 49 3e 2a ed 00 be 58 2e f6 3d 70 6f c3 bc
       0.1968834 -0.12590471 0.12020558 -0.023856848
0002f0 00 df 8d bd 78 31 ec 3c 6a 6e 48 3e ec 88 b2 3d
       -0.069272995 0.028832182 0.1957337 0.08717522
000300 a6 56 1b 3e f0 d9 0c 3d dc d1 fd bd d6 9e 00 3e
       0.15169773 0.03438753 -0.12393543 0.12560591
000310 23 8f dd bd ab 76 96 3c b7 66 5e 3d f7 f4 84 3d
       -0.10818317 0.018367132 0.054297175 0.06492036
000320 65 e3 b7 3d 15 e7 06 3e 6e 9a 49 3c 4c ac ca bd
       0.08978919 0.13174088 0.012304885 -0.09896144
000330 44 bc 39 3e 79 d2 fc 3d c8 5e c9 bc 66 4f 9d bc
       0.18138224 0.12344832 -0.024581328 -0.0192029
000340 70 a8 6d bd 01 c2 1e 3e c0 de 1c bd 66 1c 8f 3d
       -0.058021963 0.15503694 -0.03829837 0.069878384
000350 61 92 f2 bd 56 58 d7 3d a8 8c 11 3e 23 8e 39 3c
       -0.11844326 0.105148956 0.14213812 0.011325392
000360 5b e3 ef 3d f5 72 ff 3d df ce 40 3c cc b7 cb bb
       0.117132865 0.12473098 0.011768072 -0.0062169787
000370 8b 21 b7 bd 48 3e 5f bd 8e 0d 9d 3d 6c c3 3f 3e
       -0.08941945 -0.054502755 0.07668601 0.18726891
000380 91 ad 26 3d d8 5f 2b 3e 5e 19 1b 3d f5 b3 f1 3d
       0.04069287 0.1673578 0.03786599 0.11801902
000390 46 a9 de bb 5f 9e 44 3e 0e 63 11 3e 14 b7 51 3d
       -0.0067950813 0.19201039 0.14197943 0.051199988
0003a0 b0 33 14 3d b0 be 35 3e 80 49 91 3d 68 d4 d0 bd
       0.036182106 0.17748523 0.07094097 -0.10196763
0003b0 a3 25 fe 3d 4e 8e 72 bc 49 3c 22 3e 7b c2 84 ba
       0.124095224 -0.014804436 0.1584331 -0.001012876
0003c0 71 e4 da bc 63 a2 33 3e 99 11 81 3c a8 f4 e4 3d
       -0.026720257 0.17542414 0.015755462 0.11179477
0003d0 ce ac 65 bd d7 21 3c bd 72 be 8a 3d b3 2a eb 3d
       -0.056073003 -0.04593071 0.06774606 0.114827536
0003e0 de 8b 03 bc ef 14 14 bd da 2f ff bd 48 dc bf bc
       -0.008028952 -0.036152776 -0.12460299 -0.023420468
0003f0 3c 9d 79 bd d1 4d df 3d da 2c 72 3c f3 3a 0b 3d
       -0.060940966 0.10903514 0.014781201 0.033991765

fc2_1_2.bias f4 [32]
000000 16 9a 92 3d ae 53 61 bd c1 41 ae 3d 20 6a 22 3d
       0.07158296 -0.055011444 0.08508635 0.03965199
000010 3b d1 bc 3d d0 99 57 3d b0 8f 64 3c 72 c4 f0 3d
       0.09219595 0.05263692 0.013950273 0.11756219
000020 40 c6 88 3c 06 9e 9a bd 08 bb da bd e0 7b 95 3c
       0.016696095 -0.07549672 -0.10680205 0.018247545
000030 6c e9 be 3d c7 b6 06 3e 5b 4b 8e bd 00 07 5b 3d
       0.093218654 0.13155662 -0.06947967 0.053473473
000040 79 37 ee bd 77 ad 1c 3d 40 04 cf 3d cd 9e c5 3d
       -0.11631674 0.038251366 0.101082325 0.096494295
000050 db 08 c1 bd 45 53 9f bd bf 12 b1 3b b4 ae ae bd
       -0.09425517 -0.07779554 0.005403846 -0.08529416
000060 b3 2c 89 3d 4e 99 36 3c 74 36 c5 bd f4 07 87 3d
       0.06697979 0.011144949 -0.09629527 0.06593314
000070 c8 3f ca 3d bc 84 ce 3c ef d7 a0 bd f3 40 bc bc
       0.098754466 0.025209777 -0.07853686 -0.022980189

fc2_2.weight f4 [16, 32]
000000 4d 80 62 bd 46 95 19 bd 23 d5 03 3e fc 93 ee 3c
       -0.05529814 -0.037495874 0.12874274 0.029123299
000010 86 8a e8 3d 85 03 0f 3e 88 be 02 be 95 6a 90 3d
       0.11354546 0.13966186 -0.12767994 0.07051579
000020 27 a1 14 3e 77 d1 03 3d 03 ed 5b 3d 33 34 2d be
       0.145146 0.032182183 0.05369283 -0.16914444
000030 3e 2f 1d be e4 0e a7 3d e1 d6 ae 3d 16 94 15 be
       -0.15350053 0.08157137 0.08537079 -0.14607272
000040 cb 85 f6 3d 64 63 9f bd 5f 14 43 ba 1c 20 a4 bd
       0.12037238 -0.07782629 -0.0007441695 -0.08013937
000050 6d 9a 26 bd dd ee 29 bc 55 67 de 3b 8a 77 00 be
       -0.040674616 -0.010371891 0.0067872205 -0.125456
000060 5f 11 26 be 79 c3 99 bd 15 30 e2 3d 6b 41 88 bd
       -0.16217564 -0.075079866 0.11044327 -0.066531025
000070 9d 93 4f be 0d 6e cd bc b1 6f 07 be c8 54 55 3c
       -0.20271154 -0.02507689 -0.132262 0.013020702
000080 e5 1b 2c bd fa 05 00 3d 84 07 01 3e ef 65 27 be
       -0.04201879 0.0312557 0.12600523 -0.16347478
000090 ed 11 9c 3d 36 e2 b1 3d 17 b9 00 3e f8 a0 b4 3d
       0.076206066 0.086857244 0.12570606 0.08819765
0000a0 72 64 26 bc 47 5f 04 be bb 21 1d 3e fb f2 af 3c
       -0.010155784 -0.1292697 0.15344898 0.021478167
0000b0 04 65 c3 3d 3d c1 a9 bd 2f 79 b7 bc 3c 58 ba bc
       0.095407516 -0.082888104 -0.022396652 -0.022747152
0000c0 c2 3c 2e 3e d9 3b 0f 3e 95 bf cd 3d c1 b0 3b 3d
       0.17015365 0.13987674 0.10046307 0.045822863
0000d0 6c 28 cd bd 1d bf 19 3e 2e 36 2a 3e 0d 42 0a 3d
       -0.100174755 0.1501431 0.1662223 0.033754397
0000e0 6d ab 83 3d 47 07 05 be e0 01 88 bb 68 52 29 be
       0.06429181 -0.12991057 -0.004150614 -0.16535342
0000f0 33 5a 31 be b1 a2 8c bd 20 d3 2a be 12 c9 c3 3d
       -0.17319565 -0.068669684 -0.166821 0.095598355
000100 8a fa 85 bc c5 2d 10 be 92 b0 2d 3d 5b 18 0e 3e
       -0.016354818 -0.1407996 0.04240472 0.13876478
000110 e6 78 4b 3d 66 90 6a bd 6b ab 8c 3d e9 b5 2e 3e
       0.049675845 -0.057266615 0.06868633 0.1706158
000120 a4 1e 6b 3e 82 5c 51 3e 58 a8 c3 bd c5 f6 56 3e
       0.22960907 0.20445445 -0.095535934 0.20992573
000130 50 47 01 3e c7 f0 37 bd b3 bf 83 3d 2a 7d a5 3d
       0.1262486 -0.044907358 0.06433048 0.08080514
000140 47 72 fa 3d 0a e7 e4 3d 31 82 3e 3b 8c 7f be bc
       0.12228828 0.1117688 0.00290693 -0.023254178
000150 59 50 18 bd f8 5b 1d 3e 6a f8 62 3e 7e 4d 81 bd
       -0.037186 0.15367115 0.22165075 -0.063136086
000160 fa 55 0f 3e e5 f8 2a bd 09 c2 bc bd 77 a0 46 3e
       0.13997641 -0.04174127 -0.09216697 0.1939715
000170 d9 ce 77 3d 09 91 5b 3d 01 f7 d2 3b f4 7e 18 bd
       0.0605 0.053605113 0.0064381366 -0.037230447
000180 a2 82 fa bd 50 cb c0 3d b3 37 26 3e 9d 39 55 3e
       -0.122319475 0.09413779 0.16232185 0.20822759
000190 3b 5d 6f bd d5 b3 8b bc 7a 57 d9 bd f7 08 b7 3d
       -0.05843852 -0.017053524 -0.10612388 0.08937257
0001a0 40 19 d4 3c 3c b3 30 3d 02 55 b8 bd bc f6 2c 3e
       0.025890946 0.04313968 -0.09000589 0.16890997
0001b0 d2 b3 0b 3d 47 1d 8b 3d f6 95 37 3e 41 c9 dc bd
       0.034107037 0.067926936 0.179283 -0.10780574
0001c0 08 f8 21 3e 65 14 40 be 7e eb 23 3e 2f 90 b0 3d
       0.15817273 -0.1875778 0.16007802 0.08621251
0001d0 15 ac da 3c 6a df 80 3e 85 57 10 3e c9 63 36 3e
       0.026693383 0.2517045 0.14095886 0.17811503
0001e0 57 e3 e0 bd 52 5d 4c 3d c7 1e 39 3e af 92 25 bc
       -0.10980862 0.049893685 0.18078147 -0.010105773
0001f0 56 6e 7d 3e bd 4b f8 bd e5 1f 7a 3e 0d d3 6c 3e
       0.24749121 -0.12123821 0.2442623 0.23127384
000200 5f 38 e3 3d 0a 94 0f 3d 77 8a 1f 3e 82 3a 31 be
       0.11094736 0.03505329 0.15580164 -0.17307475
000210 46 9c 06 bd 9e ec db bd e3 62 0f be 8e 4b f7 bd
       -0.032863878 -0.107384905 -0.14002566 -0.12074958
000220 2f d5 13 3d 82 d0 21 3e 6d 2a 35 be 95 a8 09 3e
       0.03609198 0.15802196 -0.17691965 0.13443215
000230 8e e8 df bd de 48 fb 3c 7e fe 48 bd 7d 22 3d bd
       -0.10933028 0.030674394 -0.049070828 -0.04617547
000240 37 65 d7 bd 77 1f 14 be a9 ef 0e be 26 d3 b0 3d
       -0.10517352 -0.14465128 -0.1395861 0.08634023
000250 23 7f 26 be 76 18 6d 3d 71 9a 42 bd 60 4e 15 be
       -0.16259436 0.057884656 -0.047510568 -0.14580679
000260 69 5d a6 3d af 93 aa bd 13 95 b6 bd e6 cb c7 bc
       0.08123285 -0.0832895 -0.089151524 -0.024389219
000270 57 5c 22 be de ef 34 be 17 de 34 be 76 fd 77 3c
       -0.15855537 -0.17669627 -0.17662846 0.015136113
000280 ad 2c 00 3e 8b 13 b0 3d ad fe 20 be f4 86 36 ba
       0.12517042 0.085974775 -0.15722151 -0.00069628586
000290 24 0e d1 bd 69 a0 f7 bc 43 39 06 bd 34 5f 19 3e
       -0.10207775 -0.030227857 -0.032769453 0.14977723
0002a0 bc f8 a1 bd 02 c5 91 bb 86 4d f1 3c 6f 9f 00 3d
       -0.079087704 -0.004448534 0.029455911 0.031402048
0002b0 a8 48 cf 3d bf ec 84 bd 82 0e c5 3d 07 2b 84 bc
       0.1012128 -0.06490468 0.09621908 -0.016133798
0002c0 5e 2e b7 3d 80 55 29 3e 5c 0f 86 bd 0d b1 06 3d
       0.08944391 0.16536522 -0.06545898 0.032883693
0002d0 98 99 95 3d cc c4 04 be 4d 6a 29 be 57 c9 11 be
       0.07304686 -0.12965697 -0.16544457 -0.14236961
0002e0 25 80 8c 3c dc b4 90 3d ec 75 28 3e 4e d1 1e be
       0.017150948 0.07065746 0.16451234 -0.15509531
0002f0 77 b7 c4 3d e9 31 18 bd 5a 6c d0 bd 9b 0d e7 3d
       0.09605306 -0.037156973 -0.101769164 0.11281892
000300 ba 3c 96 bc d0 32 c9 3c 29 3d 38 3c b8 b6 99 3d
       -0.018339504 0.024560362 0.0112450505 0.07505554
000310 05 d0 e1 3d 84 f7 bf bd 01 cf 50 3d 57 5c 2e 3e
       0.11026005 -0.09373382 0.050978664 0.17027412
000320 60 5b 20 3e da f0 87 3e d6 5c 2f 3e 0b 6f 53 3d
       0.15659857 0.26550943 0.17125258 0.05161957
000330 8d b1 45 3c 9a df 84 3e 7e e2 e8 3c 00 0b 56 be
       0.012066257 0.25951844 0.028428312 -0.20902634
000340 cf 1c 77 3e f1 c4 e6 bd cf 29 b8 3c 8a f5 0e 3d
       0.24132083 -0.11268032 0.022480873 0.034902133
000350 aa b4 ab bd 6c c7 61 3e 5e 75 3a 3e a6 82 df 3d
       -0.08384068 0.2204873 0.18208835 0.10913591
000360 e5 4e 82 bd 70 c6 98 bd a8 17 95 bd 98 44 b4 3d
       -0.06362704 -0.07459724 -0.07279903 0.08802146
000370 74 70 65 3e c0 02 5b be d3 a6 99 bc 8c 0c 77 3c
       0.22406179 -0.21387768 -0.018756306 0.015078675
000380 2d 81 6c bd fb 1f 49 3b a6 77 19 3e ab 23 f1 3d
       -0.05774038 0.0030689228 0.14987049 0.11774381
000390 b7 59 bd bc 10 34 df 3b ea 61 2c bd c1 bd 9f 3c
       -0.023114068 0.0068116263 -0.042085566 0.019499661
0003a0 37 b8 fa bd e0 b3 b8 bb f6 4a 30 be 80 03 0c 3e
       -0.122421674 -0.005636677 -0.17216095 0.1367321
0003b0 85 b9 2a bd a7 50 0d be 0a e4 2f be 9e d3 8e bd
       -0.04168083 -0.13800298 -0.17176834 -0.069739565
0003c0 4d c6 df bc 52 4c a7 3d 77 77 6a bc e4 b9 c8 3c
       -0.027316237 0.08168854 -0.014310709 0.024502702
0003d0 94 d0 1f be f4 9e 18 be 3b 65 1f 3d 9d 39 17 be
       -0.1560691 -0.14904386 0.0389149 -0.14768071
0003e0 d9 7b 71 bd 6c 55 a5 3d 9e 4c 19 be 0e 5c 20 3d
       -0.058956 0.080729336 -0.14970633 0.03915029
0003f0 dd 95 f4 bd 11 c2 34 be ff e7 18 be b6 d0 8a bc
       -0.11942647 -0.17652155 -0.1493225 -0.016945224

fc2_2.bias f4 [16]
000000 4a 66 41 be 00 c0 fa 3d 80 05 c7 bb 37 a6 71 bd
       -0.18886676 0.12243652 -0.0060736537 -0.058996405
000010 a8 b7 03 3d fa 83 7a 3c 9c 6b 03 3e a5 5a 31 be
       0.03215757 0.015290255 0.12834018 -0.17319734
000020 12 c1 0e 3d e4 19 81 3d 92 37 1b 3e 84 3d 36 3e
       0.034852095 0.06303766 0.15157917 0.17796904
000030 e4 df 74 bd 1f 4d 3b 3e 4c 89 07 3e ad 40 5f bd
       -0.05978383 0.18291138 0.13235968 -0.05450504

fc3.weight f4 [4, 16]
000000 09 de 03 bb 2d 5b 82 3e 7c df e9 3c 37 11 73 3d
       -0.0020121357 0.25460187 0.028548948 0.05934259
000010 9e 86 5a bc 42 25 ff 3b 79 47 98 3e e8 6d 3f 3e
       -0.013337759 0.007786424 0.2974203 0.1869427
000020 0b 76 25 3d 5f 13 98 3e 10 c9 d6 bd 8c 2e 07 3e
       0.040395778 0.2970228 -0.104875684 0.1320135
000030 4e 56 58 3e ba 52 58 bd 40 ba 2b 3e 53 1f 67 be
       0.21126673 -0.05281327 0.16770267 -0.22570543
000040 5e 50 34 be 66 43 d9 3c fb e5 5c 3d ae a6 27 be
       -0.17608783 0.026521396 0.053930264 -0.16372177
000050 70 5a e6 bd 4d f2 d0 3d 55 d2 a6 bc 30 69 86 3c
       -0.11247718 0.10202465 -0.020363966 0.01640758
000060 61 c7 13 be d0 3a 1c be 4d a3 20 bd 27 b1 a3 bc
       -0.14431526 -0.1525681 -0.039218236 -0.019981934
000070 98 61 76 be 75 d4 1d 3e 20 31 64 3e a9 19 04 3e
       -0.24060667 0.15413077 0.22284365 0.12900414
000080 62 02 82 3e a8 ee 08 bd 46 f7 0f bd b1 49 2c be
       0.25392443 -0.033430725 -0.035147928 -0.16824986
000090 2c b6 fb bc 50 57 7e 3e fb 88 0d be 02 26 25 be
       -0.030726515 0.24837995 -0.13821785 -0.1612778
0000a0 81 73 15 be 36 ae b7 3d 3b 74 88 3e c6 06 08 3e
       -0.14594842 0.08968775 0.26651177 0.13283834
0000b0 92 84 35 bd 79 62 bf 3d 95 78 e5 bd 92 a7 6f 3e
       -0.044315882 0.09344954 -0.1120464 0.23403767
0000c0 e9 a9 81 bd 7e 9d 43 be e8 44 b9 3d 83 a1 74 3e
       -0.06331236 -0.19103047 0.09046346 0.23889737
0000d0 88 fd 53 be 46 ae 3e be f4 5c fb 3d d0 c1 75 bd
       -0.20702183 -0.18621168 0.12273589 -0.059999287
0000e0 d7 44 76 be d4 24 29 3c 01 af 3c 3e 72 77 8d 3e
       -0.24049698 0.010323722 0.18426134 0.27630192
0000f0 14 df 52 be 22 ca 81 3e ca 43 a1 3e e3 22 15 3b
       -0.2059291 0.25349528 0.3149703 0.002275639

fc3.bias f4 [4]
000000 84 3f 11 3e 38 77 c7 bd f6 1d 83 3e c8 ee b5 3d
       0.14184386 -0.09739536 0.25608796 0.088834345
