heater_experiments/heater_NN.onnx (onnx, 39865 bytes, 14 tensors)

fc1.weight f4 [8, 3]
000000 9e 0e d2 3e 7b a2 f4 be ff 67 95 3e 1f 62 7c be
       0.41026777 -0.47780213 0.29180905 -0.24646805
000010 67 01 92 be 7f 51 15 be af 81 b2 3e 85 12 c8 3e
       -0.28516695 -0.1458187 0.34864566 0.3907663
000020 2c 31 c3 3e a4 78 90 be 87 c4 15 be e7 1a 98 3e
       0.38123453 -0.28217041 -0.1462575 0.29708025
000030 e0 b8 88 3e b8 b0 a0 bd 19 c4 d3 3e c7 f9 cd bd
       0.26703548 -0.078462064 0.41360548 -0.10057407
000040 97 a0 d3 be f5 59 d7 3e 44 b2 81 3e b2 33 a8 3e
       -0.41333458 0.4206082 0.25331318 0.3285194
000050 f5 f5 ea bc c7 3d fa be 10 14 0c bf be e7 c7 3e
       -0.028681735 -0.48875257 -0.5471811 0.39043993

fc1.bias f4 [8]
000000 c7 7a 24 be 1e f8 cc 3e c4 8f 04 bc 74 78 1a bd
       -0.16062461 0.40033048 -0.008090917 -0.03771253
000010 7d 1f b9 bd 6e 22 07 3f 6c 9a b9 be 0a d8 6e bc
       -0.09039209 0.5278691 -0.36250627 -0.014577875

fc2.weight f4 [32, 8]
000000 2f a0 14 be b4 b5 87 3c 91 62 93 be 3d 1b dd bd
       -0.1451423 0.016566135 -0.28786138 -0.10796211
000010 c1 8b 71 be 38 60 b8 3e 0a 45 09 3d f4 0b 92 3e
       -0.23588468 0.3601091 0.033513106 0.28524745
000020 c7 5d 2b be f8 bc 77 be fa ff 6f 3c c1 71 42 3d
       -0.16734992 -0.2419318 0.014648432 0.047471765
000030 75 3d 10 be ad d6 ad be ea 1a a0 bc e6 a2 86 be
       -0.14085944 -0.33952847 -0.019544084 -0.26296157
000040 e5 b4 3e 3e bd 41 72 be cc 23 76 be 08 79 12 bd
       0.18623693 -0.2365789 -0.24037093 -0.035759956
000050 02 56 73 be 63 ab 02 be a4 72 48 be 2c e8 1e 3e
       -0.23763278 -0.12760691 -0.19574982 0.15518254
000060 3a 19 82 be df 3f 72 3d a5 15 0d be 6f ec 10 be
       -0.2540987 0.059142943 -0.13777788 -0.14152692
000070 f9 6f 51 3e 00 ac 42 be ab 28 dd bd fa 64 a3 be
       0.2045287 -0.19010925 -0.107987724 -0.31912977
000080 d8 f5 19 be c8 d8 01 be 19 3c 21 be 85 31 a4 3c
       -0.15035188 -0.12680352 -0.15745582 0.020043144
000090 d3 6d a5 be 90 7a a2 3d cd b8 50 be 91 ca a7 be
       -0.32310352 0.07933533 -0.20382996 -0.32771733
0000a0 09 3a 45 be 96 c7 1c 3e e5 5b 10 3e 68 6a be 3c
       -0.1926042 0.15310511 0.14097555 0.023244098
0000b0 21 27 22 be 70 63 a8 3e f6 2c 7c be ee d7 99 3e
       -0.15835239 0.32888365 -0.24626526 0.30047554
0000c0 63 9d fa bc 1b 7d fe bd 5b 56 27 3e cc f2 2f be
       -0.030592626 -0.12426206 0.16341536 -0.17182463
0000d0 c6 41 3d be 12 a6 bb bc f1 4e fa bd 32 50 21 be
       -0.18482122 -0.022906337 -0.12222088 -0.15753248
0000e0 09 38 9c bd a3 15 5c bd 90 0c 6f 3e ce 0c 2c 3e
       -0.07627875 -0.053731572 0.23344636 0.1680176
0000f0 ee c6 f4 3d c1 3a 20 3e ed 5c da bb b4 5c 46 3c
       0.11952005 0.15647413 -0.0066639096 0.012107063
000100 63 c4 44 3e b6 fb 0e 3d a8 c6 25 be 0a b2 c8 3e
       0.1921554 0.03490802 -0.16189063 0.39198333
000110 49 f7 99 3d 75 a9 df 3e 37 f8 9f be 03 46 23 3e
       0.07517869 0.43683973 -0.3124406 0.15944676
000120 21 2e 5a be 1c 82 7c bd 88 1b fa 3d 8b 9f 86 3e
       -0.2130666 -0.06164752 0.122122824 0.26293597
000130 ea a0 30 3e 66 17 72 be a7 69 8a be 07 46 28 3d
       0.17248884 -0.23641738 -0.2703373 0.04108241
000140 76 d5 1b 3d c1 ea f9 3d a8 bb 53 be 40 36 28 3e
       0.03804537 0.12202979 -0.20677054 0.16426945
000150 7b f4 96 be 4e 9c 4e be 35 bf a4 bd 6f 19 a2 be
       -0.294834 -0.20176813 -0.08044282 -0.3166003
000160 a5 70 b5 3e ee f5 1a be cc 06 04 bd c2 3a cf 3e
       0.35437503 -0.15132877 -0.032233045 0.40474516
000170 73 12 e3 bc b8 f5 5f be c9 ac 42 3e 42 d5 11 3e
       -0.027718758 -0.21871078 0.19011225 0.14241508
000180 66 c5 0c be 25 4d c9 bd b1 a5 a7 bd af 09 77 be
       -0.13747177 -0.09829167 -0.081859 -0.24124788
000190 84 45 46 be 1e 96 22 bd c9 03 81 be 8d 27 57 3d
       -0.19362456 -0.039693944 -0.251982 0.052527953
0001a0 91 34 9f be 81 16 b3 3d b2 73 4f 3d 6f 1d 90 be
       -0.31094792 0.08744527 0.050647445 -0.28147456
0001b0 20 a3 4d bd 66 a6 fb bd a6 49 a4 bb 16 41 2f 3e
       -0.050204396 -0.12287597 -0.0050136624 0.17114672
0001c0 70 6e 4b 3e 4e d4 be 3d b5 4a 79 be 0f 88 40 3e
       0.19866347 0.09317838 -0.24344905 0.18801902
0001d0 3a 00 8c be cc eb 40 be d1 0c 9f 3e bd a0 eb 3d
       -0.27343923 -0.1883995 0.31064466 0.11505268
0001e0 b5 06 2a 3e ec ba 58 be aa 07 98 be d1 18 f4 3d
       0.16604121 -0.21165055 -0.29693347 0.11918796
0001f0 cd a7 21 be cb e7 ed bd ef 25 60 bd 92 99 38 be
       -0.15786667 -0.116164766 -0.054723676 -0.18027332
000200 da 50 01 be 5c f0 2f bd 64 71 b7 3d 4a e5 8f be
       -0.12628499 -0.042953834 0.089571744 -0.2810462
000210 db 7c 8d be b9 81 11 3e 57 28 65 be 91 58 85 3e
       -0.2763432 0.14209642 -0.2237867 0.26044133
000220 01 f1 e6 3e 11 9d 3e bd 73 a0 9c bc 30 44 00 3e
       0.45105746 -0.04653651 -0.019119477 0.12526011
000230 ea 24 aa 3e 99 29 e7 3e b8 2c ea 3d 68 14 8a 3e
       0.33231288 0.45148924 0.11434311 0.26968694
000240 5a 82 86 3e ce 6e 74 be 97 f1 d7 3d 48 c1 27 bd
       0.26271325 -0.23870394 0.105441265 -0.04095581
000250 1d 33 06 be 64 ea 44 3e 20 06 93 bd 71 e3 3e 3d
       -0.13105436 0.19230038 -0.071789026 0.046603624
000260 65 8d cb bd eb 87 c6 3c 6c ec 12 be d4 a9 92 be
       -0.09939078 0.024234733 -0.14348 -0.28645194
000270 b1 92 bb bd c0 1b 38 be 99 bb 47 bb 0b 8a 08 3e
       -0.091588385 -0.17979336 -0.0030476807 0.13333909
000280 2a 5a b1 be 66 99 c6 bd 9d 14 09 be 9c d8 91 3d
       -0.34639102 -0.09697227 -0.1338677 0.07121393
000290 83 65 2d be 08 c2 82 be 8b 59 fb bd b5 65 9d be
       -0.16933255 -0.2553866 -0.12272938 -0.3074166
0002a0 59 6a 22 be 91 43 84 3e 8a d8 aa 3e 93 15 6e 3e
       -0.15860881 0.258328 0.3336833 0.23250417
0002b0 cd 5d 6f be 3d 68 17 3e 04 1a 13 bd d8 53 41 3e
       -0.23375626 0.14785857 -0.035913482 0.1887964
0002c0 b4 04 89 bd 3e bf ad 3e 4d 3a b9 3e 4b 11 9c be
       -0.0669035 0.3393497 0.36177292 -0.30481943
0002d0 09 20 05 be 1e ce a1 be b0 46 17 be e8 13 6f 3e
       -0.13000502 -0.31602567 -0.14773059 0.23347437
0002e0 fd c7 55 bd 14 fd b1 bc ed ab 22 be da 47 d0 bd
       -0.052192677 -0.021727122 -0.15885897 -0.101699546
0002f0 73 63 72 be 85 3a 12 be d5 1e ea bd cd 78 03 be
       -0.2367075 -0.14280136 -0.11431662 -0.1283905
000300 8a 6e 3f 3e 5f 0e 64 3d b1 e5 d7 bd e7 1c bf 3e
       0.18694511 0.055677768 -0.10541857 0.37326738
000310 96 3c b8 bd 71 99 d8 3e 45 e8 d5 3d 76 c2 7e be
       -0.08995931 0.42304567 0.104446925 -0.24878868
000320 a2 1a 29 be 6e 1b 87 3d 7b 49 2d be 02 aa a6 3e
       -0.16514066 0.06597029 -0.16922562 0.3255158
000330 91 89 b1 3e 72 17 0a bd 88 0f 5d be f2 31 69 3e
       0.34675267 -0.033713765 -0.21587956 0.22772959
000340 4b b2 ba 3e 73 f5 15 be 4a 29 14 be 7b eb 76 3d
       0.36464152 -0.14644413 -0.14468876 0.060283165
000350 b7 47 b0 3e 24 e5 57 3e a9 ac 0d 3e f7 38 0b 3e
       0.34429714 0.21083504 0.13835396 0.13595949
000360 af 41 d7 3e b6 12 65 3b 7d 37 f7 3c 5d a5 10 be
       0.420423 0.003495378 0.030177826 -0.14125581
000370 a5 76 bf bd 81 b4 c6 bd cc 97 ae 3e 8b d7 13 3e
       -0.093488015 -0.09702397 0.34100187 0.14437692
000380 f7 aa df bd 0f 18 68 bd 14 47 67 be b9 a3 36 be
       -0.10921281 -0.05666357 -0.22585708 -0.17835893
000390 c0 e4 24 be 84 6b 00 bd 15 e3 24 3e f8 e7 73 be
       -0.16102886 -0.031352535 0.1610225 -0.23818958
0003a0 f9 a3 8e bd 23 6e 62 3e 20 2f 3e be 05 a3 a3 3e
       -0.06964869 0.22112326 -0.18572664 0.31960312
0003b0 0d dd 34 bc c6 ac be 3e c0 1c 96 bd 14 72 04 3e
       -0.011039031 0.3724119 -0.073297024 0.12934142
0003c0 9c 44 c2 3d a5 55 33 be b2 18 6c 3e e7 b1 af 3e
       0.094857424 -0.1751314 0.23056296 0.34315416
0003d0 33 48 2f 3e c4 e9 54 3e d1 1f de bd 82 4d 0c 3d
       0.17117386 0.207923 -0.10845912 0.034253605
0003e0 9b e4 9c 3e 6f a1 9d bd c9 35 8f be 84 64 21 bd
       0.30643162 -0.07696807 -0.27970722 -0.0394025
0003f0 b4 b6 1f be 1a 64 6b be 4f 02 59 be 80 63 14 3e
       -0.1559704 -0.22987404 -0.21192287 0.14491081

fc2.bias f4 [32]
000000 ff 95 8e 3e c5 e6 9a 3e c3 af 26 be f7 1d 5d 3e
       0.27848813 0.30254188 -0.16277985 0.21593462
000010 5d c7 ef 3d 7a 3f 77 3d 89 e6 b0 be 6b d2 9b 3d
       0.117079474 0.06036327 -0.34550884 0.076084934
000020 f5 71 d3 3d 24 b4 ff bd 8f ac 7c 3e d9 93 1a 3e
       0.1032447 -0.12485531 0.24675201 0.15095462
000030 53 40 a1 be 89 56 3d bd 12 3e 35 be 42 7a 8f be
       -0.31494388 -0.046225104 -0.17699459 -0.28022963
000040 9d a8 0d be 18 eb 1c 3e f3 93 54 3e 2b 9d 95 3d
       -0.13833852 0.15324056 0.20759563 0.07305368
000050 d5 94 e6 bc 3f bb 2b be b4 a1 2c be 4d e8 8e be
       -0.02814714 -0.16770647 -0.1685856 -0.27911606
000060 20 5a 0e 3e 1b 83 58 3d 26 c6 8b 3e 8b 9d ac bd
       0.13901567 0.052859407 0.27299613 -0.084284864
000070 6e bc 62 3e cc 8f 9f 3e 5e 3b b5 3d 04 fd 5c be
       0.22142193 0.31164396 0.08849214 -0.21580893

fc2_1.weight f4 [64, 32]
000000 47 9e e8 bc 68 c2 d7 bb 7a 92 cb ba 66 ee 36 bd
       -0.028395785 -0.0065844543 -0.0015531324 -0.04466095
000010 47 ea 0e be 48 2c df 3b 43 f3 bc 3d a1 7f a7 bd
       -0.13956557 0.0068106987 0.09226086 -0.0817864
000020 9c b0 02 3e 86 60 9f 3d 30 bc f0 bd 66 9c 90 bd
       0.12762684 0.07782082 -0.11754644 -0.07061081
000030 72 2e 16 3e b5 1b ad 3d 07 06 0b 3e 5e 26 fd 3d
       0.14666155 0.0845255 0.13576518 0.123608336
000040 be f2 f1 bd 84 f2 bb bd 24 ab 0c 3e 59 2f 23 3e
       -0.118138775 -0.091771156 0.1373716 0.1593603
000050 ab 2b 2c 3e 2f 7a 9a 3d a0 fb 12 3e 21 b6 1e be
       0.16813533 0.07542836 0.143538 -0.15499164
000060 dd 86 86 bd 8a ee fe 3d c8 f2 02 3c 0e b7 c7 3d
       -0.06568692 0.124478415 0.007992454 0.09751712
000070 92 a3 e6 bd b0 07 6c bd bd e9 17 be 39 b1 6f bc
       -0.11261667 -0.05762452 -0.14835258 -0.0146296555
000080 53 6d a2 3c b8 81 1c be f9 c3 0e be 1e c4 66 bc
       0.01982752 -0.15283859 -0.13941945 -0.014084844
000090 35 fd 14 bd fc 33 48 bd 21 3a d0 bb e4 b5 32 3e
       -0.03637429 -0.0488777 -0.0063545858 0.17452198
0000a0 e3 a8 24 3d ec 63 0e 3e 53 60 d6 3c 55 d1 98 bd
       0.040200125 0.13905305 0.026168978 -0.07461802
0000b0 40 3d cf 3c 90 61 82 3d 81 45 33 3d c7 00 82 3c
       0.025297761 0.06366265 0.043767456 0.015869511
0000c0 01 0c 5a 3d bf 83 d2 bd 40 33 92 bd 60 29 ea bd
       0.053234104 -0.10279035 -0.071386814 -0.11433673
0000d0 09 18 1d 3d 59 fd d8 bd a6 48 1f be b6 d5 33 bd
       0.038353 -0.10595197 -0.15555057 -0.043904983
0000e0 5d 6b 6d 3c 18 d4 a3 3b 19 89 16 be c7 f4 05 3e
       0.014490929 0.004999649 -0.14700736 0.13081656
0000f0 91 d2 09 be dc c1 10 3e 59 0a b8 bd 62 b5 98 3d
       -0.13459231 0.14136451 -0.08986349 0.07456471
000100 7e 3f fb bc b4 f8 82 3b 29 90 0c 3e db a6 11 3e
       -0.030669924 0.003996933 0.13726868 0.14223807
000110 4f f2 f8 3d 7f cc 2d be 36 88 1f bd c9 35 a0 3b
       0.12155592 -0.1697254 -0.03894826 0.004889224
000120 1f 3f a6 3c d3 0d 91 3d ea ee 0c be 61 d0 c5 3c
       0.02029377 0.07082715 -0.13763013 0.024147214
000130 77 d5 c2 bd eb b9 1d bc 10 ce d1 bc 27 2f 0b 3d
       -0.095133714 -0.009626846 -0.025610954 0.033980515
000140 c1 6f 85 3c a8 88 4d bd de e9 fe 3c 5c 5a eb 3d
       0.01628864 -0.050179154 0.031117376 0.11491844
000150 76 44 cb bd 38 a3 09 be 11 ca 1e bc 3f fe e8 bd
       -0.09925167 -0.1344117 -0.009691731 -0.113766186
000160 3e c2 a0 3d 15 9d 20 be d4 21 8b bd 39 4e 09 be
       0.07849549 -0.15684922 -0.067935616 -0.13408746
000170 d3 9e ac bd fc d9 e4 3d 49 56 13 be f2 11 27 3e
       -0.08428731 0.1117439 -0.14388384 0.1631544
000180 e4 34 b6 bd f6 d6 32 3e 99 30 d3 bd b9 7d f2 3d
       -0.08896807 0.17464814 -0.10312004 0.11840386
000190 72 bb be 3d f0 5b 14 3e 7d c5 0d be 34 97 28 3e
       0.09313096 0.14488196 -0.13844867 0.1646393
0001a0 ab f0 3e 3d 1a 89 d7 bc 1d b2 50 bd c7 9d 5d 3e
       0.046616238 -0.026310492 -0.050951112 0.21642219
0001b0 ba 55 2a be 0f 1d 93 bd 61 cc 41 bb 9d 00 b2 bd
       -0.16634265 -0.07183277 -0.0029571282 -0.08691523
0001c0 40 97 8c bd 91 8d 74 3e 48 3e 1b 3e e9 62 2a be
       -0.06864786 0.23882128 0.15160477 -0.16639294
0001d0 b5 4d 91 3c fd d5 fc 3c 3e a7 cb bd c7 54 2e bc
       0.017737249 0.030863756 -0.09944008 -0.01064033
0001e0 24 17 12 3e 4b 29 8f bd ea 01 45 3e 8e 17 1a 3e
       0.1426664 -0.06990298 0.19239011 0.15048048
0001f0 4e 5a 92 bd a1 67 09 3d 15 1f 3a 3c b1 13 b4 bc
       -0.071461305 0.033546094 0.01135995 -0.021982046
000200 75 62 c0 bd 54 de 8f bd 92 f8 a0 bd 09 86 ba bc
       -0.09393779 -0.070248276 -0.07859911 -0.022768991
000210 36 18 1e 3e 5b 12 f8 3c e4 cd c3 bc 76 ac 0e be
       0.15438923 0.03028219 -0.023901887 -0.13932976
000220 02 8b cd 3c 3e d5 ea 3d 6d 3b 81 bd 84 76 b3 3c
       0.025090698 0.11466454 -0.06310163 0.021907099
000230 4b 05 df bd a0 43 1a 3e 92 e2 07 be 1b a0 aa 3a
       -0.108896814 0.1506486 -0.13270023 0.0013017686
000240 04 73 39 bd 37 45 68 3e 00 b7 97 3d 69 71 2b 3d
       -0.045275703 0.22682653 0.07407951 0.041856203
000250 4b c1 76 bc 54 6d d9 bd a8 26 15 3d 6a b1 cf 3d
       -0.015060733 -0.10616556 0.03641382 0.10141261
000260 02 f6 85 3e 26 2e 0a 3c c0 75 1e 3d 18 98 1f 3e
       0.26164252 0.008433854 0.038686514 0.15585363
000270 36 39 6b 3a ad 4c 9f 3d 67 94 bd 3d 6e b3 15 be
       0.00089730637 0.077782966 0.09256821 -0.14619228
000280 75 e2 38 3e bc 80 f9 bd fa 7c 2c be f6 6e 0f 3e
       0.18055137 -0.12182757 -0.1684455 0.14007172
000290 56 70 33 3e de 56 73 3e 3e fb bd bd 25 cb 35 3e
       0.17523322 0.23763606 -0.09276436 0.17753275
0002a0 59 54 d4 ba 82 c0 c6 3d 32 64 16 3c ba 24 75 3c
       -0.0016199454 0.09704687 0.009179162 0.01496237
0002b0 8c d8 a5 3d ea 86 1e be c4 35 34 3e 38 f9 30 3e
       0.08097944 -0.15481153 0.17598635 0.1728257
0002c0 6f 93 a8 3a 01 87 d0 3b 5e e6 6b 3e f3 9c 32 be
       0.0012861321 0.00636375 0.23037097 -0.17442684
0002d0 f3 8f 2a be ab 71 2c 3d 66 2a 94 bd f4 9e ec 3d
       -0.16656475 0.04210059 -0.07234649 0.115537554
0002e0 b2 e5 44 3d e1 ff 30 bd e7 5b 51 3e e3 61 10 3e
       0.048070617 -0.043212775 0.20445214 0.14099841
0002f0 67 4c a8 3d 37 58 8f 3e 64 ff 14 3e 46 b6 dc 3d
       0.082176976 0.2799699 0.14550549 0.107769534
000300 43 34 bb 3d 55 a4 f3 bd 82 c3 f1 3c 48 7e 7d bc
       0.091408275 -0.11896578 0.02951217 -0.015472002
000310 e4 95 ef bd c0 3b 6b 3e 6f ca 83 3d b9 0f 2f bd
       -0.11698511 0.22972012 0.064350955 -0.042739604
000320 6b 9b 03 3e 0b ea 0f be cb 1f f3 3d 66 67 0c 3c
       0.12852256 -0.14054124 0.118712984 0.008569574
000330 a5 d1 df bd fa c8 82 3c a8 fc 21 be 09 d5 32 3e
       -0.109286584 0.015964974 -0.15819037 0.17464079
000340 34 b6 f6 3c 09 c1 b6 3c 74 17 57 3e 9d d9 16 be
       0.030116178 0.022308843 0.2100504 -0.1473145
000350 7f 52 4d 3d f7 89 28 3e 89 b8 4a be 82 d7 1f be
       0.050127503 0.1645888 -0.19796957 -0.15609553
000360 fa 71 5c 3e 84 72 0d bd b6 28 ff 3d 3b 22 ae 3d
       0.21527854 -0.03453304 0.12458937 0.08502623
000370 23 37 b8 3d cd b8 36 3e ce 57 f1 bb 0b 8f 9a bb
       0.089948915 0.17843933 -0.0073652035 -0.004716759
000380 13 9a 2e bd 38 a2 c9 3d 0f 1e 16 3e ff cd 73 bd
       -0.042627405 0.09845394 0.14659904 -0.059522625
000390 e1 f8 8f bd 7b f7 0c 3d d3 db 26 be 1f e0 f2 bd
       -0.07029892 0.034415703 -0.16294794 -0.11859154
0003a0 1b 04 cf bd b1 7b 9d 3a 60 e9 85 3d 3a c4 09 3e
       -0.10108205 0.0012015012 0.065386534 0.1345376
0003b0 fa 8e 85 3d 6f 8f b9 3c 6b e5 2b be 7a 6d 1b 3e
       0.06521411 0.022651402 -0.16786735 0.1517848
0003c0 f1 3b c1 bd ff ce d8 3d 29 17 17 3d a2 5a 12 3e
       -0.09435261 0.10586356 0.03688732 0.14292386
0003d0 64 e7 29 3e 49 0f 88 bc ba 34 aa 3d 16 c6 6a 3d
       0.16592175 -0.016608851 0.08310838 0.057317816
0003e0 51 ac 2c 3e aa 05 19 be e0 f8 19 be bf 20 2d bc
       0.16862608 -0.14943567 -0.15036345 -0.010566889
0003f0 3f e0 8c 3d 6b 78 72 3d 19 de db bd a6 6f 97 bd
       0.06878709 0.05919687 -0.10735721 -0.07394342

fc2_1.bias f4 [64]
000000 15 f5 49 3c 3c a7 c5 bc 87 04 5b bd ba 16 0b be
       0.0123264985 -0.024127595 -0.053471114 -0.13582888
000010 fb 13 40 3d db 30 e3 bc db 84 b3 3d b3 28 ea bd
       0.046894055 -0.027733257 0.087655745 -0.11433544
000020 65 46 aa 3d 16 34 e3 3c 5c aa 32 3e 55 1d 02 3e
       0.08314208 0.027734797 0.174478 0.12706502
000030 b0 f9 f6 3d 2c 05 f6 3d 84 e6 1f 3e ca 0b c8 bd
       0.12059343 0.12012705 0.15615278 -0.097678736
000040 a2 f6 bc 3c 7c 78 b4 3d 7a 14 35 3e cd db 09 3e
       0.023066822 0.08812043 0.17683592 0.13462754
000050 60 98 58 3d d2 5e 85 3d 0c a5 41 bc 7d 2f b4 3d
       0.05287969 0.06512226 -0.011819135 0.0879812
000060 92 e1 c4 3d ae b5 b5 bc 4d 93 d2 3c 8a e1 e2 bc
       0.096133366 -0.022181358 0.025705004 -0.027695436
000070 a7 4f eb 3b a6 cf e2 bd a0 68 bb 3d 12 f5 da 3c
       0.007181126 -0.11074762 0.09150815 0.026728187
000080 4c 31 fd bb 79 e2 03 3e 05 69 0c be d4 6c 0f be
       -0.007726824 0.12879361 -0.13711937 -0.14006358
000090 03 bb c9 bb ae 7c 51 3e c5 b9 d9 bd 62 22 24 3d
       -0.0061563267 0.20457718 -0.10631136 0.040071853
0000a0 8b 6f 26 3a 7d a7 31 3e 53 14 f1 3d ae 3a 3e 3e
       0.00063490187 0.17349048 0.11771455 0.18577072
0000b0 61 0f 88 3d b4 6c 0d 3e d1 8e 1b bd f0 06 de bd
       0.06643558 0.13810998 -0.037977997 -0.10841167
0000c0 f2 4f 06 3e 1f ef 04 be e5 6c c5 bb 48 19 10 3e
       0.13116434 -0.12981842 -0.006024944 0.14072144
0000d0 e9 2f b6 3d 24 f7 fb bd fc c8 44 3e be a8 44 bb
       0.08895857 -0.12302998 0.19217294 -0.0030007805
0000e0 65 c8 a9 3d 7d 7f a2 bd c6 9b 3b 3d cb 0f 19 3c
       0.08290175 -0.07934473 0.045802854 0.009342144
0000f0 e3 74 6c 3e aa 0b 25 bd 33 77 3a 3e 1e 8d c6 bb
       0.23091464 -0.040294327 0.18209533 -0.006059303

fc2_1_1.weight f4 [64, 64]
000000 a8 e7 98 3d 8c 87 97 3d 0c de 74 3d 9d 51 09 3e
       0.0746606 0.073989004 0.059782073 0.13410039
000010 33 23 7c 3d 00 79 68 3c 12 05 5a 3d 60 85 57 bc
       0.061557006 0.014189005 0.05322749 -0.013154358
000020 23 98 d0 bc ba 46 1e 3d 4c 38 e7 3d 72 c1 1c 3e
       -0.02546317 0.03864167 0.11290035 0.15308169
000030 0a 5d 95 bc cb e9 d9 3d a6 00 b6 3d 88 01 af 3c
       -0.018232841 0.106402956 0.088868424 0.021363035
000040 3c e4 1a 3e 3d e0 b9 3d 82 00 1b 3e 2e 63 b7 3d
       0.15126127 0.09075973 0.15136912 0.08954464
000050 b0 62 1a 3c 0f 42 5a 3e cc 40 14 3d 43 d1 0c bb
       0.009422943 0.21314262 0.036194608 -0.0021487034
000060 f1 3f 42 3e 34 cf 18 bd 88 19 b2 bc fa e1 d4 3d
       0.18969704 -0.03730698 -0.02174069 0.10394664
000070 91 00 19 bc 72 18 f8 3d 35 7f a7 3b 84 cc 3d 3e
       -0.009338514 0.121140376 0.0051116 0.18535048
000080 04 c0 bd bd d8 a1 e1 bc 40 7d d9 bd 60 6b f1 bd
       -0.0926514 -0.027542993 -0.10619593 -0.11788058
000090 cc 7a 73 3d 2a 56 8b bd 0d ee 6e bd 88 99 63 bd
       0.05944328 -0.06803544 -0.05833249 -0.05556634
0000a0 fc 6c 37 3d 10 30 62 3d 0b 1e b6 3d 16 a8 d3 3d
       0.04478167 0.055221617 0.08892449 0.10334794
0000b0 89 eb 2c 3d 75 96 14 3e e0 0b ba bb 20 80 51 3e
       0.04221681 0.1451052 -0.005677685 0.20459032
0000c0 e2 bf fb 3d 8b 03 f3 bd 3a c7 8c 3d 0c ce 64 3d
       0.12292458 -0.1186591 0.06873937 0.055860564
0000d0 94 06 83 3d ae 97 f5 bd d9 0e a6 bd ba f4 34 3e
       0.06397739 -0.11991821 -0.08108301 0.17671481
0000e0 93 1f d2 3d e0 b5 cd bd 38 b1 27 bd 68 ff a4 bc
       0.102599286 -0.100444555 -0.040940493 -0.020141318
0000f0 f7 f8 28 be ca 99 b0 3d 8f 15 4a 3d f5 77 92 3d
       -0.16501223 0.08623083 0.049336966 0.07151786
000100 b8 a6 e7 3d 06 74 d7 3d 00 9f 36 3d 10 e5 e7 bc
       0.11311096 0.105201766 0.044585228 -0.028307468
000110 20 ad a7 bb fa a6 e6 3d fc 44 8c bd 70 10 67 bc
       -0.0051170737 0.11262317 -0.06849095 -0.01410304
000120 44 6b e9 bd 00 23 14 3d 34 b5 a4 bd 70 8c e5 3d
       -0.113974124 0.03616619 -0.08042374 0.11208427
000130 f8 cd fa bd 18 d3 23 3d d8 dc dc 3c fa ad 8f bd
       -0.12246317 0.039996237 0.026960775 -0.07015605
000140 a8 f0 b7 bd bc 7e 06 3d 48 e7 1a bd 48 7d 8f 3c
       -0.089814484 0.032835707 -0.037818223 0.017515793
000150 e0 73 93 bd e0 fa aa bc d4 f6 01 3d e8 3d fd bd
       -0.07199836 -0.02087158 0.031729534 -0.12365323
000160 88 8d 11 bd c6 ef 92 bd 6c e7 3f bd 8e a1 8a 3d
       -0.035535365 -0.071746394 -0.04685156 0.06769095
000170 42 24 cf bd 74 0d cf 3d c0 c7 2c 3c 46 b1 e7 bd
       -0.101143375 0.10109988 0.010545671 -0.11313109
000180 c0 c2 d0 3c 40 84 3a 3c e8 9c 98 3c 5c 65 24 bd
       0.025483489 0.01138407 0.018629506 -0.040135726
000190 50 ae 15 3c 20 ca a4 bb f4 55 95 bd 90 26 a5 3d
       0.009135798 -0.005028978 -0.07291785 0.08063996
0001a0 bc b8 a1 bd 00 c8 9a 3c d0 7e 26 3c 06 dc c2 3d
       -0.078965634 0.018894196 0.01016207 0.095146224
0001b0 80 8a 7d bb 80 4c 3b bd e6 17 d9 3d b8 e7 77 bd
       -0.0038687289 -0.045727253 0.106002614 -0.06052372
0001c0 20 6d 04 3d d0 23 a3 bc b8 61 42 bd d0 38 6c bc
       0.032330632 -0.019914538 -0.047456473 -0.014417842
0001d0 04 1a 0c bd 14 19 c7 bd 64 9f 75 bd 36 5b fb 3d
       -0.034204498 -0.0972158 -0.05996646 0.122732565
0001e0 68 93 89 3c 10 39 0b 3c e4 b3 9a 3d 90 47 0e bc
       0.016793922 0.0084974915 0.07553843 -0.008684054
0001f0 8a b8 80 bd 62 4b e4 bd 18 55 c4 3c 30 aa 23 3c
       -0.06285198 -0.11147191 0.023966357 0.009989306
000200 f0 bf a9 bc c4 38 49 3d 10 de 9b bd b0 89 d4 bd
       -0.020721406 0.0491264 -0.076107144 -0.10377824
000210 70 ce 78 3c b0 dd 7c bd 6c 21 6d bd e2 8a f6 bd
       0.015185937 -0.061734855 -0.0578932 -0.120382085
000220 f0 64 8e bd 62 fe bf bd 78 98 69 bd c8 45 40 bd
       -0.06952846 -0.093746915 -0.05703017 -0.04694155
000230 fc 34 39 bd 2a 7f 9a bd fc ff 75 3d e0 29 ce 3d
       -0.045216545 -0.07543786 0.06005858 0.10066581
000240 38 c2 84 3d 60 ee 8a bb b0 51 67 bd aa 8f e8 bd
       0.06482357 -0.0042398423 -0.056474388 -0.11355527
000250 5e 92 8c 3d 82 19 ad bd 82 f4 c1 bd a0 6a a4 bb
       0.06863855 -0.08452131 -0.09470464 -0.0050175935
000260 40 23 99 3b a8 1e f8 3c bc 21 82 3d 40 99 bc 3b
       0.0046733916 0.030288056 0.063540906 0.0057555735
000270 c6 3a e7 3d ee 71 9c bd 80 80 c7 bb 46 26 9f 3d
       0.11290507 -0.07638918 -0.0060883164 0.07770972
000280 90 b9 84 3d aa cb 84 3d e6 e4 d0 3d 00 a6 05 bd
       0.06480706 0.06484158 0.10199909 -0.032629013
000290 8e 0a a7 bd 44 a5 ad bd 30 4e 07 bd e0 76 dd 3d
       -0.0815631 -0.084787875 -0.03303355 0.10813689
0002a0 1c 04 56 bd 60 5d 51 bd 30 48 e8 bd 12 49 8a bd
       -0.052250013 -0.05111444 -0.11341894 -0.06752218
0002b0 38 c2 fc bd 6c 3f be bd 00 a3 81 bb e4 f5 a6 bd
       -0.12341732 -0.092894405 -0.0039561987 -0.08152369
0002c0 dc 23 f9 bd 28 83 62 3d 96 8f cc 3d d0 8f 39 3c
       -0.12165043 0.05530086 0.09988324 0.0113257915
0002d0 d8 c0 3f 3d f0 4d 48 bc 24 96 8c 3d 60 fd 24 bd
       0.04681477 -0.012225613 0.068645746 -0.0402807
0002e0 4c 19 f2 bd 1c 0f 77 3d 78 d5 07 3d 6a 13 98 bd
       -0.11821231 0.060317144 0.033162564 -0.07425578
0002f0 36 f4 98 bd 5e de 9c bd e4 0c c9 bd 14 04 ca bd
       -0.074684545 -0.07659601 -0.09816912 -0.09864059
000300 84 d3 34 bd 18 47 cf bc e0 ad 8c bd 5f dc ac 3d
       -0.04414703 -0.025302455 -0.068691015 0.0844047
000310 bf 5b 4f 3e b1 06 fe 3c db 1a 0a bc 6c a1 a0 bd
       0.20249842 0.03100905 -0.008429254 -0.07843289
000320 89 f2 8a 3d 35 3a a2 3d 89 cc 0f 3e 79 ee 80 3d
       0.06784541 0.07921258 0.14042868 0.06295485
000330 9d 75 fd 3d be 54 40 3d 91 37 0e 3b 54 46 ec 3d
       0.123759486 0.046955816 0.00217006 0.115368515
000340 52 5b e5 bc 96 1a 26 3e 87 da 15 3e 47 39 ce bd
       -0.027997646 0.16221079 0.14634143 -0.100695185
000350 68 7f 8f 3d 19 c6 49 3e 94 30 7c 3d db f6 dc 3d
       0.07006723 0.19704475 0.061569765 0.107892714
000360 62 1d 35 3e f2 d0 27 3d 80 31 95 bd e5 a4 f0 3d
       0.1768699 0.04097075 -0.07284832 0.11750201
000370 e5 d1 6f 3d fd 52 2b 3e c8 2a eb bc ad ae e9 3d
       0.05854978 0.16730876 -0.028706923 0.1141027
000380 46 2f a8 bd 6b a1 d7 bc f0 da fc bd f4 66 80 bd
       -0.08212142 -0.026322087 -0.123464465 -0.06269637
000390 a7 0d 37 3e 33 73 cd bd ae 8b 4a bd 4c b5 0d bd
       0.17876302 -0.10031738 -0.049449615 -0.034596726
0003a0 e5 2e ec bb 45 bc 1d bd d6 d5 2b 3d b0 ba 33 3e
       -0.0072077387 -0.038509626 0.041951977 0.17551684
0003b0 10 01 0e bc ab ad 3b 3d 08 a8 fb bd 6f 98 9c 3b
       -0.0086672455 0.04581992 -0.12287909 0.0047789137
0003c0 1b 59 ee 3d 27 4b 90 3c b8 39 3d 3e 18 bd 85 bd
       0.11638089 0.01761396 0.18479049 -0.065302074
0003d0 1e 86 1e bd 50 fa 0a 3d d2 cd d6 37 af d4 a5 3d
       -0.038702123 0.033930123 2.560663e-05 0.08097207
0003e0 ad 1e 2a 3e f4 24 dd 3d 94 9d b1 3d ec 60 18 3d
       0.16613264 0.10798064 0.08672634 0.037201807
0003f0 a0 4e 38 be 8a 8c 96 3d dc 15 be 3c 83 1e ba 3d
       -0.17998743 0.073510244 0.023203783 0.09087851

fc2_1_1.bias f4 [64]
000000 5f f2 85 3d 30 d6 c5 bd 6c b1 3f 3d 1b b0 a5 bd
       0.06540369 -0.09659994 0.046800062 -0.0809023
000010 4f 6a be 3d 09 b5 8b bd 8d 2a 7f bd bf ee e7 3d
       0.092976205 -0.06821639 -0.06229644 0.11324834
000020 ed ab ac 3d 04 6c ae 3d d3 cb 87 3d cf 22 2c bd
       0.0843123 0.08516696 0.06630673 -0.042025384
000030 22 f8 b6 3d df 4c 83 3d 3d d4 10 bc 96 84 63 3c
       0.08934046 0.064111464 -0.008839664 0.013886591
000040 58 48 eb bd 2c b2 2d bc 68 0f 14 bd d8 77 3d bd
       -0.11488408 -0.0106015615 -0.036147505 -0.04625687
000050 3f 99 56 bd 20 19 ff bc da 7f a7 bd fa c9 9e 3d
       -0.05239224 -0.03113991 -0.081786826 0.07753368
000060 ba 56 84 3b 90 15 d5 bd b1 73 9d 3d 77 32 bf bd
       0.004038659 -0.10404503 0.07688082 -0.09335797
000070 b9 55 38 3d 30 fe 78 3c 0e 81 81 bd a1 3d f8 3d
       0.045003626 0.015197322 -0.06323443 0.1212113
000080 d9 59 a6 3d 4a 72 a6 3d 71 5e 4d 3d 3e 59 e0 3d
       0.08122606 0.08127268 0.050138894 0.109545216
000090 1d 14 04 3d d8 ae 92 bd 56 ec b3 bc f8 c5 68 bd
       0.032245744 -0.07162255 -0.02196328 -0.056829423
0000a0 9e ba a7 3c 8c b3 c6 3c c0 41 96 bb 54 2e 1c bd
       0.020474728 0.024255536 -0.0045854747 -0.03813012
0000b0 12 bf f9 3d b1 91 09 3e 6e e4 e8 bc 77 9c c1 3d
       0.12194647 0.13434483 -0.028429236 0.094536714
0000c0 2d 4a a2 bd 24 8c 0b 3e 61 85 17 bd 94 54 50 bd
       -0.07924304 0.13627678 -0.036992434 -0.05086191
0000d0 a3 3d c7 3d e9 57 8f 3d a0 66 95 bd 3d d5 b7 bd
       0.09728553 0.069991894 -0.07294965 -0.08976219
0000e0 a0 30 90 bd aa 93 e1 bc 26 b0 df bd e0 4e 63 3d
       -0.070405245 -0.027536232 -0.109222695 0.055495143
0000f0 d0 d9 1e 3d 85 a2 d0 3d 90 9c 03 3e 73 5c 01 3e
       0.03878194 0.10187248 0.12852693 0.12632923

fc2_1_2.weight f4 [32, 64]
000000 a5 57 c8 3c 40 7a bf bd 62 f7 c1 bd 87 de d2 3d
       0.024455855 -0.09349489 -0.09471013 0.1029635
000010 81 32 e4 3c 27 f1 a3 3d 0b 8a e0 3d 12 ad 5b 3b
       0.027856113 0.080049805 0.109638296 0.0033519906
000020 80 47 d3 bc 05 6c 3c 3b d1 32 98 bd ca 61 e0 3c
       -0.02579093 0.0028750908 -0.074315675 0.02739038
000030 f0 16 e7 3d fe 6d 74 bb 31 37 af 3b bf 1c cb 3d
       0.11283672 -0.0037297006 0.0053471555 0.09917592
000040 de 7d f6 3d 3e 7f 08 bd 60 3e b8 bd 44 49 15 3d
       0.12035726 -0.033324473 -0.08996272 0.036446825
000050 e1 16 da 38 5c 91 a5 3d 7a b7 ed bd e3 2e 37 bd
       0.000103993116 0.08084366 -0.11607261 -0.04472245
000060 58 7d 02 bd 11 ef 2d 3d e1 f1 7d bd fb ce d5 3d
       -0.03185782 0.04246432 -0.06199825 0.10439869
000070 96 c8 2c 3c a6 fc d0 3d 56 26 da bd 58 af c6 3c
       0.01054587 0.10204439 -0.10651843 0.024253532
000080 7d c7 45 3d b9 0c 28 3c e0 69 e8 3d 1b 27 13 bd
       0.04828595 0.01025694 0.11348319 -0.035925966
000090 4c 82 de bd df 38 73 3d 7f c9 b0 3d 40 a1 48 3d
       -0.10864696 0.05938041 0.08632182 0.048981905
0000a0 f2 c6 b0 bd d7 dc d3 bc 60 00 f4 3c c4 33 f4 bd
       -0.08631696 -0.02586214 0.029785335 -0.11923936
0000b0 f9 d1 ae bd f4 86 87 3c 97 df ad bd dd 83 a7 3d
       -0.08536143 0.016543843 -0.08489912 0.08179448
0000c0 6c 74 d7 bd d2 a1 d4 ba 41 e9 ff bd ae 81 e3 bd
       -0.105202526 -0.0016222543 -0.124956615 -0.11108719
0000d0 72 bf 29 3c c2 43 6a 3d fa 6e 99 3d 36 1f 90 bd
       0.0103605855 0.057193525 0.0749187 -0.07037203
0000e0 93 0a 8e bc 6e a8 0f bd 5c 0b 55 bd 22 a3 ef 3d
       -0.017339027 -0.035072736 -0.052012786 0.11701037
0000f0 98 06 a8 bc 99 bb f1 bd 3e d7 e6 bd b4 3e d4 3d
       -0.020510957 -0.118033595 -0.11271523 0.10363522
000100 3a 7a 86 3d 60 39 a5 3d f8 77 b4 bc ee 31 7e bd
       0.065662816 0.08067584 -0.022029862 -0.062059335
000110 02 6e b6 bd 03 ea 1e bd 10 4b 40 bd 08 d3 e1 bd
       -0.08907701 -0.03879739 -0.046946585 -0.11026579
000120 2c bc 8b 3c 59 ca 7c 3d fd 49 4c 3c 16 d5 14 bd
       0.0170575 0.06171641 0.012468812 -0.036336027
000130 e3 e1 a8 3d b7 e0 f0 bd 44 09 22 3d 08 06 a3 bd
       0.082462095 -0.11761611 0.039559618 -0.07960135
000140 0a a9 b9 3d 1a a5 bb 3c ca 6f 93 bd 00 8a 85 39
       0.09065445 0.022905875 -0.071990564 0.00025470555
000150 b2 4d fa 3d 42 69 f1 3d c8 df c2 3d 35 66 a7 3b
       0.122218505 0.117876545 0.09515339 0.0051086196
000160 7c 04 d0 bd 3d 4c 01 be 86 db 24 3d 88 e4 86 3d
       -0.10157105 -0.12626739 0.040248416 0.065865576
000170 0d d4 f6 3d 70 85 71 bd c6 25 87 3d 35 5a b1 bd
       0.12052164 -0.058965147 0.065990016 -0.08659784
000180 be 8f 45 3d 4c c5 87 bd 6a 58 ec 3c 70 e5 7f bd
       0.048232786 -0.06629428 0.028850753 -0.062474668
000190 62 94 cc bd ef d9 8e 3d 58 47 0b bd 74 04 5c bd
       -0.09989239 0.06975161 -0.034003586 -0.053715184
0001a0 0e 72 74 bc b3 da ea bd 50 83 d4 bd 68 05 02 3d
       -0.014919771 -0.11467495 -0.10376608 0.031743437
0001b0 d0 5c b4 bd 0c 5a 43 bc 36 73 b2 3d c4 6a 87 3d
       -0.08806765 -0.011923324 0.08713381 0.06612161
0001c0 95 62 88 3b 02 f9 d2 3c e8 d9 97 3c 9c a7 1c 3d
       0.0041621425 0.025753502 0.018536523 0.038245782
0001d0 b5 2d dc bd cc b2 d6 3c 78 11 97 bc 1d 03 08 3c
       -0.107509054 0.026208304 -0.018440947 0.0083015235
0001e0 81 dc 48 bd ab 57 b9 3d a2 06 dc bd 24 ef a5 3d
       -0.049038414 0.090499245 -0.107434526 0.08102253
0001f0 40 a3 84 bd 1c 7b e9 3d a0 21 b1 bd bc 37 14 3d
       -0.0647645 0.114004344 -0.086489916 0.036185965
000200 6f 0d f6 3d 2e a0 d1 3d c2 a1 8a bd 65 28 16 3e
       0.12014281 0.1023563 -0.06769134 0.14663847
000210 b4 90 f9 bc 49 f2 ae bd 85 dd 45 3e cf 11 fd 3d
       -0.030464508 -0.08542306 0.19322784 0.12356912
000220 2d 74 39 3a 41 73 c2 3d e2 19 a9 3d 79 d1 07 3e
       0.00070745015 0.09494639 0.0825689 0.13263501
000230 85 3e 22 3e 1a 63 e3 3d 65 b9 3d 3d b1 f5 8d bd
       0.15844162 0.111028865 0.046319384 -0.069316275
000240 21 04 55 3a 0d 3a 28 bd 10 54 d0 3d c4 10 9d 3d
       0.00081259204 -0.041070987 0.10172284 0.076692134
000250 ae d3 ce 3d 80 a2 d6 bc 38 88 21 3c ca eb 57 3e
       0.100989684 -0.026200533 0.009859137 0.2108604
000260 77 ad 2b 3d 4c 28 25 3c 40 1c a2 3d 09 23 30 3e
       0.041913476 0.010080408 0.079155445 0.17200865
000270 50 3e 6b b9 74 ea 0a 3d 29 39 2e 3e c7 14 19 3d
       -0.0002243456 0.033915 0.17013992 0.03737333
000280 4e 98 33 bc 79 38 98 3d 69 86 d8 3d 15 8e 15 3e
       -0.010961605 0.07432646 0.10572512 0.14604981
000290 d4 4d 40 3e 77 94 e5 3d f6 21 09 3d f0 21 ff 3c
       0.18779689 0.11209958 0.033479653 0.031144112
0002a0 62 12 40 3d 90 2d cc bc 40 46 51 3d a0 24 01 bd
       0.04689253 -0.02492407 0.051092386 -0.03152907
0002b0 16 7b 01 3c e4 e9 2b 3e b8 fe 5f 3c cd 60 08 3e
       0.007902881 0.16788441 0.0136715695 0.13318177
0002c0 01 df 08 3e ca ae bd 3d c3 28 2b 3d b0 da 84 bd
       0.13366319 0.09261854 0.04178692 -0.06487024
0002d0 7b 85 a7 3d 89 63 d2 bd 58 ce b0 3d 12 bb 38 3e
       0.08179756 -0.10272891 0.08633107 0.18040112
0002e0 34 10 47 3e 78 60 e9 bd 58 2e f6 3d 70 6f c3 bc
       0.19439775 -0.11395353 0.12020558 -0.023856848
0002f0 00 df 8d bd 3d f1 d8 3c 2d 1b 46 3e 16 d9 ad 3d
       -0.069272995 0.026482219 0.19346304 0.084886715
000300 c6 f0 18 3e f0 d9 0c 3d dc d1 fd bd 92 b4 fc 3d
       0.14935598 0.03438753 -0.12393543 0.123391286
000310 1f fc dc bd 8a 74 96 3c 17 7b 55 3d 68 76 80 3d
       -0.10790276 0.018366117 0.05211934 0.06272584
000320 26 6d b3 3d bb 37 04 3e d4 24 26 3c 24 ae ca bd
       0.08761053 0.12911884 0.010140616 -0.09896496
000330 44 77 37 3e 6d 0f f8 3d c8 5e c9 bc 88 50 b4 bb
       0.1791659 0.12112317 -0.024581328 -0.005502764
000340 70 a8 6d bd 32 9a 1c 3e c0 de 1c bd 66 1c 8f 3d
       -0.058021963 0.15293196 -0.03829837 0.069878384
000350 61 92 f2 bd 56 58 d7 3d 42 5d 07 3e 65 8a 16 3c
       -0.11844326 0.105148956 0.13219169 0.009188269
000360 a6 a0 ea 3d f5 72 ff 3d 65 ae 1a 3c 9a fb 13 bc
       0.114564225 0.12473098 0.009440993 -0.009032154
000370 8b 21 b7 bd 48 3e 5f bd a8 51 98 3d 4a 77 3d 3e
       -0.08941945 -0.054502755 0.0743745 0.18502536
000380 a2 b0 1c 3d 0c 3b 29 3e 77 49 11 3d 47 59 ed 3d
       0.038254388 0.16526431 0.035470452 0.11589294
000390 e5 65 14 bc dc 35 42 3e 18 fa 0e 3e 14 b7 51 3d
       -0.009057497 0.18965858 0.1396259 0.051199988
0003a0 8a 33 14 3d 28 89 33 3e 80 49 91 3d 68 d4 d0 bd
       0.036181964 0.1753279 0.07094097 -0.10196763
0003b0 11 87 f9 3d d7 99 8b bc 8a bb 1f 3e ea 56 59 bb
       0.12183965 -0.01704113 0.15598884 -0.0033163377
0003c0 3a c7 ed bc 5a 38 31 3e 4c 82 9b 3c a8 f4 e4 3d
       -0.029025663 0.17306653 0.018983029 0.11179477
0003d0 ce ac 65 bd d7 21 3c bd 72 be 8a 3d 8e f7 e6 3d
       -0.056073003 -0.04593071 0.06774606 0.11277686
0003e0 9c 75 2c bc 1f a5 c9 bc da 2f ff bd 48 dc bf bc
       -0.010526087 -0.024614869 -0.12460299 -0.023420468
0003f0 3c 9d 79 bd ac 79 da 3d 81 08 4d 3c 56 d7 01 3d
       -0.060940966 0.10667738 0.0125142345 0.0316995

fc2_1_2.bias f4 [32]
000000 16 9a 92 3d ae 53 61 bd 06 21 b2 3d 17 68 29 3d
       0.07158296 -0.055011444 0.08697705 0.041359033
000010 de e6 be 3d d0 99 57 3d b0 8f 64 3c 72 c4 f0 3d
       0.09321378 0.05263692 0.013950273 0.11756219
000020 1c 14 97 3c df 77 97 bd 08 bb da bd 75 59 a4 3c
       0.018442206 -0.073959105 -0.10680205 0.020062188
000030 0b 8f c1 3d 7a 34 08 3e 71 ea 8a bd 86 de 4d 3d
       0.094511114 0.13301268 -0.067829974 0.050261043
000040 79 64 e9 bd 0f a6 0d 3d bd 4c cf 3d cd 9e c5 3d
       -0.11396117 0.034582194 0.101220585 0.096494295
000050 db 08 c1 bd 7b 3c 9b bd d8 49 e5 3b 33 95 ab bd
       -0.09425517 -0.07579895 0.0069973283 -0.08378067
000060 b3 2c 89 3d 66 d9 f9 3b 6f e6 c1 bd f5 14 8b 3d
       0.06697979 0.007624793 -0.0946778 0.067911066
000070 c3 69 cd 3d 47 34 b4 3c c9 10 9e bd 70 8c a4 bc
       0.10029938 0.021997584 -0.07718045 -0.020086497

fc2_2.weight f4 [16, 32]
000000 4d 80 62 bd 46 95 19 bd 22 35 04 3e 57 99 f1 3c
       -0.05529814 -0.037495874 0.12910894 0.029492063
000010 42 45 e9 3d 85 03 0f 3e 88 be 02 be 95 6a 90 3d
       0.11390163 0.13966186 -0.12767994 0.07051579
000020 46 0b 15 3e c1 62 05 3d 03 ed 5b 3d c9 ca 2c be
       0.14555082 0.032564882 0.05369283 -0.16874231
000030 6e cc 1c be 0b c9 a7 3d bc 91 af 3d 16 94 15 be
       -0.15312359 0.08192643 0.085727185 -0.14607272
000040 bb 5b f7 3d 64 63 9f bd 5f 14 43 ba 1c 20 a4 bd
       0.12078043 -0.07782629 -0.0007441695 -0.08013937
000050 6d 9a 26 bd d5 80 23 bc 46 32 eb 3b 19 19 00 be
       -0.040674616 -0.009979446 0.007177624 -0.12509574
000060 5f 11 26 be 79 c3 99 bd 51 ea e2 3d 0a 89 87 bd
       -0.16217564 -0.075079866 0.110798486 -0.06617935
000070 e2 38 4f be 0d 6e cd bc 3d 14 07 be 90 bc 5b 3c
       -0.20236543 -0.02507689 -0.13191314 0.013411656
000080 e5 1b 2c bd fa 05 00 3d 84 07 01 3e ef 65 27 be
       -0.04201879 0.0312557 0.12600523 -0.16347478
000090 ed 11 9c 3d 36 e2 b1 3d 17 b9 00 3e f8 a0 b4 3d
       0.076206066 0.086857244 0.12570606 0.08819765
0000a0 72 64 26 bc 47 5f 04 be bb 21 1d 3e fb f2 af 3c
       -0.010155784 -0.1292697 0.15344898 0.021478167
0000b0 04 65 c3 3d 3d c1 a9 bd 2f 79 b7 bc 3c 58 ba bc
       0.095407516 -0.082888104 -0.022396652 -0.022747152
0000c0 c2 3c 2e 3e d9 3b 0f 3e 95 bf cd 3d c1 b0 3b 3d
       0.17015365 0.13987674 0.10046307 0.045822863
0000d0 6c 28 cd bd 1d bf 19 3e 2e 36 2a 3e 0d 42 0a 3d
       -0.100174755 0.1501431 0.1662223 0.033754397
0000e0 6d ab 83 3d 47 07 05 be e0 01 88 bb 68 52 29 be
       0.06429181 -0.12991057 -0.004150614 -0.16535342
0000f0 33 5a 31 be b1 a2 8c bd 20 d3 2a be 12 c9 c3 3d
       -0.17319565 -0.068669684 -0.166821 0.095598355
000100 8a fa 85 bc c5 2d 10 be 58 d3 23 3d 66 81 0b 3e
       -0.016354818 -0.1407996 0.039996475 0.1362358
000110 74 71 41 3d 66 90 6a bd 6b ab 8c 3d e9 b5 2e 3e
       0.047227338 -0.057266615 0.06868633 0.1706158
000120 a2 73 68 3e af bc 4e 3e 58 a8 c3 bd 38 47 54 3e
       0.2270036 0.20189165 -0.095535934 0.20730293
000130 a0 6d fd 3d d6 da 41 bd 08 08 7e 3d 6b 10 aa 3d
       0.12374425 -0.04732784 0.062019378 0.08303913
000140 a3 ff f4 3d 49 ef ea 3d 55 92 3e 3b 8c 7f be bc
       0.11962821 0.11471421 0.002907892 -0.023254178
000150 59 50 18 bd 9c b7 1a 3e f0 49 60 3e db 6a 86 bd
       -0.037186 0.15109104 0.21903205 -0.0656335
000160 fa 55 0f 3e da bb 2d bd 15 b4 c1 bd 86 4d 44 3e
       0.13997641 -0.042415477 -0.09458176 0.19170198
000170 c8 23 6e 3d e3 3b 61 3d 36 ce 84 3b 53 2f 23 bd
       0.058139592 0.054988753 0.0040529026 -0.039840054
000180 a2 82 fa bd 50 cb c0 3d 42 d3 24 3e ab bb 53 3e
       -0.122319475 0.09413779 0.16096213 0.20677058
000190 80 0f 75 bd d5 b3 8b bc 7a 57 d9 bd f7 08 b7 3d
       -0.059829235 -0.017053524 -0.10612388 0.08937257
0001a0 90 ad c7 3c a0 91 2a 3d 02 55 b8 bd 2b 5c 2b 3e
       0.024374753 0.041642785 -0.09000589 0.16734378
0001b0 10 d3 05 3d 26 52 88 3d a8 32 36 3e 7e ee d5 bd
       0.032671988 0.066562936 0.17792761 -0.104458794
0001c0 b4 52 20 3e 21 be 3b be 98 eb 23 3e 2f 90 b0 3d
       0.15656549 -0.18334247 0.1600784 0.08621251
0001d0 15 ac da 3c bb 05 80 3e c7 c1 0e 3e 49 e8 34 3e
       0.026693383 0.25004372 0.13941108 0.17666735
0001e0 57 e3 e0 bd 9d 8b 4b 3d 01 b9 37 3e 86 b3 3b bc
       -0.10980862 0.049693692 0.17941667 -0.011456376
0001f0 6a 0f 7c 3e 4d 08 f4 bd 09 c0 78 3e 5a 3e 6b 3e
       0.24615255 -0.11915646 0.24292006 0.22973004
000200 5f 38 e3 3d 0a 94 0f 3d 77 8a 1f 3e 82 3a 31 be
       0.11094736 0.03505329 0.15580164 -0.17307475
000210 46 9c 06 bd 9e ec db bd e3 62 0f be 8e 4b f7 bd
       -0.032863878 -0.107384905 -0.14002566 -0.12074958
000220 2f d5 13 3d 82 d0 21 3e 6d 2a 35 be 95 a8 09 3e
       0.03609198 0.15802196 -0.17691965 0.13443215
000230 8e e8 df bd de 48 fb 3c 7e fe 48 bd 7d 22 3d bd
       -0.10933028 0.030674394 -0.049070828 -0.04617547
000240 37 65 d7 bd 77 1f 14 be a9 ef 0e be 26 d3 b0 3d
       -0.10517352 -0.14465128 -0.1395861 0.08634023
000250 23 7f 26 be 76 18 6d 3d 71 9a 42 bd 60 4e 15 be
       -0.16259436 0.057884656 -0.047510568 -0.14580679
000260 69 5d a6 3d af 93 aa bd 13 95 b6 bd e6 cb c7 bc
       0.08123285 -0.0832895 -0.089151524 -0.024389219
000270 57 5c 22 be de ef 34 be 17 de 34 be 76 fd 77 3c
       -0.15855537 -0.17669627 -0.17662846 0.015136113
000280 ad 2c 00 3e 8b 13 b0 3d ad fe 20 be f4 86 36 ba
       0.12517042 0.085974775 -0.15722151 -0.00069628586
000290 24 0e d1 bd 69 a0 f7 bc 43 39 06 bd 34 5f 19 3e
       -0.10207775 -0.030227857 -0.032769453 0.14977723
0002a0 bc f8 a1 bd 02 c5 91 bb 86 4d f1 3c 6f 9f 00 3d
       -0.079087704 -0.004448534 0.029455911 0.031402048
0002b0 a8 48 cf 3d bf ec 84 bd 82 0e c5 3d 07 2b 84 bc
       0.1012128 -0.06490468 0.09621908 -0.016133798
0002c0 5e 2e b7 3d 80 55 29 3e 5c 0f 86 bd 0d b1 06 3d
       0.08944391 0.16536522 -0.06545898 0.032883693
0002d0 98 99 95 3d cc c4 04 be 4d 6a 29 be 57 c9 11 be
       0.07304686 -0.12965697 -0.16544457 -0.14236961
0002e0 25 80 8c 3c dc b4 90 3d ec 75 28 3e 4e d1 1e be
       0.017150948 0.07065746 0.16451234 -0.15509531
0002f0 77 b7 c4 3d e9 31 18 bd 5a 6c d0 bd 9b 0d e7 3d
       0.09605306 -0.037156973 -0.101769164 0.11281892
000300 ba 3c 96 bc d0 32 c9 3c c0 0b 25 3c 83 fb 96 3d
       -0.018339504 0.024560362 0.010073602 0.07372191
000310 4b 4f df 3d 84 f7 bf bd 01 cf 50 3d 57 5c 2e 3e
       0.10903796 -0.09373382 0.050978664 0.17027412
000320 00 e4 1e 3e 1b 3a 87 3e d6 5c 2f 3e 40 3d 4d 3d
       0.15516663 0.26411518 0.17125258 0.05010724
000330 94 21 30 3c 28 3f 84 3e de cf e0 3c 73 5d 52 be
       0.010750193 0.25829434 0.027442869 -0.2054346
000340 a6 8a 75 3e 1b 75 de bd eb 2b b8 3c 8a f5 0e 3d
       0.23978671 -0.1086218 0.02248188 0.034902133
000350 aa b4 ab bd e1 3f 60 3e 71 f6 38 3e 93 c8 dc 3d
       -0.08384068 0.21899368 0.1806276 0.10780444
000360 e5 4e 82 bd c2 b7 8a bd 3b 82 97 bd 46 46 b2 3d
       -0.06362704 -0.0677333 -0.07397886 0.0870481
000370 5d 4d 64 3e 1a 79 59 be 25 33 a3 bc 1b cd 5e 3c
       0.22295137 -0.21237603 -0.019921849 0.013598706
000380 2d 81 6c bd fb 1f 49 3b a6 77 19 3e ab 23 f1 3d
       -0.05774038 0.0030689228 0.14987049 0.11774381
000390 b7 59 bd bc 10 34 df 3b ea 61 2c bd c1 bd 9f 3c
       -0.023114068 0.0068116263 -0.042085566 0.019499661
0003a0 37 b8 fa bd e0 b3 b8 bb f6 4a 30 be 80 03 0c 3e
       -0.122421674 -0.005636677 -0.17216095 0.1367321
0003b0 85 b9 2a bd a7 50 0d be 0a e4 2f be 9e d3 8e bd
       -0.04168083 -0.13800298 -0.17176834 -0.069739565
0003c0 4d c6 df bc 52 4c a7 3d 77 77 6a bc e4 b9 c8 3c
       -0.027316237 0.08168854 -0.014310709 0.024502702
0003d0 94 d0 1f be f4 9e 18 be 3b 65 1f 3d 9d 39 17 be
       -0.1560691 -0.14904386 0.0389149 -0.14768071
0003e0 d9 7b 71 bd 6c 55 a5 3d 9e 4c 19 be 0e 5c 20 3d
       -0.058956 0.080729336 -0.14970633 0.03915029
0003f0 dd 95 f4 bd 11 c2 34 be ff e7 18 be b6 d0 8a bc
       -0.11942647 -0.17652155 -0.1493225 -0.016945224

fc2_2.bias f4 [16]
000000 2d 5f 41 be 00 c0 fa 3d 61 61 69 bb af ea 69 bd
       -0.18883963 0.12243652 -0.003561102 -0.057108577
000010 a8 b7 03 3d fa 83 7a 3c 48 9c 04 3e a5 5a 31 be
       0.03215757 0.015290255 0.12950242 -0.17319734
000020 12 c1 0e 3d 30 dd 6d 3d 59 84 1b 3e 6c ba 36 3e
       0.034852095 0.05807227 0.15187205 0.17844552
000030 e4 df 74 bd 4e f8 3b 3e 1a 56 08 3e fb 3f 5f bd
       -0.05978383 0.1835644 0.13314095 -0.054504376

fc3.weight f4 [4, 16]
000000 55 bb 02 bb 2d 5b 82 3e f9 42 01 3d 3a 91 7d 3d
       -0.0019948084 0.25460187 0.03155801 0.061906077
000010 9e 86 5a bc 42 25 ff 3b 5d ad 99 3e e8 6d 3f 3e
       -0.013337759 0.007786424 0.30015078 0.1869427
000020 0b 76 25 3d 19 d7 99 3e 74 33 d1 bd b6 cd 09 3e
       0.040395778 0.3004692 -0.10214892 0.13457379
000030 4e 56 58 3e f4 20 4d bd 5b 53 2e 3e 4b 1f 67 be
       0.21126673 -0.050080255 0.17023985 -0.22570531
000040 9d 4f 34 be 66 43 d9 3c 66 22 6d 3d 43 02 24 be
       -0.17608495 0.026521396 0.057894133 -0.16016488
000050 70 5a e6 bd 4d f2 d0 3d 27 3b 88 bc 30 69 86 3c
       -0.11247718 0.10202465 -0.016629769 0.01640758
000060 61 c7 13 be c1 2d 18 be b0 83 11 bd 9a 04 87 bc
       -0.14431526 -0.14861204 -0.035525978 -0.016481686
000070 98 61 76 be 6e 8e 21 3e 2e bc 67 3e 16 1a 04 3e
       -0.24060667 0.15776989 0.22630379 0.12900576
000080 00 03 82 3e a8 ee 08 bd 48 21 07 bd ad 29 2a be
       0.25392914 -0.033430725 -0.032990724 -0.1661746
000090 2c b6 fb bc 50 57 7e 3e 47 5e 0b be 02 26 25 be
       -0.030726515 0.24837995 -0.13610183 -0.1612778
0000a0 81 73 15 be cd 43 bc 3d 27 7e 89 3e 7a fa 09 3e
       -0.14594842 0.091926195 0.2685406 0.13474455
0000b0 92 84 35 bd 9e 78 c3 3d 91 8a e1 bd 07 a8 6f 3e
       -0.044315882 0.0954449 -0.110127576 0.23403941
0000c0 a5 ae 81 bd 7e 9d 43 be 1e 00 b6 3d d8 35 73 3e
       -0.06332139 -0.19103047 0.08886741 0.23751009
0000d0 88 fd 53 be 46 ae 3e be 5a 46 f8 3d d0 c1 75 bd
       -0.20702183 -0.18621168 0.121227935 -0.059999287
0000e0 d7 44 76 be 7c 5c 0d 3c b2 23 3b 3e bb c1 8c 3e
       -0.24049698 0.008628007 0.18275335 0.27491555
0000f0 14 df 52 be a7 06 81 3e 22 90 a0 3e ab 16 15 3b
       -0.2059291 0.25200388 0.31359965 0.0022749107

fc3.bias f4 [4]
000000 ac ba 0f 3e 20 60 d3 bd e4 bc 7c 3e 20 a5 b7 3d
       0.14036053 -0.10321069 0.24681431 0.08967042
