heater_experiments/heater_NN4.onnx (onnx, 39865 bytes, 14 tensors)

fc1.weight f4 [8, 3]
0.38438857 -0.49087766 0.28631786 -0.24733427 -0.28425726 -0.14672084 0.3743733 0.40690216
0.38641337 -0.29646975 -0.15923455 0.291628 0.25678223 -0.08985405 0.40605918 -0.11518566
-0.4265349 0.41546434 0.25501952 0.3281482 -0.023161514 -0.51418865 -0.5593715 0.3884781
00000000: 94ce c43e 5154 fbbe 4198 923e 3245 7dbe
00000010: 2b8a 91be fd3d 16be dbad bf3e 7b55 d03e
00000020: f9d7 c53e e2ca 97be 620e 23be 4450 953e
00000030: f678 833e 6605 b8bd fde6 cf3e 76e6 ebbd
00000040: c862 dabe beb7 d43e eb91 823e 0a03 a83e
00000050: 37bd bdbc dea1 03bf f832 0fbf 9ae6 c63e

fc1.bias f4 [8]
-0.16094413 0.39771852 -0.008641958 -0.039392013 -0.09499887 0.52659637 -0.36141634 -0.010585659
00000000: 8ace 24be c3a1 cb3e 0097 0dbc 8559 21bd
00000010: c48e c2bd 05cf 063f 900b b9be 796f 2dbc

fc2.weight f4 [32, 8]
-0.1287379 0.03365253 -0.2780587 -0.08989463 -0.22109324 0.3762319 0.03203415 0.30260074
-0.16734992 -0.2419318 0.014648432 0.047471765 -0.14085944 -0.33952847 -0.019544084 -0.26296157
0.18623693 -0.2365789 -0.24037093 -0.035759956 -0.23763278 -0.12760691 -0.19574982 0.15518254
-0.2540987 0.059142943 -0.13777788 -0.14152692 0.2045287 -0.19010925 -0.107987724 -0.31912977
-0.15035188 -0.12680352 -0.15745582 0.020043144 -0.32310352 0.07933533 -0.20382996 -0.32771733
-0.19048983 0.15568012 0.12919793 0.022337316 -0.1637843 0.33002755 -0.25162876 0.30408165
-0.047391653 -0.12426206 0.19604017 -0.14161736 -0.15298474 -0.029433174 -0.08901815 -0.17046173
-0.074614964 -0.05354307 0.23101991 0.1687407 0.11866231 0.15806179 -0.0075814533 0.014355999
0.19404693 0.036709733 -0.17590868 0.39122242 0.070712574 0.43781525 -0.3302315 0.16267781
-0.19555713 -0.06164752 0.1332827 0.276841 0.18621673 -0.21956608 -0.2662544 0.053115293
0.03804537 0.12202979 -0.20677054 0.16426945 -0.294834 -0.20176813 -0.08044282 -0.3166003
0.35660246 -0.14989601 -0.04181312 0.40376318 -0.0326178 -0.2175845 0.18691759 0.14614092
-0.13747177 -0.09829167 -0.081859 -0.24124788 -0.19362456 -0.039693944 -0.251982 0.052527953
-0.31094792 0.08744527 0.050647445 -0.28147456 -0.050204396 -0.12287597 -0.0050136624 0.17114672
0.19866347 0.09317838 -0.24344905 0.18801902 -0.27343923 -0.1883995 0.31064466 0.11505268
0.16604121 -0.21165055 -0.29693347 0.11918796 -0.15786667 -0.116164766 -0.054723676 -0.18027332
-0.12628499 -0.042953834 0.089571744 -0.2810462 -0.2763432 0.14209642 -0.2237867 0.26044133
0.45301157 -0.04503684 -0.029076444 0.12344631 0.326598 0.45241567 0.10905761 0.27298364
0.26482224 -0.23669685 0.09550544 -0.042596664 -0.13661104 0.19343123 -0.07602548 0.05016444
-0.09939078 0.024234733 -0.14348 -0.28645194 -0.091588385 -0.17979336 -0.0030476807 0.13333909
-0.34639102 -0.09697227 -0.1338677 0.07121393 -0.16933255 -0.2553866 -0.12272938 -0.3074166
-0.15891853 0.25825632 0.33453742 0.23262462 -0.23295082 0.14779796 -0.03584836 0.18797049
-0.023868047 0.3393497 0.37239987 -0.29403946 -0.121170595 -0.29063985 -0.14369398 0.2777354
-0.052192677 -0.021727122 -0.15885897 -0.101699546 -0.2367075 -0.14280136 -0.11431662 -0.1283905
0.18901896 0.05713073 -0.115723185 0.3724199 -0.094467126 0.4241459 0.09989177 -0.24544092
-0.16307017 0.06842978 -0.18272628 0.32471013 0.34157342 -0.032601994 -0.22279283 0.23130251
0.36650816 -0.1451395 -0.15429363 0.05837035 0.33867747 0.21168809 0.13322756 0.13917609
0.42304194 0.0040385425 0.02567963 -0.14036025 -0.095694765 -0.09478585 0.33961475 0.14827299
-0.10921281 -0.05666357 -0.22585708 -0.17835893 -0.16102886 -0.031352535 0.1610225 -0.23818958
-0.06747 0.22354603 -0.1999767 0.3194311 -0.014756165 0.37383756 -0.091790356 0.13298768
0.09705447 -0.17432125 0.22329864 0.34276897 0.16718505 0.20890813 -0.11042201 0.037760437
0.30643162 -0.07696807 -0.27970722 -0.0394025 -0.1559704 -0.22987404 -0.21192287 0.14491081
00000000: ded3 03be 3cd7 093d b65d 8ebe ad1a b8bd
00000010: 4466 62be 78a1 c03e 3e36 033d 7cee 9a3e
00000020: c75d 2bbe f8bc 77be faff 6f3c c171 423d
00000030: 753d 10be add6 adbe ea1a a0bc e6a2 86be
00000040: e5b4 3e3e bd41 72be cc23 76be 0879 12bd
00000050: 0256 73be 63ab 02be a472 48be 2ce8 1e3e
00000060: 3a19 82be df3f 723d a515 0dbe 6fec 10be
00000070: f96f 513e 00ac 42be ab28 ddbd fa64 a3be
00000080: d8f5 19be c8d8 01be 193c 21be 8531 a43c
00000090: d36d a5be 907a a23d cdb8 50be 91ca a7be
000000a0: c40f 43be 9c6a 1f3e 764c 043e bffc b63c
000000b0: 12b7 27be 5ff9 a83e 7cd5 80be 97b0 9b3e
000000c0: c01d 42bd 1b7d febd c1be 483e 2404 11be
000000d0: 08a8 1cbe d71d f1bc 264f b6bd 858d 2ebe
000000e0: bbcf 98bd fa4f 5bbd 7c90 6c3e 5dca 2c3e
000000f0: 3a05 f33d f3da 213e d76d f8bb 6d35 6b3c
00000100: 3db4 463e f25c 163d 6821 34be 4e4e c83e
00000110: c1d1 903d 5229 e03e 1a14 a9be 0395 263e
00000120: 2140 48be 1c82 7cbd 437b 083e 1bbe 8d3e
00000130: 99af 3e3e eed5 60be 7f52 88be 6c8f 593d
00000140: 76d5 1b3d c1ea f93d a8bb 53be 4036 283e
00000150: 7bf4 96be 4e9c 4ebe 35bf a4bd 6f19 a2be
00000160: 9994 b63e 577e 19be 3c44 2bbd 0cba ce3e
00000170: 3e9a 05bd 79ce 5ebe 5367 3f3e f7a5 153e
00000180: 66c5 0cbe 254d c9bd b1a5 a7bd af09 77be
00000190: 8445 46be 1e96 22bd c903 81be 8d27 573d
000001a0: 9134 9fbe 8116 b33d b273 4f3d 6f1d 90be
000001b0: 20a3 4dbd 66a6 fbbd a649 a4bb 1641 2f3e
000001c0: 706e 4b3e 4ed4 be3d b54a 79be 0f88 403e
000001d0: 3a00 8cbe cceb 40be d10c 9f3e bda0 eb3d
000001e0: b506 2a3e ecba 58be aa07 98be d118 f43d
000001f0: cda7 21be cbe7 edbd ef25 60bd 9299 38be
00000200: da50 01be 5cf0 2fbd 6471 b73d 4ae5 8fbe
00000210: db7c 8dbe b981 113e 5728 65be 9158 853e
00000220: 22f1 e73e 8d78 38bd b931 eebc 6bd1 fc3d
00000230: da37 a73e 07a3 e73e 9959 df3d 83c4 8b3e
00000240: c896 873e a960 72be 5b98 c33d d779 2ebd
00000250: c4e3 0bbe d612 463e 3fb3 9bbd 3a79 4d3d
00000260: 658d cbbd eb87 c63c 6cec 12be d4a9 92be
00000270: b192 bbbd c01b 38be 99bb 47bb 0b8a 083e
00000280: 2a5a b1be 6699 c6bd 9d14 09be 9cd8 913d
00000290: 8365 2dbe 08c2 82be 8b59 fbbd b565 9dbe
000002a0: 8abb 22be 2c3a 843e 7d48 ab3e 2635 6e3e
000002b0: a98a 6ebe 5958 173e bbd5 12bd 567b 403e
000002c0: ec86 c3bc 3ebf ad3e 32ab be3e 578c 96be
000002d0: 4a28 f8bd bfce 94be 8424 13be 5633 8e3e
000002e0: fdc7 55bd 14fd b1bc edab 22be da47 d0bd
000002f0: 7363 72be 853a 12be d51e eabd cd78 03be
00000300: 308e 413e ea01 6a3d 4700 edbd d2ad be3e
00000310: fb77 c1bd a729 d93e 0e94 cc3d dd54 7bbe
00000320: defb 26be ea24 8c3d 991c 3bbe 6840 a63e
00000330: b6e2 ae3e ab89 05bd ce23 64be 91da 6c3e
00000340: f5a6 bb3e 739f 14be 26ff 1dbe c015 6f3d
00000350: 2267 ad3e c3c4 583e ce6c 083e 2d84 0e3e
00000360: f498 d83e c055 843b 165e d23c 99ba 0fbe
00000370: 9efb c3bd 151f c2bd fce1 ad3e e0d4 173e
00000380: f7aa dfbd 0f18 68bd 1447 67be b9a3 36be
00000390: c0e4 24be 846b 00bd 15e3 243e f8e7 73be
000003a0: b62d 8abd 40e9 643e b1c6 4cbe 798c a33e
000003b0: d8c3 71bc a367 bf3e 95fc bbbd ec2d 083e
000003c0: 7ec4 c63d 4581 32be 66a8 643e 6a7f af3e
000003d0: 8f32 2b3e 03ec 553e ef24 e2bd b0aa 1a3d
000003e0: 9be4 9c3e 6fa1 9dbd c935 8fbe 8464 21bd
000003f0: b4b6 1fbe 1a64 6bbe 4f02 59be 8063 143e

fc2.bias f4 [32]
0.30168614 0.30254188 -0.16277985 0.21593462 0.117079474 0.05929583 -0.31978837 0.07539266
0.103809126 -0.11226598 0.24675201 0.14933139 -0.31494388 -0.046225104 -0.17699459 -0.28022963
-0.13833852 0.15078129 0.2051712 0.07305368 -0.02814714 -0.16765843 -0.1590209 -0.27911606
0.13867284 0.053285517 0.27053705 -0.084902324 0.22142193 0.31314233 0.08602164 -0.21580893
00000000: 9b76 9a3e c5e6 9a3e c3af 26be f71d 5d3e
00000010: 5dc7 ef3d 2fe0 723d 4dbb a3be 7867 9a3d
00000020: e199 d43d b5eb e5bd 8fac 7c3e 54ea 183e
00000030: 5340 a1be 8956 3dbd 123e 35be 427a 8fbe
00000040: 9da8 0dbe 6966 1a3e 6618 523e 2b9d 953d
00000050: d594 e6bc a7ae 2bbe 60d6 22be 4de8 8ebe
00000060: 4100 0e3e ea41 5a3d d583 8a3e 45e1 adbd
00000070: 6ebc 623e 3154 a03e 1d2c b03d 04fd 5cbe

fc2_1.weight f4 [64, 32]
-0.028395785 -0.0065844543 -0.0015531324 -0.04466095 -0.13956557 0.0068106987 0.09226086 -0.0817864
0.12762684 0.07782082 -0.11754644 -0.07061081 0.14666155 0.0845255 0.13576518 0.123608336
-0.118138775 -0.091771156 0.1373716 0.1593603 0.16813533 0.07542836 0.143538 -0.15499164
-0.06568692 0.124478415 0.007992454 0.09751712 -0.11261667 -0.05762452 -0.14835258 -0.0146296555
0.01982752 -0.15283859 -0.13941945 -0.014084844 -0.03637429 -0.0488777 -0.0063545858 0.17452198
0.040200125 0.13905305 0.026168978 -0.07461802 0.025297761 0.06366265 0.043767456 0.015869511
0.053234104 -0.10279035 -0.071386814 -0.11433673 0.038353 -0.10595197 -0.15555057 -0.043904983
0.014490929 0.004999649 -0.14700736 0.13081656 -0.13459231 0.14136451 -0.08986349 0.07456471
-0.030669924 0.003996933 0.13726868 0.14223807 0.12155592 -0.1697254 -0.03894826 0.004889224
0.02029377 0.07082715 -0.13763013 0.024147214 -0.095133714 -0.009626846 -0.025610954 0.033980515
0.01628864 -0.050179154 0.031117376 0.11491844 -0.09925167 -0.1344117 -0.009691731 -0.113766186
0.07849549 -0.15684922 -0.067935616 -0.13408746 -0.08428731 0.1117439 -0.14388384 0.1631544
-0.06250659 0.17464814 -0.10312004 0.11840386 0.09313096 0.14819477 -0.10129913 0.16094513
0.050502382 -0.032961603 -0.050951112 0.22058791 -0.16634265 -0.07183277 -0.0029571282 -0.08691523
-0.06864786 0.24057671 0.15446731 -0.16639294 0.017737249 0.027675932 -0.10237507 -0.01064033
0.14601137 -0.0661734 0.1952202 0.15520243 -0.071461305 0.038905848 0.008987465 -0.021982046
-0.06736287 -0.070248276 -0.07859911 -0.022768991 0.15438923 0.03367093 0.009255188 -0.14329809
0.028918955 0.10762098 -0.06310163 0.026080713 -0.108896814 0.1506486 -0.13270023 0.0013017686
-0.045275703 0.22763681 0.07695876 0.041856203 -0.015060733 -0.1096052 0.03334345 0.10141261
0.2650583 0.012272398 0.041324235 0.16058777 0.00089730637 0.08335929 0.089847095 -0.14619228
0.20673686 -0.12182757 -0.1684455 0.14007172 0.17523322 0.24068476 -0.055789668 0.17409576
0.0019695407 0.09089851 0.009179162 0.018750142 0.08097944 -0.15481153 0.17598635 0.1728257
0.0012861321 0.008020054 0.232989 -0.17442684 -0.16656475 0.039122757 -0.07518099 0.115537554
0.05114083 -0.039771963 0.20701137 0.14521714 0.082176976 0.2849432 0.14324789 0.107769534
0.11805783 -0.11896578 0.02951217 -0.015472002 -0.11698511 0.23325688 0.05948339 -0.0467178
0.13246246 -0.14784436 0.118712984 0.013088045 -0.109286584 0.015964974 -0.15819037 0.17464079
0.030116178 0.023254152 0.21311702 -0.1473145 0.050127503 0.16113575 -0.2012108 -0.15609553
0.21884775 -0.030539222 0.12739223 0.09010065 0.089948915 0.18422072 -0.009960882 -0.004716759
-0.042627405 0.09845394 0.14659904 -0.059522625 -0.07029892 0.034415703 -0.16294794 -0.11859154
-0.10108205 0.0012015012 0.065386534 0.1345376 0.06521411 0.022651402 -0.16786735 0.1517848
-0.09435261 0.10586356 0.03688732 0.14292386 0.16592175 -0.016608851 0.08310838 0.057317816
0.16862608 -0.14943567 -0.15036345 -0.010566889 0.06878709 0.05919687 -0.10735721 -0.07394342
00000000: 479e e8bc 68c2 d7bb 7a92 cbba 66ee 36bd
00000010: 47ea 0ebe 482c df3b 43f3 bc3d a17f a7bd
00000020: 9cb0 023e 8660 9f3d 30bc f0bd 669c 90bd
00000030: 722e 163e b51b ad3d 0706 0b3e 5e26 fd3d
00000040: bef2 f1bd 84f2 bbbd 24ab 0c3e 592f 233e
00000050: ab2b 2c3e 2f7a 9a3d a0fb 123e 21b6 1ebe
00000060: dd86 86bd 8aee fe3d c8f2 023c 0eb7 c73d
00000070: 92a3 e6bd b007 6cbd bde9 17be 39b1 6fbc
00000080: 536d a23c b881 1cbe f9c3 0ebe 1ec4 66bc
00000090: 35fd 14bd fc33 48bd 213a d0bb e4b5 323e
000000a0: e3a8 243d ec63 0e3e 5360 d63c 55d1 98bd
000000b0: 403d cf3c 9061 823d 8145 333d c700 823c
000000c0: 010c 5a3d bf83 d2bd 4033 92bd 6029 eabd
000000d0: 0918 1d3d 59fd d8bd a648 1fbe b6d5 33bd
000000e0: 5d6b 6d3c 18d4 a33b 1989 16be c7f4 053e
000000f0: 91d2 09be dcc1 103e 590a b8bd 62b5 983d
00000100: 7e3f fbbc b4f8 823b 2990 0c3e dba6 113e
00000110: 4ff2 f83d 7fcc 2dbe 3688 1fbd c935 a03b
00000120: 1f3f a63c d30d 913d eaee 0cbe 61d0 c53c
00000130: 77d5 c2bd ebb9 1dbc 10ce d1bc 272f 0b3d
00000140: c16f 853c a888 4dbd dee9 fe3c 5c5a eb3d
00000150: 7644 cbbd 38a3 09be 11ca 1ebc 3ffe e8bd
00000160: 3ec2 a03d 159d 20be d421 8bbd 394e 09be
00000170: d39e acbd fcd9 e43d 4956 13be f211 273e
00000180: 7403 80bd f6d6 323e 9930 d3bd b97d f23d
00000190: 72bb be3d 5fc0 173e eb75 cfbd cdce 243e
000001a0: 96db 4e3d bf02 07bd 1db2 50bd cce1 613e
000001b0: ba55 2abe 0f1d 93bd 61cc 41bb 9d00 b2bd
000001c0: 4097 8cbd be59 763e ae2c 1e3e e962 2abe
000001d0: b54d 913c a3b8 e23c 05aa d1bd c754 2ebc
000001e0: 0184 153e eb85 87bd cee7 473e 63ed 1e3e
000001f0: 4e5a 92bd bd5b 1f3d 2940 133c b113 b4bc
00000200: 8bf5 89bd 54de 8fbd 92f8 a0bd 0986 babc
00000210: 3618 1e3e 87ea 093d 12a3 173c bcbc 12be
00000220: 72e7 ec3c 6368 dc3d 6d3b 81bd 38a7 d53c
00000230: 4b05 dfbd a043 1a3e 92e2 07be 1ba0 aa3a
00000240: 0473 39bd a019 693e 8e9c 9d3d 6971 2b3d
00000250: 4bc1 76bc b178 e0bd 2493 083d 6ab1 cf3d
00000260: b9b5 873e 2b12 493c 9a43 293d 1f71 243e
00000270: 3639 6b3a 47b8 aa3d c101 b83d 6eb3 15be
00000280: d4b2 533e bc80 f9bd fa7c 2cbe f66e 0f3e
00000290: 5670 333e 1176 763e b583 64bd 2946 323e
000002a0: 6913 013b ff28 ba3d 3264 163c e699 993c
000002b0: 8cd8 a53d ea86 1ebe c435 343e 38f9 303e
000002c0: 6f93 a83a 8b66 033c ab94 6e3e f39c 32be
000002d0: f38f 2abe 2f3f 203d 7ef8 99bd f49e ec3d
000002e0: 0c79 513d ede7 22bd cafa 533e cdb3 143e
000002f0: 674c a83d 13e4 913e 93af 123e 46b6 dc3d
00000300: 4ec8 f13d 55a4 f3bd 82c3 f13c 487e 7dbc
00000310: e495 efbd e4da 6e3e dba4 733d 2a5b 3fbd
00000320: 3da4 073e 8364 17be cb1f f33d 3d6f 563c
00000330: a5d1 dfbd fac8 823c a8fc 21be 09d5 323e
00000340: 34b6 f63c 7e7f be3c 593b 5a3e 9dd9 16be
00000350: 7f52 4d3d c500 253e 340a 4ebe 82d7 1fbe
00000360: a019 603e 642d fabc 1c73 023e b186 b83d
00000370: 2337 b83d 5ba4 3c3e f832 23bc 0b8f 9abb
00000380: 139a 2ebd 38a2 c93d 0f1e 163e ffcd 73bd
00000390: e1f8 8fbd 7bf7 0c3d d3db 26be 1fe0 f2bd
000003a0: 1b04 cfbd b17b 9d3a 60e9 853d 3ac4 093e
000003b0: fa8e 853d 6f8f b93c 6be5 2bbe 7a6d 1b3e
000003c0: f13b c1bd ffce d83d 2917 173d a25a 123e
000003d0: 64e7 293e 490f 88bc ba34 aa3d 16c6 6a3d
000003e0: 51ac 2c3e aa05 19be e0f8 19be bf20 2dbc
000003f0: 3fe0 8c3d 6b78 723d 19de dbbd a66f 97bd

fc2_1.bias f4 [64]
0.0123264985 -0.024127595 -0.053471114 -0.13800867 0.04434646 -0.029912937 0.08553839 -0.11433544
0.080535166 0.02561363 0.17227831 0.12547392 0.12020071 0.1176061 0.15615278 -0.097678736
0.019769963 0.085919276 0.17348266 0.13416886 0.05287969 0.06274257 -0.011819135 0.08546668
0.09360325 -0.024467055 0.025705004 -0.02965132 0.004766437 -0.11306699 0.09150815 0.024397003
-0.007726824 0.1280928 -0.13711937 -0.14006358 -0.008793151 0.20341453 -0.1008429 0.040071853
-0.0013279094 0.17086372 0.11521094 0.18335965 0.06418024 0.13568318 -0.037977997 -0.11107259
0.13155557 -0.12981842 -0.008039812 0.13924004 0.08636317 -0.12302998 0.21151683 -0.0038330762
0.08246463 -0.07934473 0.045802854 0.009342144 0.23595358 -0.04246432 0.17965744 -0.006706909
00000000: 15f5 493c 3ca7 c5bc 8704 5bbd 2552 0dbe
00000010: a2a4 353d fa0b f5bc c02e af3d b328 eabd
00000020: 9fef a43d add3 d13c ba69 303e 3c7c 003e
00000030: ca2b f63d 78db f03d 84e6 1f3e ca0b c8bd
00000040: 9ef4 a13c 72f6 af3d 70a5 313e 9063 093e
00000050: 6098 583d 2d7f 803d 0ca5 41bc 2809 af3d
00000060: 10b3 bf3d 226f c8bc 4d93 d23c 53e7 f2bc
00000070: c62f 9c3b ab8f e7bd a068 bb3d 39dc c73c
00000080: 4c31 fdbb c22a 033e 0569 0cbe d46c 0fbe
00000090: 2611 10bc e64b 503e b986 cebd 6222 243d
000000a0: 3f0d aeba e6f6 2e3e b7f3 eb3d a2c2 3b3e
000000b0: ee70 833d 88f0 0a3e d18e 1bbd 077a e3bd
000000c0: 81b6 063e 1fef 04be 6ab9 03bc f194 0e3e
000000d0: 2cdf b03d 24f7 fbbd de97 583e 5934 7bbb
000000e0: 37e3 a83d 7d7f a2bd c69b 3b3d cb0f 193c
000000f0: d19d 713e 11ef 2dbd 1ff8 373e a1c5 dbbb

fc2_1_1.weight f4 [64, 64]
0.0746606 0.073989004 0.059782073 0.13610621 0.06450936 0.016753117 0.05759521 -0.013154358
-0.021990187 0.040033776 0.115874365 0.15738563 -0.014485173 0.109873496 0.088868424 0.021363035
0.15587324 0.09249112 0.15562403 0.089521274 0.009422943 0.21684995 0.036194608 0.0014605857
0.19251439 -0.034594096 -0.02174069 0.103973225 -0.0063677123 0.12440761 0.0051116 0.18885292
-0.0926514 -0.022663552 -0.10619593 -0.11788058 0.062168803 -0.06512456 -0.061977845 -0.05556634
0.04740101 0.057596333 0.092169285 0.10746804 0.045441978 0.14954342 -0.005677685 0.20819521
0.12784803 -0.1186591 0.070951775 0.05575759 0.066850595 -0.11991821 -0.09240505 0.18086086
0.108927846 -0.100444555 -0.040940493 -0.020141318 -0.17217903 0.089447595 0.05284662 0.075069465
0.11311096 0.105201766 0.044585228 -0.028307468 -0.0051170737 0.11262317 -0.06849095 -0.01410304
-0.113974124 0.03616619 -0.08042374 0.11208427 -0.12246317 0.039996237 0.026960775 -0.07015605
-0.089814484 0.032835707 -0.037818223 0.017515793 -0.07199836 -0.02087158 0.031729534 -0.12365323
-0.035535365 -0.071746394 -0.04685156 0.06769095 -0.101143375 0.10109988 0.010545671 -0.11313109
0.025483489 0.01138407 0.018629506 -0.040135726 0.009135798 -0.005028978 -0.07291785 0.08063996
-0.078965634 0.018894196 0.01016207 0.095146224 -0.0038687289 -0.045727253 0.106002614 -0.06052372
0.032330632 -0.019914538 -0.047456473 -0.014417842 -0.034204498 -0.0972158 -0.05996646 0.122732565
0.016793922 0.0084974915 0.07553843 -0.008684054 -0.06285198 -0.11147191 0.023966357 0.009989306
-0.020721406 0.0491264 -0.076107144 -0.10377824 0.015185937 -0.061734855 -0.0578932 -0.120382085
-0.06952846 -0.093746915 -0.05703017 -0.04694155 -0.045216545 -0.07543786 0.06005858 0.10066581
0.06482357 -0.0042398423 -0.056474388 -0.11355527 0.06863855 -0.08452131 -0.09470464 -0.0050175935
0.0046733916 0.030288056 0.063540906 0.0057555735 0.11290507 -0.07638918 -0.0060883164 0.07770972
0.06480706 0.06484158 0.10199909 -0.032629013 -0.0815631 -0.084787875 -0.03303355 0.10813689
-0.052250013 -0.05111444 -0.11341894 -0.06752218 -0.12341732 -0.092894405 -0.0039561987 -0.08152369
-0.12165043 0.05530086 0.09988324 0.0113257915 0.04681477 -0.012225613 0.068645746 -0.0402807
-0.11821231 0.060317144 0.033162564 -0.07425578 -0.074684545 -0.07659601 -0.09816912 -0.09864059
-0.04414703 -0.025302455 -0.068691015 0.086412445 0.20544824 0.03357804 -0.004045825 -0.07843289
0.071314596 0.080596685 0.14337528 0.067267425 0.12751113 0.05043998 0.00217006 0.115368515
-0.023362672 0.16395573 0.15061925 -0.10072539 0.07006723 0.20074248 0.061569765 0.11152443
0.17970328 0.04367927 -0.07284832 0.11755277 0.061534423 0.1705645 -0.028706923 0.11758481
-0.08212142 -0.021438664 -0.123464465 -0.06269637 0.18148461 -0.09741637 -0.053237732 -0.034596726
-0.004565693 -0.036133315 0.045208678 0.17963529 -0.0054515707 0.05027216 -0.12287909 0.008370133
0.12129275 0.01761396 0.18700834 -0.06677894 -0.03581254 0.033930123 -0.013759898 0.085127644
0.1724746 0.10798064 0.08672634 0.037201807 -0.18741676 0.07673656 0.02672646 0.09443342
00000000: a8e7 983d 8c87 973d 0cde 743d 6d5f 0b3e
00000010: 7c1d 843d d53d 893c f4e8 6b3d 6085 57bc
00000020: c424 b4bc 75fa 233d 8a4f ed3d b329 213e
00000030: 3853 6dbc 5b05 e13d a600 b63d 8801 af3c
00000040: 3c9d 1f3e fc6b bd3d e85b 1f3e ee56 b73d
00000050: b062 1a3c ea0d 5e3e cc40 143d 2071 bf3a
00000060: 7e22 453e 8ab2 0dbd 8819 b2bc eaef d43d
00000070: 3ea8 d0bb 6bc9 fe3d 357f a73b a962 413e
00000080: 04c0 bdbd eaa8 b9bc 407d d9bd 606b f1bd
00000090: b7a4 7e3d 0660 85bd 7bdc 7dbd 8899 63bd
000000a0: 9027 423d 22ea 6b3d 40c3 bc3d 3418 dc3d
000000b0: 5e21 3a3d e921 193e e00b babb 2031 553e
000000c0: 98ea 023e 8b03 f3bd 2a4f 913d 1262 643d
000000d0: f7e8 883d ae97 f5bd dc3e bdbd 9733 393e
000000e0: 9015 df3d e0b5 cdbd 38b1 27bd 68ff a4bc
000000f0: b34f 30be 4d30 b73d b375 583d 05be 993d
00000100: b8a6 e73d 0674 d73d 009f 363d 10e5 e7bc
00000110: 20ad a7bb faa6 e63d fc44 8cbd 7010 67bc
00000120: 446b e9bd 0023 143d 34b5 a4bd 708c e53d
00000130: f8cd fabd 18d3 233d d8dc dc3c faad 8fbd
00000140: a8f0 b7bd bc7e 063d 48e7 1abd 487d 8f3c
00000150: e073 93bd e0fa aabc d4f6 013d e83d fdbd
00000160: 888d 11bd c6ef 92bd 6ce7 3fbd 8ea1 8a3d
00000170: 4224 cfbd 740d cf3d c0c7 2c3c 46b1 e7bd
00000180: c0c2 d03c 4084 3a3c e89c 983c 5c65 24bd
00000190: 50ae 153c 20ca a4bb f455 95bd 9026 a53d
000001a0: bcb8 a1bd 00c8 9a3c d07e 263c 06dc c23d
000001b0: 808a 7dbb 804c 3bbd e617 d93d b8e7 77bd
000001c0: 206d 043d d023 a3bc b861 42bd d038 6cbc
000001d0: 041a 0cbd 1419 c7bd 649f 75bd 365b fb3d
000001e0: 6893 893c 1039 0b3c e4b3 9a3d 9047 0ebc
000001f0: 8ab8 80bd 624b e4bd 1855 c43c 30aa 233c
00000200: f0bf a9bc c438 493d 10de 9bbd b089 d4bd
00000210: 70ce 783c b0dd 7cbd 6c21 6dbd e28a f6bd
00000220: f064 8ebd 62fe bfbd 7898 69bd c845 40bd
00000230: fc34 39bd 2a7f 9abd fcff 753d e029 ce3d
00000240: 38c2 843d 60ee 8abb b051 67bd aa8f e8bd
00000250: 5e92 8c3d 8219 adbd 82f4 c1bd a06a a4bb
00000260: 4023 993b a81e f83c bc21 823d 4099 bc3b
00000270: c63a e73d ee71 9cbd 8080 c7bb 4626 9f3d
00000280: 90b9 843d aacb 843d e6e4 d03d 00a6 05bd
00000290: 8e0a a7bd 44a5 adbd 304e 07bd e076 dd3d
000002a0: 1c04 56bd 605d 51bd 3048 e8bd 1249 8abd
000002b0: 38c2 fcbd 6c3f bebd 00a3 81bb e4f5 a6bd
000002c0: dc23 f9bd 2883 623d 968f cc3d d08f 393c
000002d0: d8c0 3f3d f04d 48bc 2496 8c3d 60fd 24bd
000002e0: 4c19 f2bd 1c0f 773d 78d5 073d 6a13 98bd
000002f0: 36f4 98bd 5ede 9cbd e40c c9bd 1404 cabd
00000300: 84d3 34bd 1847 cfbc e0ad 8cbd 02f9 b03d
00000310: 0661 523e 2089 093d d792 84bb 6ca1 a0bd
00000320: 630d 923d e00f a53d f8d0 123e 81c3 893d
00000330: 4792 023e 279a 4e3d 9137 0e3b 5446 ec3d
00000340: 1363 bfbc 03e4 273e ef3b 1a3e 1d49 cebd
00000350: 687f 8f3d 708f 4d3e 9430 7c3d ec66 e43d
00000360: 2304 383e 09e9 323d 8031 95bd 82bf f03d
00000370: 850b 7c3d 76a8 2e3e c82a ebbc 4ed0 f03d
00000380: 462f a8bd 23a0 afbc f0da fcbd f466 80bd
00000390: 1ad7 393e 3c82 c7bd cf0f 5abd 4cb5 0dbd
000003a0: cf9b 95bb 8700 14bd bc2c 393d 50f2 373e
000003b0: 17a3 b2bb 2eea 4d3d 08a8 fbbd e222 093c
000003c0: 5568 f83d 274b 903c 1d7f 3f3e 66c3 88bd
000003d0: 2cb0 12bd 50fa 0a3d 3271 61bc 6757 ae3d
000003e0: 2e9d 303e f424 dd3d 949d b13d ec60 183d
000003f0: 2eea 3fbe 0f28 9d3d 73f1 da3c 4f66 c13d

fc2_1_1.bias f4 [64]
0.063356675 -0.09659994 0.046800062 -0.08288387 0.09176475 -0.06846907 -0.064423084 0.11136106
0.08244585 0.082732856 0.0646037 -0.04206916 0.08747915 0.062421873 -0.008839664 0.031055525
-0.11488408 -0.013014275 -0.036147505 -0.04625687 -0.05239224 -0.03113991 -0.08476599 0.075542316
0.00211613 -0.10404503 0.075276084 -0.09567045 0.045003626 0.015197322 -0.06537447 0.118962444
0.078945294 0.07934755 0.048142985 0.1073234 0.030203568 -0.074116305 -0.024114428 -0.056829423
0.020270916 0.022633402 -0.0045854747 -0.03813012 0.12006386 0.13219205 -0.030651705 0.09279573
-0.081437 0.1343521 -0.03261917 -0.05086191 0.09728553 0.069991894 -0.07294965 -0.09164729
-0.072737865 -0.017454522 -0.109222695 0.055495143 0.03878194 0.09985435 0.12670745 0.12405667
00000000: 25c1 813d 30d6 c5bd 6cb1 3f3d 05bf a9bd
00000010: 28ef bb3d 8339 8cbd 40f0 83bd 4411 e43d
00000020: 5fd9 a83d d86f a93d f24e 843d b650 2cbd
00000030: 4528 b33d 14ae 7f3d 3dd4 10bc 2868 fe3c
00000040: 5848 ebbd d339 55bc 680f 14bd d877 3dbd
00000050: 3f99 56bd 2019 ffbc cb99 adbd eeb5 9a3d
00000060: c5ae 0a3b 9015 d5bd 592a 9a3d deee c3bd
00000070: b955 383d 30fe 783c 0de3 85bd 95a2 f33d
00000080: 12ae a13d f880 a23d 9431 453d 5fcc db3d
00000090: 796d f73c 4aca 97bd 9f8b c5bc f8c5 68bd
000000a0: 310f a63c af69 b93c c041 96bb 542e 1cbd
000000b0: 0be4 f53d 5a5d 073e 4919 fbbc b00b be3d
000000c0: 71c8 a6bd 9993 093e ae9b 05bd 9454 50bd
000000d0: a33d c73d e957 8f3d a066 95bd 93b1 bbbd
000000e0: 97f7 94bd c9fc 8ebc 26b0 dfbd e04e 633d
000000f0: d0d9 1e3d 7080 cc3d 99bf 013e 6c11 fe3d

fc2_1_2.weight f4 [32, 64]
0.024455855 -0.09349489 -0.09471013 0.1029635 0.027856113 0.080049805 0.109638296 0.0033519906
-0.02579093 0.0028750908 -0.074315675 0.02739038 0.11283672 -0.0037297006 0.0053471555 0.09917592
0.12035726 -0.033324473 -0.08996272 0.036446825 0.000103993116 0.08084366 -0.11607261 -0.04472245
-0.03185782 0.04246432 -0.06199825 0.10439869 0.01054587 0.10204439 -0.10651843 0.024253532
0.04828595 0.01025694 0.11348319 -0.035925966 -0.10864696 0.05938041 0.08632182 0.048981905
-0.08631696 -0.02586214 0.029785335 -0.11923936 -0.08536143 0.016543843 -0.08489912 0.08179448
-0.105202526 -0.0016222543 -0.124956615 -0.11108719 0.0103605855 0.057193525 0.0749187 -0.07037203
-0.017339027 -0.035072736 -0.052012786 0.11701037 -0.020510957 -0.118033595 -0.11271523 0.10363522
0.065662816 0.08067584 -0.022029862 -0.062059335 -0.08907701 -0.03879739 -0.046946585 -0.11026579
0.0170575 0.06171641 0.012468812 -0.036336027 0.082462095 -0.11761611 0.039559618 -0.07960135
0.09065445 0.022905875 -0.071990564 0.00025470555 0.122218505 0.117876545 0.09515339 0.0051086196
-0.10157105 -0.12626739 0.040248416 0.065865576 0.12052164 -0.058965147 0.065990016 -0.08659784
0.048232786 -0.06629428 0.028850753 -0.062474668 -0.09989239 0.06975161 -0.034003586 -0.053715184
-0.014919771 -0.11467495 -0.10376608 0.031743437 -0.08806765 -0.011923324 0.08713381 0.06612161
0.0041621425 0.025753502 0.018536523 0.038245782 -0.107509054 0.026208304 -0.018440947 0.0083015235
-0.049038414 0.090499245 -0.107434526 0.08102253 -0.0647645 0.114004344 -0.086489916 0.036185965
0.123755336 0.1023563 -0.06769134 0.15008694 -0.03070368 -0.08543551 0.19664714 0.12702015
0.0041420595 0.0989523 0.08597528 0.13263793 0.16190931 0.11464671 0.046319384 -0.09046137
0.00081259204 -0.037758168 0.10172284 0.076692134 0.100989684 -0.026200533 0.022359347 0.21424723
0.04583992 0.010080408 0.08276837 0.17627203 -0.0002243456 0.033915 0.17370526 0.040860433
-0.0071854205 0.077635475 0.10940417 0.14940548 0.19134511 0.11570163 0.03712054 0.031144112
0.04689025 -0.021515455 0.051092386 -0.03152907 0.011431608 0.17137797 0.01740322 0.13678387
0.137209 0.09628098 0.037870124 -0.06487024 0.08179756 -0.10272891 0.08633107 0.18364075
0.19820738 -0.12764716 0.12020558 -0.023856848 -0.069272995 0.03013012 0.1969881 0.08845986
0.15297852 0.03438753 -0.12393543 0.12686548 -0.108304344 0.01836771 0.05555539 0.06619926
0.09105825 0.13318315 0.013568289 -0.09896132 0.18266188 0.124774225 -0.024581328 -0.01908352
-0.058021963 0.15625876 -0.03829837 0.069878384 -0.11844326 0.105148956 0.14504096 0.012593114
0.11851312 0.12473098 0.013099051 -0.004692672 -0.08941945 -0.054502755 0.07796478 0.18851873
0.04207329 0.16857676 0.039184116 0.11924967 -0.005510235 0.19328359 0.14330849 0.051199988
0.036182106 0.1787651 0.07094097 -0.10196763 0.12539855 -0.013544848 0.15973161 0.00031498686
-0.025454672 0.17677025 0.015297024 0.11179477 -0.056073003 -0.04593071 0.06774606 0.11603075
-0.0066955886 -0.03778235 -0.12460299 -0.023420468 -0.060940966 0.110336624 0.016033873 0.035277802
00000000: a557 c83c 407a bfbd 62f7 c1bd 87de d23d
00000010: 8132 e43c 27f1 a33d 0b8a e03d 12ad 5b3b
00000020: 8047 d3bc 056c 3c3b d132 98bd ca61 e03c
00000030: f016 e73d fe6d 74bb 3137 af3b bf1c cb3d
00000040: de7d f63d 3e7f 08bd 603e b8bd 4449 153d
00000050: e116 da38 5c91 a53d 7ab7 edbd e32e 37bd
00000060: 587d 02bd 11ef 2d3d e1f1 7dbd fbce d53d
00000070: 96c8 2c3c a6fc d03d 5626 dabd 58af c63c
00000080: 7dc7 453d b90c 283c e069 e83d 1b27 13bd
00000090: 4c82 debd df38 733d 7fc9 b03d 40a1 483d
000000a0: f2c6 b0bd d7dc d3bc 6000 f43c c433 f4bd
000000b0: f9d1 aebd f486 873c 97df adbd dd83 a73d
000000c0: 6c74 d7bd d2a1 d4ba 41e9 ffbd ae81 e3bd
000000d0: 72bf 293c c243 6a3d fa6e 993d 361f 90bd
000000e0: 930a 8ebc 6ea8 0fbd 5c0b 55bd 22a3 ef3d
000000f0: 9806 a8bc 99bb f1bd 3ed7 e6bd b43e d43d
00000100: 3a7a 863d 6039 a53d f877 b4bc ee31 7ebd
00000110: 026e b6bd 03ea 1ebd 104b 40bd 08d3 e1bd
00000120: 2cbc 8b3c 59ca 7c3d fd49 4c3c 16d5 14bd
00000130: e3e1 a83d b7e0 f0bd 4409 223d 0806 a3bd
00000140: 0aa9 b93d 1aa5 bb3c ca6f 93bd 008a 8539
00000150: b24d fa3d 4269 f13d c8df c23d 3566 a73b
00000160: 7c04 d0bd 3d4c 01be 86db 243d 88e4 863d
00000170: 0dd4 f63d 7085 71bd c625 873d 355a b1bd
00000180: be8f 453d 4cc5 87bd 6a58 ec3c 70e5 7fbd
00000190: 6294 ccbd efd9 8e3d 5847 0bbd 7404 5cbd
000001a0: 0e72 74bc b3da eabd 5083 d4bd 6805 023d
000001b0: d05c b4bd 0c5a 43bc 3673 b23d c46a 873d
000001c0: 9562 883b 02f9 d23c e8d9 973c 9ca7 1c3d
000001d0: b52d dcbd ccb2 d63c 7811 97bc 1d03 083c
000001e0: 81dc 48bd ab57 b93d a206 dcbd 24ef a53d
000001f0: 40a3 84bd 1c7b e93d a021 b1bd bc37 143d
00000200: 7073 fd3d 2ea0 d13d c2a1 8abd 64b0 193e
00000210: 4986 fbbc d0f8 aebd de5d 493e 9211 023e
00000220: 1dba 873b 81a7 ca3d cf13 b03d 3dd2 073e
00000230: 8ecb 253e e5cb ea3d 65b9 3d3d d043 b9bd
00000240: 2104 553a 4fa8 1abd 1054 d03d c410 9d3d
00000250: aed3 ce3d 80a2 d6bc f32a b73c a063 5b3e
00000260: a4c2 3b3d 4c28 253c 7782 a93d a880 343e
00000270: 503e 6bb9 74ea 0a3d cbdf 313e 455d 273d
00000280: ad73 ebbb 59ff 9e3d 4b0f e03d c0fd 183e
00000290: f9ef 433e faf4 ec3d b50b 183d f021 ff3c
000002a0: fe0f 403d 2e41 b0bc 4046 513d a024 01bd
000002b0: a44b 3b3c b57d 2f3e 3391 8e3c 1211 0c3e
000002c0: 8480 0c3e f62e c53d b41d 1b3d b0da 84bd
000002d0: 7b85 a73d 8963 d2bd 58ce b03d 520c 3c3e
000002e0: e0f6 4a3e f0b5 02be 582e f63d 706f c3bc
000002f0: 00df 8dbd 71d3 f63c 40b7 493e 712a b53d
00000300: 67a6 1c3e f0d9 0c3d dcd1 fdbd 06e9 013e
00000310: abce ddbd e177 963c 0c8e 633d 7a93 873d
00000320: bf7c ba3d 2a61 083e 874d 5e3c 3cac cabd
00000330: b70b 3b3e a189 ff3d c85e c9bc 0b55 9cbc
00000340: 70a8 6dbd 4c02 203e c0de 1cbd 661c 8f3d
00000350: 6192 f2bd 5658 d73d 9e85 143e 5953 4e3c
00000360: 02b7 f23d f572 ff3d 679d 563c fcc4 99bb
00000370: 8b21 b7bd 483e 5fbd 00ac 9f3d 0e0b 413e
00000380: 0b55 2c3d 639f 2c3e 867f 203d 2c39 f43d
00000390: 348f b4bb 22ec 453e 76bf 123e 14b7 513d
000003a0: b033 143d 330e 373e 8049 913d 68d4 d0bd
000003b0: 7a68 003e 36eb 5dbc af90 233e d224 a539
000003c0: 5186 d0bc 4303 353e 5ea0 7a3c a8f4 e43d
000003d0: ceac 65bd d721 3cbd 72be 8a3d 88a1 ed3d
000003e0: ab66 dbbb aac1 1abd da2f ffbd 48dc bfbc
000003f0: 3c9d 79bd 2bf8 e13d 7859 833c 757f 103d

fc2_1_2.bias f4 [32]
0.07158296 -0.055011444 0.08537905 0.03984038 0.092637755 0.05263692 0.013950273 0.11756219
0.017508473 -0.07509836 -0.10680205 0.018687895 0.09404579 0.13184968 -0.06918796 0.053815376
-0.11584351 0.03859137 0.10104005 0.096494295 -0.09425517 -0.07731429 0.0058776657 -0.085071534
0.06697979 0.012658738 -0.09590106 0.06647192 0.098919906 0.025694717 -0.07831079 -0.022759624
00000000: 169a 923d ae53 61bd 36db ae3d ab2f 233d
00000010: ddb8 bd3d d099 573d b08f 643c 72c4 f03d
00000020: ee6d 8f3c 2bcd 99bd 08bb dabd 5b17 993c
00000030: 149b c03d 9a03 073e 6bb2 8dbd 836d 5c3d
00000040: 5d3f edbd fc11 1e3d 16ee ce3d cd9e c53d
00000050: db08 c1bd f456 9ebd 6f99 c03b fc39 aebd
00000060: b32c 893d 9866 4f3c c667 c4bd 6e22 883d
00000070: 8596 ca3d ba7d d23c 6861 a0bd 6472 babc

fc2_2.weight f4 [16, 32]
-0.05529814 -0.037495874 0.12874274 0.02912327 0.11354546 0.13966186 -0.12767994 0.07051579
0.145146 0.032182157 0.05369283 -0.16914444 -0.15350053 0.08157137 0.08537079 -0.14607272
0.12037237 -0.07782629 -0.0007441695 -0.08013937 -0.040674616 -0.010371923 0.0067871865 -0.125456
-0.16217564 -0.075079866 0.11044327 -0.066531025 -0.20271154 -0.02507689 -0.132262 0.013020669
-0.04201879 0.0312557 0.12600523 -0.16347478 0.076206066 0.086857244 0.12570606 0.08819765
-0.010155784 -0.1292697 0.15344898 0.021478167 0.095407516 -0.082888104 -0.022396652 -0.022747152
0.17015365 0.13987674 0.10046307 0.045822863 -0.100174755 0.1501431 0.1662223 0.033754397
0.06429181 -0.12991057 -0.004150614 -0.16535342 -0.17319565 -0.068669684 -0.166821 0.095598355
-0.016354818 -0.1407996 0.043834988 0.14023513 0.05112172 -0.057266615 0.06868633 0.1706158
0.23110405 0.20593148 -0.095535934 0.21141052 0.12771747 -0.043470114 0.065738 0.08073998
0.123783216 0.11151782 0.0029068284 -0.023254178 -0.037186 0.15514295 0.22313638 -0.06168287
0.13997641 -0.0406704 -0.09073269 0.19536315 0.061909698 0.053618584 0.007859246 -0.035745632
-0.122319475 0.09413779 0.16316229 0.20915325 -0.057573676 -0.017053524 -0.10612388 0.08937257
0.02687689 0.044087145 -0.09000589 0.16994439 0.035009254 0.06879627 0.18007073 -0.108407654
0.15922292 -0.1884312 0.16007802 0.08621251 0.026693383 0.2528376 0.14198379 0.17903581
-0.10980862 0.05009451 0.18162908 -0.009331765 0.24830574 -0.1214141 0.2450977 0.23230259
0.11094736 0.03505329 0.15580164 -0.17307475 -0.032863878 -0.107384905 -0.14002566 -0.12074958
0.03609198 0.15802196 -0.17691965 0.13443215 -0.10933028 0.030674394 -0.049070828 -0.04617547
-0.10517352 -0.14465128 -0.1395861 0.08634023 -0.16259436 0.057884656 -0.047510568 -0.14580679
0.08123285 -0.0832895 -0.089151524 -0.024389219 -0.15855537 -0.17669627 -0.17662846 0.015136113
0.12517042 0.085974775 -0.15722151 -0.00069628586 -0.10207775 -0.030227857 -0.032769453 0.14977723
-0.079087704 -0.004448534 0.029455911 0.031402048 0.1012128 -0.06490468 0.09621908 -0.016133798
0.08944391 0.16536522 -0.06545898 0.032883693 0.07304686 -0.12965697 -0.16544457 -0.14236961
0.017150948 0.07065746 0.16451234 -0.15509531 0.09605306 -0.037156973 -0.101769164 0.11281892
-0.018339504 0.024560362 0.012161157 0.076022565 0.11118862 -0.09373382 0.050978664 0.17027412
0.15760267 0.26649317 0.17125258 0.052624702 0.013029489 0.26044935 0.029284624 -0.20974348
0.24232858 -0.113348424 0.022480763 0.034902133 -0.08384068 0.22148064 0.18308017 0.11009443
-0.06362704 -0.08037722 -0.07188298 0.088865705 0.22495256 -0.21415001 -0.017846588 0.016074998
-0.05774038 0.0030689228 0.14987049 0.11774381 -0.023114068 0.0068116263 -0.042085566 0.019499661
-0.122421674 -0.005636677 -0.17216095 0.1367321 -0.04168083 -0.13800298 -0.17176834 -0.069739565
-0.027316237 0.08168854 -0.014310709 0.024502702 -0.1560691 -0.14904386 0.0389149 -0.14768071
-0.058956 0.080729336 -0.14970633 0.03915029 -0.11942647 -0.17652155 -0.1493225 -0.016945224
00000000: 4d80 62bd 4695 19bd 23d5 033e ed93 ee3c
00000010: 868a e83d 8503 0f3e 88be 02be 956a 903d
00000020: 27a1 143e 70d1 033d 03ed 5b3d 3334 2dbe
00000030: 3e2f 1dbe e40e a73d e1d6 ae3d 1694 15be
00000040: ca85 f63d 6463 9fbd 5f14 43ba 1c20 a4bd
00000050: 6d9a 26bd 00ef 29bc 0c67 de3b 8a77 00be
00000060: 5f11 26be 79c3 99bd 1530 e23d 6b41 88bd
00000070: 9d93 4fbe 0d6e cdbc b16f 07be a554 553c
00000080: e51b 2cbd fa05 003d 8407 013e ef65 27be
00000090: ed11 9c3d 36e2 b13d 17b9 003e f8a0 b43d
000000a0: 7264 26bc 475f 04be bb21 1d3e fbf2 af3c
000000b0: 0465 c33d 3dc1 a9bd 2f79 b7bc 3c58 babc
000000c0: c23c 2e3e d93b 0f3e 95bf cd3d c1b0 3b3d
000000d0: 6c28 cdbd 1dbf 193e 2e36 2a3e 0d42 0a3d
000000e0: 6dab 833d 4707 05be e001 88bb 6852 29be
000000f0: 335a 31be b1a2 8cbd 20d3 2abe 12c9 c33d
00000100: 8afa 85bc c52d 10be 518c 333d cc99 0f3e
00000110: 0265 513d 6690 6abd 6bab 8c3d e9b5 2e3e
00000120: 8aa6 6c3e b4df 523e 58a8 c3bd 007c 583e
00000130: 5ec8 023e b80d 32bd a5a1 863d 015b a53d
00000140: 0e82 fd3d 7463 e43d 7d80 3e3b 8c7f bebc
00000150: 5950 18bd cbdd 1e3e dd7d 643e 2da7 7cbd
00000160: fa55 0f3e 0196 26bd 10d2 b9bd 470d 483e
00000170: 0695 7d3d 299f 5b3d 11c4 003c 036a 12bd
00000180: a282 fabd 50cb c03d 0414 273e 452c 563e
00000190: 60d2 6bbd d5b3 8bbc 7a57 d9bd f708 b73d
000001a0: ec2c dc3c b994 343d 0255 b8bd e705 2e3e
000001b0: dd65 0f3d 0fe5 8c3d 7664 383e d504 debd
000001c0: 550b 233e 1cf4 40be 7eeb 233e 2f90 b03d
000001d0: 15ac da3c ee73 813e 3364 113e 2a55 373e
000001e0: 57e3 e0bd e72f 4d3d f9fc 393e 42e4 18bc
000001f0: dc43 7e3e f5a7 f8bd e4fa 7a3e bbe0 6d3e
00000200: 5f38 e33d 0a94 0f3d 778a 1f3e 823a 31be
00000210: 469c 06bd 9eec dbbd e362 0fbe 8e4b f7bd
00000220: 2fd5 133d 82d0 213e 6d2a 35be 95a8 093e
00000230: 8ee8 dfbd de48 fb3c 7efe 48bd 7d22 3dbd
00000240: 3765 d7bd 771f 14be a9ef 0ebe 26d3 b03d
00000250: 237f 26be 7618 6d3d 719a 42bd 604e 15be
00000260: 695d a63d af93 aabd 1395 b6bd e6cb c7bc
00000270: 575c 22be deef 34be 17de 34be 76fd 773c
00000280: ad2c 003e 8b13 b03d adfe 20be f486 36ba
00000290: 240e d1bd 69a0 f7bc 4339 06bd 345f 193e
000002a0: bcf8 a1bd 02c5 91bb 864d f13c 6f9f 003d
000002b0: a848 cf3d bfec 84bd 820e c53d 072b 84bc
000002c0: 5e2e b73d 8055 293e 5c0f 86bd 0db1 063d
000002d0: 9899 953d ccc4 04be 4d6a 29be 57c9 11be
000002e0: 2580 8c3c dcb4 903d ec75 283e 4ed1 1ebe
000002f0: 77b7 c43d e931 18bd 5a6c d0bd 9b0d e73d
00000300: ba3c 96bc d032 c93c 973f 473c b8b1 9b3d
00000310: dcb6 e33d 84f7 bfbd 01cf 503d 575c 2e3e
00000320: 9862 213e cb71 883e d65c 2f3e 008d 573d
00000330: a379 553c 9e59 853e 4fe6 ef3c ffc6 56be
00000340: fc24 783e 3823 e8bd 9429 b83c 8af5 0e3d
00000350: aab4 abbd d2cb 623e 5e79 3b3e 3079 e13d
00000360: e54e 82bd d09c a4bd 6237 93bd 39ff b53d
00000370: f759 663e 244a 5bbe 0233 92bc b7af 833c
00000380: 2d81 6cbd fb1f 493b a677 193e ab23 f13d
00000390: b759 bdbc 1034 df3b ea61 2cbd c1bd 9f3c
000003a0: 37b8 fabd e0b3 b8bb f64a 30be 8003 0c3e
000003b0: 85b9 2abd a750 0dbe 0ae4 2fbe 9ed3 8ebd
000003c0: 4dc6 dfbc 524c a73d 7777 6abc e4b9 c83c
000003d0: 94d0 1fbe f49e 18be 3b65 1f3d 9d39 17be
000003e0: d97b 71bd 6c55 a53d 9e4c 19be 0e5c 203d
000003f0: dd95 f4bd 11c2 34be ffe7 18be b6d0 8abc

fc2_2.bias f4 [16]
-0.18886676 0.12243652 -0.005785216 -0.059174795 0.03215757 0.015290255 0.12849134 -0.17319734
0.034852095 0.06539117 0.15220591 0.17824396 -0.05978383 0.18318184 0.13251959 -0.05450504
00000000: 4a66 41be 00c0 fa3d e991 bdbb 4561 72bd
00000010: a8b7 033d fa83 7a3c 3c93 033e a55a 31be
00000020: 12c1 0e3d ceeb 853d dedb 1b3e 9685 363e
00000030: e4df 74bd 0594 3b3e 37b3 073e ad40 5fbd

fc3.weight f4 [4, 16]
-0.0020121366 0.25460187 0.027070485 0.057878554 -0.013337759 0.007786424 0.29599106 0.1869427
0.040395778 0.2955916 -0.10631243 0.1305749 0.21126673 -0.05422603 0.16627106 -0.22570543
-0.17608783 0.026521396 0.05302606 -0.1645381 -0.11247718 0.10202465 -0.02121701 0.01640758
-0.14431526 -0.15343069 -0.04006349 -0.02078151 -0.24060667 0.15329875 0.22205304 0.12900414
0.25392443 -0.033430725 -0.03510766 -0.16829364 -0.030726515 0.24837995 -0.13822971 -0.1612778
-0.14594842 0.08967353 0.26652527 0.13284355 -0.044315882 0.09345896 -0.112055846 0.23403767
-0.06331236 -0.19103047 0.09078795 0.23917256 -0.20702183 -0.18621168 0.12302962 -0.059999287
-0.24049698 0.0108300345 0.18455511 0.2765775 -0.2059291 0.25379246 0.31524345 0.002275639
00000000: 0dde 03bb 2d5b 823e ecc2 dd3c 1012 6d3d
00000010: 9e86 5abc 4225 ff3b 248c 973e e86d 3f3e
00000020: 0b76 253d c857 973e 55ba d9bd 6db5 053e
00000030: 4e56 583e 1d1c 5ebd f642 2a3e 531f 67be
00000040: 5e50 34be 6643 d93c db31 593d ad7c 28be
00000050: 705a e6bd 4df2 d03d 4ccf adbc 3069 863c
00000060: 61c7 13be ef1c 1dbe 9d19 24bd fc3d aabc
00000070: 9861 76be 59fa 1c3e df61 633e a919 043e
00000080: 6202 823e a8ee 08bd 0dcd 0fbd 2b55 2cbe
00000090: 2cb6 fbbc 5057 7e3e 178c 0dbe 0226 25be
000000a0: 8173 15be c1a6 b73d 0076 883e 2408 083e
000000b0: 9284 35bd 6967 bf3d 897d e5bd 92a7 6f3e
000000c0: e9a9 81bd 7e9d 43be 08ef b93d a7e9 743e
000000d0: 88fd 53be 46ae 3ebe f4f6 fb3d d0c1 75bd
000000e0: d744 76be 7570 313c 04fc 3c3e 919b 8d3e
000000f0: 14df 52be 16f1 813e 9767 a13e e322 153b

fc3.bias f4 [4]
0.14257723 -0.0949913 0.25939798 0.0889131
00000000: c4ff 113e cc8a c2bd d0cf 843e 1218 b63d
