heater_experiments/heater_NN2.onnx (onnx, 39865 bytes, 14 tensors)

fc1.weight f4 [8, 3]
00000000: 432f cc3e cc8d f7be 3529 943e d8c4 7cbe
00000010: 18ce 91be b4b6 15be fcf7 b73e 69d1 cb3e
00000020: 5d47 c43e f6a8 93be 04be 1bbe e19a 963e
00000030: 5117 863e 2a8e acbd ac99 d13e 63e8 dabd
00000040: 93a4 d6be 67e7 d53e 869f 813e 75ce a63e
00000050: 3647 edbc df01 00bf 5474 0dbf 51ab c73e
0.39879808 -0.4835037 0.28937688 -0.24684465 -0.2847755 -0.14620477 0.35931385 0.39808205
0.38335696 -0.28839844 -0.15209204 0.29415038 0.26189664 -0.08425553 0.40937555 -0.106888555
-0.41922435 0.41778108 0.2531702 0.3257939 -0.02896462 -0.50002855 -0.5525563 0.38997892

fc1.bias f4 [8]
00000000: a4c2 24be 096a cc3e ab24 fdbb 4954 21bd
00000010: 812e c0bd 14b1 063f 7cce b9be 2e1d 58bc
-0.16089875 0.39924648 -0.0077253184 -0.03938702 -0.0938387 0.5261395 -0.36290348 -0.013190551

fc2.weight f4 [32, 8]
00000000: 976f 0bbe e19a c03c 391c 90be f74c c9bd
00000010: 12dd 68be 08d7 bc3e 0a45 093d e9bd 963e
00000020: c75d 2bbe f8bc 77be faff 6f3c c171 423d
00000030: 753d 10be add6 adbe ea1a a0bc e6a2 86be
00000040: e5b4 3e3e bd41 72be cc23 76be 0879 12bd
00000050: 0256 73be 63ab 02be a472 48be 2ce8 1e3e
00000060: 3a19 82be df3f 723d a515 0dbe 6fec 10be
00000070: f96f 513e 00ac 42be ab28 ddbd fa64 a3be
00000080: d8f5 19be c8d8 01be 193c 21be 8531 a43c
00000090: d36d a5be 907a a23d cdb8 50be 91ca a7be
000000a0: 84ac 43be 78d6 1d3e dda2 0a3e 9b0d bd3c
000000b0: f57d 24be 91f3 a83e 72f8 7ebe 28f0 9a3e
000000c0: 639d fabc 1b7d febd 2e32 263e db3b 31be
000000d0: 085b 3ebe b183 c2bc 118c fcbd 3250 21be
000000e0: 2c78 9abd 1cba 5bbd 7899 6c3e 25df 2b3e
000000f0: 2d1d f23d c100 213e e340 fdbb e0f8 583c
00000100: 0a5c 463e dceb 113d 2583 2cbe 69d0 c83e
00000110: acba 963d fd41 e03e 3b29 a4be 7a5b 253e
00000120: fd7d 51be 1c82 7cbd 0df1 023e 0c38 8a3e
00000130: c07c 373e e199 69be 4ef6 88be 09b7 413d
00000140: 76d5 1b3d c1ea f93d a8bb 53be 4036 283e
00000150: 7bf4 96be 4e9c 4ebe 35bf a4bd 6f19 a2be
00000160: 2235 b63e 0a60 1abe 4d28 19bd f3d8 ce3e
00000170: d5b6 f9bc e3e9 5ebe d426 403e a501 143e
00000180: 66c5 0cbe 254d c9bd b1a5 a7bd af09 77be
00000190: 8445 46be 1e96 22bd c903 81be 8d27 573d
000001a0: 9134 9fbe 8116 b33d b273 4f3d 6f1d 90be
000001b0: 20a3 4dbd 66a6 fbbd a649 a4bb 1641 2f3e
000001c0: 706e 4b3e 4ed4 be3d b54a 79be 0f88 403e
000001d0: 3a00 8cbe cceb 40be d10c 9f3e bda0 eb3d
000001e0: b506 2a3e ecba 58be aa07 98be d118 f43d
000001f0: cda7 21be cbe7 edbd ef25 60bd 9299 38be
00000200: da50 01be 5cf0 2fbd 6471 b73d 4ae5 8fbe
00000210: db7c 8dbe b981 113e 5728 65be 9158 853e
00000220: e8bc e73e fb25 3cbd 63a0 c6bc 58a9 fe3d
00000230: 3c77 a83e 89b6 e73e 5395 e13d 5021 8b3e
00000240: 444a 873e 4a9d 73be 4e15 cd3d 43ed 2bbd
00000250: 5788 09be 250a 463e a3f8 99bd 2798 473d
00000260: 658d cbbd eb87 c63c 6cec 12be d4a9 92be
00000270: b192 bbbd c01b 38be 99bb 47bb 0b8a 083e
00000280: 2a5a b1be 6699 c6bd 9d14 09be 9cd8 913d
00000290: 8365 2dbe 08c2 82be 8b59 fbbd b565 9dbe
000002a0: 538c 22be 8042 843e 6fa0 aa3e 7fb9 6d3e
000002b0: 18cd 6fbe c359 173e 97da 14bd 0515 413e
000002c0: 5b2b 42bd 3ebf ad3e cf36 bc3e 43aa 99be
000002d0: c0ac 00be 5411 9dbe f135 14be 43da 813e
000002e0: fdc7 55bd 14fd b1bc edab 22be da47 d0bd
000002f0: 7363 72be 853a 12be d51e eabd cd78 03be
00000300: 3c18 413e 6672 663d 55b8 e1bd 3131 bf3e
00000310: 74d7 bbbd 5338 d93e a470 d13d 39a7 7cbe
00000320: f790 27be 4c21 893d 65c3 33be efa2 a63e
00000330: 2282 b03e 7292 05bd fb5f 60be d05e 6b3e
00000340: a174 bb3e 9c6b 15be 3e5a 19be 716f 723d
00000350: cf8e ae3e 3de9 583e c63a 093e 7445 0d3e
00000360: 63db d73e 0814 733b 9031 dc3c 3cfc 10be
00000370: fca4 c3bd edd4 c4bd c9e2 ad3e 748c 153e
00000380: f7aa dfbd 0f18 68bd 1447 67be b9a3 36be
00000390: c0e4 24be 846b 00bd 15e3 243e f8e7 73be
000003a0: 8162 8bbd 4b6c 633e ce05 45be a7ce a33e
000003b0: 9ac8 47bc 8856 bf3e bbcd a7bd dfb3 063e
000003c0: 99c7 c43d 79fe 32be 2d13 673e 1842 af3e
000003d0: f05e 2c3e b58e 553e 02e7 e1bd 7fb5 133d
000003e0: 9be4 9c3e 6fa1 9dbd c935 8fbe 8464 21bd
000003f0: b4b6 1fbe 1a64 6bbe 4f02 59be 8063 143e
-0.13616787 0.023511352 -0.28146532 -0.09829133 -0.22740582 0.36882806 0.033513106 0.29441765
-0.16734992 -0.2419318 0.014648432 0.047471765 -0.14085944 -0.33952847 -0.019544084 -0.26296157
0.18623693 -0.2365789 -0.24037093 -0.035759956 -0.23763278 -0.12760691 -0.19574982 0.15518254
-0.2540987 0.059142943 -0.13777788 -0.14152692 0.2045287 -0.19010925 -0.107987724 -0.31912977
-0.15035188 -0.12680352 -0.15745582 0.020043144 -0.32310352 0.07933533 -0.20382996 -0.32771733
-0.19108778 0.15413845 0.1353869 0.023077777 -0.16063674 0.32998326 -0.24899462 0.3026135
-0.030592626 -0.12426206 0.1623008 -0.1730799 -0.18589413 -0.023744436 -0.12331403 -0.15753248
-0.07542452 -0.053644285 0.23105419 0.16784342 0.11821971 0.15722944 -0.0077286824 0.01324293
0.19371048 0.035625324 -0.16846903 0.39221504 0.073598236 0.43800345 -0.32062706 0.16148177
-0.20458217 -0.06164752 0.12787266 0.26995885 0.17918682 -0.22812606 -0.26750416 0.047293697
0.03804537 0.12202979 -0.20677054 0.16426945 -0.294834 -0.20176813 -0.08044282 -0.3166003
0.35587412 -0.15075698 -0.03739195 0.40399894 -0.030482689 -0.21768908 0.18764812 0.14453752
-0.13747177 -0.09829167 -0.081859 -0.24124788 -0.19362456 -0.039693944 -0.251982 0.052527953
-0.31094792 0.08744527 0.050647445 -0.28147456 -0.050204396 -0.12287597 -0.0050136624 0.17114672
0.19866347 0.09317838 -0.24344905 0.18801902 -0.27343923 -0.1883995 0.31064466 0.11505268
0.16604121 -0.21165055 -0.29693347 0.11918796 -0.15786667 -0.116164766 -0.054723676 -0.18027332
-0.12628499 -0.042953834 0.089571744 -0.2810462 -0.2763432 0.14209642 -0.2237867 0.26044133
0.45261312 -0.04593466 -0.0242464 0.124346435 0.3290347 0.4525645 0.110148095 0.27173853
0.26423848 -0.2379047 0.10013829 -0.041974317 -0.13430916 0.19339807 -0.07518127 0.04872909
-0.09939078 0.024234733 -0.14348 -0.28645194 -0.091588385 -0.17979336 -0.0030476807 0.13333909
-0.34639102 -0.09697227 -0.1338677 0.07121393 -0.16933255 -0.2553866 -0.12272938 -0.3074166
-0.15873842 0.25831985 0.33325526 0.23215292 -0.23418081 0.14780335 -0.036341276 0.18855675
-0.04740463 0.3393497 0.36760566 -0.30012712 -0.12565899 -0.30677283 -0.14473702 0.25361833
-0.052192677 -0.021727122 -0.15885897 -0.101699546 -0.2367075 -0.14280136 -0.11431662 -0.1283905
0.18856901 0.056261443 -0.11021487 0.37342218 -0.09171954 0.42425784 0.102265626 -0.24673165
-0.16363893 0.06695804 -0.17555006 0.32546183 0.34474283 -0.032610364 -0.21911614 0.22985387
0.36612418 -0.14591831 -0.14975831 0.05918831 0.3409333 0.21182723 0.13401327 0.13796026
0.42159566 0.0037090797 0.026879102 -0.1415872 -0.09552953 -0.09610925 0.33962086 0.1460436
-0.10921281 -0.05666357 -0.22585708 -0.17835893 -0.16102886 -0.031352535 0.1610225 -0.23818958
-0.068058975 0.22209279 -0.19240496 0.319936 -0.012193823 0.37370706 -0.08193537 0.13154553
0.09608383 -0.17479886 0.22565909 0.34230113 0.16833091 0.2085522 -0.11030389 0.03606176
0.30643162 -0.07696807 -0.27970722 -0.0394025 -0.1559704 -0.22987404 -0.21192287 0.14491081

fc2.bias f4 [32]
00000000: 462a 943e c5e6 9a3e c3af 26be f71d 5d3e
00000010: 5dc7 ef3d 068c 723d d03d b1be 7c06 993d
00000020: d4a9 d33d 57a5 f1bd 8fac 7c3e 995d 183e
00000030: 5340 a1be 8956 3dbd 123e 35be 427a 8fbe
00000040: 9da8 0dbe 7529 1a3e cfaf 513e 2b9d 953d
00000050: d594 e6bc 0860 2cbe a3a9 27be 4de8 8ebe
00000060: 98ca 0d3e 92e5 573d b655 8a3e a72e b0bd
00000070: 6ebc 623e 0ed1 9f3e b6ea af3d 04fd 5cbe
0.28938502 0.30254188 -0.16277985 0.21593462 0.117079474 0.059215568 -0.34617472 0.0747194
0.103351265 -0.11799114 0.24675201 0.14879455 -0.31494388 -0.046225104 -0.17699459 -0.28022963
-0.13833852 0.15054877 0.20477222 0.07305368 -0.02814714 -0.16833508 -0.16373305 -0.27911606
0.13846815 0.05270917 0.27018517 -0.08602648 0.22142193 0.31214184 0.085896894 -0.21580893

fc2_1.weight f4 [64, 32]
00000000: 479e e8bc 68c2 d7bb 7a92 cbba 66ee 36bd
00000010: 47ea 0ebe 482c df3b 43f3 bc3d a17f a7bd
00000020: 9cb0 023e 8660 9f3d 30bc f0bd 669c 90bd
00000030: 722e 163e b51b ad3d 0706 0b3e 5e26 fd3d
00000040: bef2 f1bd 84f2 bbbd 24ab 0c3e 592f 233e
00000050: ab2b 2c3e 2f7a 9a3d a0fb 123e 21b6 1ebe
00000060: dd86 86bd 8aee fe3d c8f2 023c 0eb7 c73d
00000070: 92a3 e6bd b007 6cbd bde9 17be 39b1 6fbc
00000080: 536d a23c b881 1cbe f9c3 0ebe 1ec4 66bc
00000090: 35fd 14bd fc33 48bd 213a d0bb e4b5 323e
000000a0: e3a8 243d ec63 0e3e 5360 d63c 55d1 98bd
000000b0: 403d cf3c 9061 823d 8145 333d c700 823c
000000c0: 010c 5a3d bf83 d2bd 4033 92bd 6029 eabd
000000d0: 0918 1d3d 59fd d8bd a648 1fbe b6d5 33bd
000000e0: 5d6b 6d3c 18d4 a33b 1989 16be c7f4 053e
000000f0: 91d2 09be dcc1 103e 590a b8bd 62b5 983d
00000100: 7e3f fbbc b4f8 823b 2990 0c3e dba6 113e
00000110: 4ff2 f83d 7fcc 2dbe 3688 1fbd c935 a03b
00000120: 1f3f a63c d30d 913d eaee 0cbe 61d0 c53c
00000130: 77d5 c2bd ebb9 1dbc 10ce d1bc 272f 0b3d
00000140: c16f 853c a888 4dbd dee9 fe3c 5c5a eb3d
00000150: 7644 cbbd 38a3 09be 11ca 1ebc 3ffe e8bd
00000160: 3ec2 a03d 159d 20be d421 8bbd 394e 09be
00000170: d39e acbd fcd9 e43d 4956 13be f211 273e
00000180: 227b 9bbd f6d6 323e 9930 d3bd b97d f23d
00000190: 72bb be3d abeb 153e d32c 0dbe 28bd 253e
000001a0: f252 463d 975c f8bc 1db2 50bd 1af6 5e3e
000001b0: ba55 2abe 0f1d 93bd 61cc 41bb 9d00 b2bd
000001c0: 4097 8cbd 9f18 753e 4397 1c3e e962 2abe
000001d0: b54d 913c 9c0e e73c 2fd7 d2bd c754 2ebc
000001e0: 61b4 133e 21b4 8bbd c632 463e 8248 1b3e
000001f0: 4e5a 92bd e149 133d 063b 173c b113 b4bc
00000200: 3e81 a5bd 54de 8fbd 92f8 a0bd 0986 babc
00000210: 3618 1e3e b06f 023d 8bcd e0bc 24b7 11be
00000220: 9c7f dc3c 2f23 e23d 6d3b 81bd efe0 bd3c
00000230: 4b05 dfbd a043 1a3e 92e2 07be 1ba0 aa3a
00000240: 0473 39bd 427b 683e 326d 9a3d 6971 2b3d
00000250: 4bc1 76bc 443f dfbd 070c 063d 6ab1 cf3d
00000260: b3c9 863e 40a8 263c 9dda 223d f2b5 203e
00000270: 3639 6b3a 2c6f a43d 37cc b83d 6eb3 15be
00000280: 491a 463e bc80 f9bd fa7c 2cbe f66e 0f3e
00000290: 5670 333e d3c6 743e 06eb bcbd 0721 333e
000002a0: 460a 6e38 fe16 bf3d 3264 163c 48e8 833c
000002b0: 8cd8 a53d ea86 1ebe c435 343e 38f9 303e
000002c0: 6f93 a83a 14de df3b d31f 6d3e f39c 32be
000002d0: f38f 2abe a33d 223d 871f 9bbd f49e ec3d
000002e0: b0d2 4a3d c19f 2abd 336b 523e 665b 113e
000002f0: 674c a83d 397d 903e 41ef 123e 46b6 dc3d
00000300: 112a d63d 55a4 f3bd 82c3 f13c 487e 7dbc
00000310: e495 efbd d2e5 6c3e bac3 823d 6712 38bd
00000320: d985 053e 4a70 13be cb1f f33d 0da8 2b3c
00000330: a5d1 dfbd fac8 823c a8fc 21be 09d5 323e
00000340: 34b6 f63c 7842 bb3c 819c 583e 9dd9 16be
00000350: 7f52 4d3d 6a7c 263e bdd7 4cbe 82d7 1fbe
00000360: 7e2a 5e3e bc0d 06bd 01e6 003e f16e b23d
00000370: 2337 b83d f062 393e f170 12bc 0b8f 9abb
00000380: 139a 2ebd 38a2 c93d 0f1e 163e ffcd 73bd
00000390: e1f8 8fbd 7bf7 0c3d d3db 26be 1fe0 f2bd
000003a0: 1b04 cfbd b17b 9d3a 60e9 853d 3ac4 093e
000003b0: fa8e 853d 6f8f b93c 6be5 2bbe 7a6d 1b3e
000003c0: f13b c1bd ffce d83d 2917 173d a25a 123e
000003d0: 64e7 293e 490f 88bc ba34 aa3d 16c6 6a3d
000003e0: 51ac 2c3e aa05 19be e0f8 19be bf20 2dbc
000003f0: 3fe0 8c3d 6b78 723d 19de dbbd a66f 97bd
-0.028395785 -0.0065844543 -0.0015531324 -0.04466095 -0.13956557 0.0068106987 0.09226086 -0.0817864
0.12762684 0.07782082 -0.11754644 -0.07061081 0.14666155 0.0845255 0.13576518 0.123608336
-0.118138775 -0.091771156 0.1373716 0.1593603 0.16813533 0.07542836 0.143538 -0.15499164
-0.06568692 0.124478415 0.007992454 0.09751712 -0.11261667 -0.05762452 -0.14835258 -0.0146296555
0.01982752 -0.15283859 -0.13941945 -0.014084844 -0.03637429 -0.0488777 -0.0063545858 0.17452198
0.040200125 0.13905305 0.026168978 -0.07461802 0.025297761 0.06366265 0.043767456 0.015869511
0.053234104 -0.10279035 -0.071386814 -0.11433673 0.038353 -0.10595197 -0.15555057 -0.043904983
0.014490929 0.004999649 -0.14700736 0.13081656 -0.13459231 0.14136451 -0.08986349 0.07456471
-0.030669924 0.003996933 0.13726868 0.14223807 0.12155592 -0.1697254 -0.03894826 0.004889224
0.02029377 0.07082715 -0.13763013 0.024147214 -0.095133714 -0.009626846 -0.025610954 0.033980515
0.01628864 -0.050179154 0.031117376 0.11491844 -0.09925167 -0.1344117 -0.009691731 -0.113766186
0.07849549 -0.15684922 -0.067935616 -0.13408746 -0.08428731 0.1117439 -0.14388384 0.1631544
-0.07591845 0.17464814 -0.10312004 0.11840386 0.09313096 0.14640681 -0.1378663 0.16185439
0.048418947 -0.030317588 -0.050951112 0.21773568 -0.16634265 -0.07183277 -0.0029571282 -0.08691523
-0.06864786 0.23935173 0.15292077 -0.16639294 0.017737249 0.028205208 -0.10294949 -0.01064033
0.14424278 -0.06821466 0.19355306 0.15164378 -0.071461305 0.03595913 0.009230381 -0.021982046
-0.080812916 -0.070248276 -0.07859911 -0.022768991 0.15438923 0.031844795 -0.02744176 -0.14230019
0.026916318 0.11041867 -0.06310163 0.023178546 -0.108896814 0.1506486 -0.13270023 0.0013017686
-0.045275703 0.22703269 0.075403586 0.041856203 -0.015060733 -0.10900739 0.032726314 0.10141261
0.2632576 0.01017195 0.039759267 0.15694407 0.00089730637 0.08029017 0.09023326 -0.14619228
0.19345964 -0.12182757 -0.1684455 0.14007172 0.17523322 0.2390397 -0.09224515 0.17493068
5.675319e-05 0.09330557 0.009179162 0.016101971 0.08097944 -0.15481153 0.17598635 0.1728257
0.0012861321 0.0068318937 0.23156671 -0.17442684 -0.16656475 0.039609563 -0.07574373 0.115537554
0.049517334 -0.04165626 0.20548706 0.14195022 0.082176976 0.28220537 0.1434908 0.107769534
0.10457242 -0.11896578 0.02951217 -0.015472002 -0.11698511 0.23134544 0.06384988 -0.044939425
0.1303934 -0.14398304 0.118712984 0.010477078 -0.109286584 0.015964974 -0.15819037 0.17464079
0.030116178 0.022858843 0.21153452 -0.1473145 0.050127503 0.16258398 -0.20004173 -0.15609553
0.21695897 -0.032727942 0.1258774 0.08712567 0.089948915 0.18104148 -0.00893806 -0.004716759
-0.042627405 0.09845394 0.14659904 -0.059522625 -0.07029892 0.034415703 -0.16294794 -0.11859154
-0.10108205 0.0012015012 0.065386534 0.1345376 0.06521411 0.022651402 -0.16786735 0.1517848
-0.09435261 0.10586356 0.03688732 0.14292386 0.16592175 -0.016608851 0.08310838 0.057317816
0.16862608 -0.14943567 -0.15036345 -0.010566889 0.06878709 0.05919687 -0.10735721 -0.07394342

fc2_1.bias f4 [64]
00000000: 15f5 493c 3ca7 c5bc 8704 5bbd 50d6 0dbe
00000010: 0b19 343d 160e f8bc c695 af3d b328 eabd
00000020: a220 a43d e277 ce3c 71fb 2f3e 04b9 003e
00000030: fcd1 f53d a50e f03d 84e6 1f3e ca0b c8bd
00000040: ceee a43c 6b25 af3d 3502 323e 6983 093e
00000050: 6098 583d cd1f 7f3d 0ca5 41bc 1d48 ae3d
00000060: f3f8 be3d 01a9 cbbc 4d93 d23c 2350 efbc
00000070: 4cd2 8a3b 1f6f e8bd a068 bb3d 6e80 c43c
00000080: 4c31 fdbb 8124 033e 0569 0cbe d46c 0fbe
00000090: 044e 16bc 3f9e 4f3e b2d1 d1bd 6222 243d
000000a0: 574f fbba 7aab 2e3e 653b eb3d 9c41 3b3e
000000b0: e366 823d a689 0a3e d18e 1bbd 3733 e4bd
000000c0: 9834 063e 1fef 04be cccc 0cbc 4819 103e
000000d0: 8310 b03d 24f7 fbbd f4d9 543e c2da 79bb
000000e0: cb62 a83d 7d7f a2bd c69b 3b3d cb0f 193c
000000f0: 2dee 703e 5e29 30bd ff84 373e 2463 ddbb
0.0123264985 -0.024127595 -0.053471114 -0.13851285 0.043969195 -0.030280154 0.08573489 -0.11433544
0.08014037 0.025203649 0.17185761 0.12570578 0.12002942 0.11721543 0.15615278 -0.097678736
0.020133402 0.08552059 0.17383654 0.13429035 0.05287969 0.062286187 -0.011819135 0.08509848
0.09324827 -0.02486086 0.025705004 -0.029213017 0.004236495 -0.1134932 0.09150815 0.023987021
-0.007726824 0.12806894 -0.13711937 -0.14006358 -0.009173874 0.2027521 -0.10245074 0.040071853
-0.0019173425 0.170576 0.11485938 0.18286747 0.0636728 0.13529071 -0.037977997 -0.11142581
0.13106 -0.12981842 -0.008593749 0.14072144 0.08596899 -0.12302998 0.20786268 -0.0038124775
0.08221968 -0.07934473 0.045802854 0.009342144 0.23528357 -0.0430082 0.17921828 -0.0067562032

fc2_1_1.weight f4 [64, 64]
00000000: a8e7 983d 8c87 973d 0cde 743d 36e2 093e
00000010: 1a8e 803d 7b2d 723c 0d29 623d 6085 57bc
00000020: 1676 c5bc 2a84 1e3d baf6 e83d 57c4 1e3e
00000030: 1a41 87bc 2d9b dc3d a600 b63d 8801 af3c
00000040: 9afc 1c3e f0dc ba3d 19f6 1c3e 4c59 b73d
00000050: b062 1a3c a8ea 5b3e cc40 143d 6d24 39ba
00000060: 1977 433e ec17 15bd 8819 b2bc cbec d43d
00000070: fe30 06bc 1c32 fa3d 357f a73b 002b 3f3e
00000080: 04c0 bdbd ce86 cfbc 407d d9bd 606b f1bd
00000090: 12c6 773d 9182 8abd f3db 7abd 8899 63bd
000000a0: a58e 3a3d 7144 653d 86d2 b83d 7e87 d73d
000000b0: 82e4 313d d78f 163e e00b babb 9415 533e
000000c0: c82d 003e 8b03 f3bd cbd3 8d3d 0cce 643d
000000d0: b351 853d ae97 f5bd b2f2 cbbd 62e8 363e
000000e0: adf5 d73d e0b5 cdbd 38b1 27bd 68ff a4bc
000000f0: 3a03 2ebe bb19 b33d 113e 503d 0fd6 953d
00000100: b8a6 e73d 0674 d73d 009f 363d 10e5 e7bc
00000110: 20ad a7bb faa6 e63d fc44 8cbd 7010 67bc
00000120: 446b e9bd 0023 143d 34b5 a4bd 708c e53d
00000130: f8cd fabd 18d3 233d d8dc dc3c faad 8fbd
00000140: a8f0 b7bd bc7e 063d 48e7 1abd 487d 8f3c
00000150: e073 93bd e0fa aabc d4f6 013d e83d fdbd
00000160: 888d 11bd c6ef 92bd 6ce7 3fbd 8ea1 8a3d
00000170: 4224 cfbd 740d cf3d c0c7 2c3c 46b1 e7bd
00000180: c0c2 d03c 4084 3a3c e89c 983c 5c65 24bd
00000190: 50ae 153c 20ca a4bb f455 95bd 9026 a53d
000001a0: bcb8 a1bd 00c8 9a3c d07e 263c 06dc c23d
000001b0: 808a 7dbb 804c 3bbd e617 d93d b8e7 77bd
000001c0: 206d 043d d023 a3bc b861 42bd d038 6cbc
000001d0: 041a 0cbd 1419 c7bd 649f 75bd 365b fb3d
000001e0: 6893 893c 1039 0b3c e4b3 9a3d 9047 0ebc
000001f0: 8ab8 80bd 624b e4bd 1855 c43c 30aa 233c
00000200: f0bf a9bc c438 493d 10de 9bbd b089 d4bd
00000210: 70ce 783c b0dd 7cbd 6c21 6dbd e28a f6bd
00000220: f064 8ebd 62fe bfbd 7898 69bd c845 40bd
00000230: fc34 39bd 2a7f 9abd fcff 753d e029 ce3d
00000240: 38c2 843d 60ee 8abb b051 67bd aa8f e8bd
00000250: 5e92 8c3d 8219 adbd 82f4 c1bd a06a a4bb
00000260: 4023 993b a81e f83c bc21 823d 4099 bc3b
00000270: c63a e73d ee71 9cbd 8080 c7bb 4626 9f3d
00000280: 90b9 843d aacb 843d e6e4 d03d 00a6 05bd
00000290: 8e0a a7bd 44a5 adbd 304e 07bd e076 dd3d
000002a0: 1c04 56bd 605d 51bd 3048 e8bd 1249 8abd
000002b0: 38c2 fcbd 6c3f bebd 00a3 81bb e4f5 a6bd
000002c0: dc23 f9bd 2883 623d 968f cc3d d08f 393c
000002d0: d8c0 3f3d f04d 48bc 2496 8c3d 60fd 24bd
000002e0: 4c19 f2bd 1c0f 773d 78d5 073d 6a13 98bd
000002f0: 36f4 98bd 5ede 9cbd e40c c9bd 1404 cabd
00000300: 84d3 34bd 1847 cfbc e0ad 8cbd c108 ae3d
00000310: df9c 503e fd89 013d 63bc d2bb 6ca1 a0bd
00000320: 09c1 8d3d c866 a23d 40ae 103e 0cf7 843d
00000330: 1380 003e 62cb 453d 9137 0e3b 5446 ec3d
00000340: 617d d4bc 0ba0 263e 9bd3 173e 0946 cebd
00000350: 687f 8f3d 736f 4b3e 9430 7c3d acf4 df3d
00000360: b958 363e 1499 2b3d 8031 95bd 77b9 f03d
00000370: 2298 743d 7963 2c3e c82a ebbc 8d6d ec3d
00000380: 462f a8bd f97b c5bc f0da fcbd f466 80bd
00000390: 6323 383e d694 ccbd e29e 56bd 4cb5 0dbd
000003a0: 2436 d2bb 9993 1abd c84d 313d 24ab 353e
000003b0: 61df f3bb 019c 433d 08a8 fbbd 5165 cf3b
000003c0: 4af2 f23d 274b 903c bac6 3d3e 18bd 85bd
000003d0: aedb 19bd 50fa 0a3d 46f2 99bc 7cbf a93d
000003e0: ea0b 2d3e f424 dd3d 949d b13d ec60 183d
000003f0: 9966 3dbe d616 993d 7c7e ca3c 4d7f bd3d
0.0746606 0.073989004 0.059782073 0.13465199 0.06277104 0.014781351 0.05521493 -0.013154358
-0.02410416 0.03870026 0.11375184 0.15504585 -0.016510535 0.10771785 0.088868424 0.021363035
0.15330735 0.09124172 0.15328254 0.08952579 0.009422943 0.21476233 0.036194608 -0.0007062618
0.19088401 -0.036399767 -0.02174069 0.10396727 -0.008190392 0.12216589 0.0051116 0.18668747
-0.0926514 -0.025332835 -0.10619593 -0.11788058 0.06049163 -0.06763185 -0.061244916 -0.05556634
0.045546193 0.055973474 0.09024529 0.1052389 0.043430813 0.14703308 -0.005677685 0.206137
0.12517464 -0.1186591 0.06925162 0.055860564 0.065097235 -0.11991821 -0.099584 0.17862085
0.10544906 -0.100444555 -0.040940493 -0.020141318 -0.16993418 0.08745142 0.05084044 0.07316219
0.11311096 0.105201766 0.044585228 -0.028307468 -0.0051170737 0.11262317 -0.06849095 -0.01410304
-0.113974124 0.03616619 -0.08042374 0.11208427 -0.12246317 0.039996237 0.026960775 -0.07015605
-0.089814484 0.032835707 -0.037818223 0.017515793 -0.07199836 -0.02087158 0.031729534 -0.12365323
-0.035535365 -0.071746394 -0.04685156 0.06769095 -0.101143375 0.10109988 0.010545671 -0.11313109
0.025483489 0.01138407 0.018629506 -0.040135726 0.009135798 -0.005028978 -0.07291785 0.08063996
-0.078965634 0.018894196 0.01016207 0.095146224 -0.0038687289 -0.045727253 0.106002614 -0.06052372
0.032330632 -0.019914538 -0.047456473 -0.014417842 -0.034204498 -0.0972158 -0.05996646 0.122732565
0.016793922 0.0084974915 0.07553843 -0.008684054 -0.06285198 -0.11147191 0.023966357 0.009989306
-0.020721406 0.0491264 -0.076107144 -0.10377824 0.015185937 -0.061734855 -0.0578932 -0.120382085
-0.06952846 -0.093746915 -0.05703017 -0.04694155 -0.045216545 -0.07543786 0.06005858 0.10066581
0.06482357 -0.0042398423 -0.056474388 -0.11355527 0.06863855 -0.08452131 -0.09470464 -0.0050175935
0.0046733916 0.030288056 0.063540906 0.0057555735 0.11290507 -0.07638918 -0.0060883164 0.07770972
0.06480706 0.06484158 0.10199909 -0.032629013 -0.0815631 -0.084787875 -0.03303355 0.10813689
-0.052250013 -0.05111444 -0.11341894 -0.06752218 -0.12341732 -0.092894405 -0.0039561987 -0.08152369
-0.12165043 0.05530086 0.09988324 0.0113257915 0.04681477 -0.012225613 0.068645746 -0.0402807
-0.11821231 0.060317144 0.033162564 -0.07425578 -0.074684545 -0.07659601 -0.09816912 -0.09864059
-0.04414703 -0.025302455 -0.068691015 0.084977634 0.20372342 0.031625737 -0.006431149 -0.07843289
0.06921584 0.0792976 0.14128971 0.06492433 0.12548856 0.048289664 0.00217006 0.115368515
-0.025938692 0.16271989 0.14826815 -0.10071952 0.07006723 0.19866733 0.061569765 0.10935339
0.17807283 0.041894034 -0.07284832 0.117541246 0.059715398 0.16834821 -0.028706923 0.11544333
-0.08212142 -0.024106966 -0.123464465 -0.06269637 0.17982249 -0.09989326 -0.052397616 -0.034596726
-0.0064151455 -0.037738416 0.04328707 0.17741066 -0.0074424003 0.0477562 -0.12287909 0.0063292165
0.11862619 0.01761396 0.1853284 -0.065302074 -0.03756302 0.033930123 -0.018792283 0.08288476
0.16899076 0.10798064 0.08672634 0.037201807 -0.18496169 0.07475059 0.024718516 0.09252796

fc2_1_1.bias f4 [64]
00000000: 470d 813d 30d6 c5bd 6cb1 3f3d cb75 aabd
00000010: 2160 be3d 670c 8cbd 516f 84bd fc4d e33d
00000020: 6a1d a83d 4f64 a83d 0443 833d de26 2cbd
00000030: 196b b23d c723 7e3d 3dd4 10bc dbdf d83c
00000040: 5848 ebbd c9cf 58bc 680f 14bd d877 3dbd
00000050: 3f99 56bd 2019 ffbc bce4 aebd 8612 9a3d
00000060: 67e8 bb3a 9015 d5bd acda 983d 8c1d c5bd
00000070: b955 383d 30fe 783c e385 86bd c7ff f23d
00000080: 7cf7 a03d b3e6 a13d d645 433d 2e25 db3d
00000090: 7f42 f43c fe0d 98bd 3dc8 c7bc f8c5 68bd
000000a0: 424b a63c efac b63c c041 96bb 542e 1cbd
000000b0: 55cb f43d 7b2c 073e b9ad febc e809 bd3d
000000c0: 2c6b a7bd d836 093e 8c8d 09bd 9454 50bd
000000d0: a33d c73d e957 8f3d a066 95bd cc35 bcbd
000000e0: aeeb 95bd 55e9 93bc 26b0 dfbd e04e 633d
000000f0: d0d9 1e3d 12de cb3d 1d74 013e ee4a fd3d
0.063013606 -0.09659994 0.046800062 -0.083232485 0.09295679 -0.06838303 -0.064665444 0.11098859
0.08208735 0.08222257 0.064092666 -0.042029254 0.087118335 0.06204584 -0.008839664 0.02647393
-0.11488408 -0.013233134 -0.036147505 -0.04625687 -0.05239224 -0.03113991 -0.08539721 0.07523064
0.0014336229 -0.10404503 0.07463583 -0.09624776 0.045003626 0.015197322 -0.065685056 0.11865192
0.07859704 0.079053305 0.047674023 0.10700451 0.029816864 -0.07424544 -0.024387473 -0.056829423
0.020299558 0.022299258 -0.0045854747 -0.03813012 0.11952845 0.13200562 -0.031088697 0.09230405
-0.08174738 0.13399827 -0.033582255 -0.05086191 0.09728553 0.069991894 -0.07294965 -0.091899484
-0.07320343 -0.018055597 -0.109222695 0.055495143 0.03878194 0.09954466 0.1264195 0.12367807

fc2_1_2.weight f4 [32, 64]
00000000: a557 c83c 407a bfbd 62f7 c1bd 87de d23d
00000010: 8132 e43c 27f1 a33d 0b8a e03d 12ad 5b3b
00000020: 8047 d3bc 056c 3c3b d132 98bd ca61 e03c
00000030: f016 e73d fe6d 74bb 3137 af3b bf1c cb3d
00000040: de7d f63d 3e7f 08bd 603e b8bd 4449 153d
00000050: e116 da38 5c91 a53d 7ab7 edbd e32e 37bd
00000060: 587d 02bd 11ef 2d3d e1f1 7dbd fbce d53d
00000070: 96c8 2c3c a6fc d03d 5626 dabd 58af c63c
00000080: 7dc7 453d b90c 283c e069 e83d 1b27 13bd
00000090: 4c82 debd df38 733d 7fc9 b03d 40a1 483d
000000a0: f2c6 b0bd d7dc d3bc 6000 f43c c433 f4bd
000000b0: f9d1 aebd f486 873c 97df adbd dd83 a73d
000000c0: 6c74 d7bd d2a1 d4ba 41e9 ffbd ae81 e3bd
000000d0: 72bf 293c c243 6a3d fa6e 993d 361f 90bd
000000e0: 930a 8ebc 6ea8 0fbd 5c0b 55bd 22a3 ef3d
000000f0: 9806 a8bc 99bb f1bd 3ed7 e6bd b43e d43d
00000100: 3a7a 863d 6039 a53d f877 b4bc ee31 7ebd
00000110: 026e b6bd 03ea 1ebd 104b 40bd 08d3 e1bd
00000120: 2cbc 8b3c 59ca 7c3d fd49 4c3c 16d5 14bd
00000130: e3e1 a83d b7e0 f0bd 4409 223d 0806 a3bd
00000140: 0aa9 b93d 1aa5 bb3c ca6f 93bd 008a 8539
00000150: b24d fa3d 4269 f13d c8df c23d 3566 a73b
00000160: 7c04 d0bd 3d4c 01be 86db 243d 88e4 863d
00000170: 0dd4 f63d 7085 71bd c625 873d 355a b1bd
00000180: be8f 453d 4cc5 87bd 6a58 ec3c 70e5 7fbd
00000190: 6294 ccbd efd9 8e3d 5847 0bbd 7404 5cbd
000001a0: 0e72 74bc b3da eabd 5083 d4bd 6805 023d
000001b0: d05c b4bd 0c5a 43bc 3673 b23d c46a 873d
000001c0: 9562 883b 02f9 d23c e8d9 973c 9ca7 1c3d
000001d0: b52d dcbd ccb2 d63c 7811 97bc 1d03 083c
000001e0: 81dc 48bd ab57 b93d a206 dcbd 24ef a53d
000001f0: 40a3 84bd 1c7b e93d a021 b1bd bc37 143d
00000200: ee29 f93d 2ea0 d13d c2a1 8abd 709d 173e
00000210: 1294 f9bc 6ffa aebd 394a 473e 8ded ff3d
00000220: fc00 093b 09db c53d 9fec ab3d 9ed1 073e
00000230: 67af 233e f566 e63d 65b9 3d3d e66b b2bd
00000240: 2104 553a 7dad 22bd 1054 d03d c410 9d3d
00000250: aed3 ce3d 80a2 d6bc 5215 8c3c e752 593e
00000260: 6387 323d 4c28 253c fd20 a53d 1efe 313e
00000270: 503e 6bb9 74ea 0a3d b0bf 2f3e bf0b 1f3d
00000280: 7950 1abc 46fa 9a3d 43a9 db3d 9df7 163e
00000290: f5cf 413e bdb4 e83d eb3b 0f3d f021 ff3c
000002a0: 3d10 403d 620a c1bc 4046 513d a024 01bd
000002b0: cfbe 183c 9a66 2d3e 5756 7a3c a7e4 093e
000002c0: 9e65 0a3e 6bbc c03d c356 203d b0da 84bd
000002d0: 7b85 a73d 8963 d2bd 58ce b03d 8512 3a3e
000002e0: 52bf 483e e6f2 fdbd 582e f63d 706f c3bc
000002f0: 00df 8dbd 787e e53c 899d 473e 6ee4 b03d
00000300: 7e82 1a3e f0d9 0c3d dcd1 fdbd 70aa ff3d
00000310: 20fe dcbd 296f 963c 2542 5b3d 7a5d 833d
00000320: 394c b63d 5af5 053e 7c16 3d3c cead cabd
00000330: 9bee 383e aa21 fb3d c85e c9bc a8b9 a5bc
00000340: 70a8 6dbd 2002 1e3e c0de 1cbd 661c 8f3d
00000350: 6192 f2bd 5658 d73d a9f0 0e3e 0b59 2d3c
00000360: 3217 ee3d f572 ff3d bd54 333c 4334 ebbb
00000370: 8b21 b7bd 483e 5fbd b668 9b3d 05f8 3e3e
00000380: 6524 233d 929f 2a3e 94a8 173d ab32 f03d
00000390: e031 f8bb 62ca 433e 6c88 103e 14b7 513d
000003a0: 7b33 143d 6ff4 343e 8049 913d 68d4 d0bd
000003b0: 2c7d fc3d ea38 7fbc 8763 213e db5a edba
000003c0: b56d e1bc 43c7 323e 250d 873c a8f4 e43d
000003d0: ceac 65bd d721 3cbd 72be 8a3d d1af e93d
000003e0: f03f 11bc 93cd 0cbd da2f ffbd 48dc bfbc
000003f0: 3c9d 79bd cda4 dd3d d047 653c adfb 073d
0.024455855 -0.09349489 -0.09471013 0.1029635 0.027856113 0.080049805 0.109638296 0.0033519906
-0.02579093 0.0028750908 -0.074315675 0.02739038 0.11283672 -0.0037297006 0.0053471555 0.09917592
0.12035726 -0.033324473 -0.08996272 0.036446825 0.000103993116 0.08084366 -0.11607261 -0.04472245
-0.03185782 0.04246432 -0.06199825 0.10439869 0.01054587 0.10204439 -0.10651843 0.024253532
0.04828595 0.01025694 0.11348319 -0.035925966 -0.10864696 0.05938041 0.08632182 0.048981905
-0.08631696 -0.02586214 0.029785335 -0.11923936 -0.08536143 0.016543843 -0.08489912 0.08179448
-0.105202526 -0.0016222543 -0.124956615 -0.11108719 0.0103605855 0.057193525 0.0749187 -0.07037203
-0.017339027 -0.035072736 -0.052012786 0.11701037 -0.020510957 -0.118033595 -0.11271523 0.10363522
0.065662816 0.08067584 -0.022029862 -0.062059335 -0.08907701 -0.03879739 -0.046946585 -0.11026579
0.0170575 0.06171641 0.012468812 -0.036336027 0.082462095 -0.11761611 0.039559618 -0.07960135
0.09065445 0.022905875 -0.071990564 0.00025470555 0.122218505 0.117876545 0.09515339 0.0051086196
-0.10157105 -0.12626739 0.040248416 0.065865576 0.12052164 -0.058965147 0.065990016 -0.08659784
0.048232786 -0.06629428 0.028850753 -0.062474668 -0.09989239 0.06975161 -0.034003586 -0.053715184
-0.014919771 -0.11467495 -0.10376608 0.031743437 -0.08806765 -0.011923324 0.08713381 0.06612161
0.0041621425 0.025753502 0.018536523 0.038245782 -0.107509054 0.026208304 -0.018440947 0.0083015235
-0.049038414 0.090499245 -0.107434526 0.08102253 -0.0647645 0.114004344 -0.086489916 0.036185965
0.121662006 0.1023563 -0.06769134 0.14806151 -0.030466113 -0.0854386 0.19461907 0.12496481
0.0020905128 0.09660918 0.08394741 0.13263556 0.1598488 0.11250106 0.046319384 -0.08711986
0.00081259204 -0.039716233 0.10172284 0.076692134 0.100989684 -0.026200533 0.01710001 0.21223031
0.043586146 0.010080408 0.08062933 0.17382094 -0.0002243456 0.033915 0.17162967 0.03882956
-0.0094186 0.07567267 0.107256435 0.14742894 0.18926986 0.11362598 0.03496925 0.031144112
0.046890486 -0.023564521 0.051092386 -0.03152907 0.009322836 0.1693367 0.015279374 0.1346613
0.13515326 0.09410938 0.039145242 -0.06487024 0.08179756 -0.10272891 0.08633107 0.18171127
0.19604233 -0.12399845 0.12020558 -0.023856848 -0.069272995 0.028014407 0.19493689 0.086373195
0.15088841 0.03438753 -0.12393543 0.1248368 -0.10790658 0.018363552 0.053529877 0.064143136
0.08901257 0.13081875 0.011541005 -0.09896432 0.18059771 0.1226228 -0.024581328 -0.02023013
-0.058021963 0.15430498 -0.03829837 0.069878384 -0.11844326 0.105148956 0.13958992 0.0105803115
0.11625518 0.12473098 0.010945496 -0.007177861 -0.08941945 -0.054502755 0.075883314 0.186493
0.03982963 0.16662434 0.037026003 0.11728414 -0.007574305 0.19120172 0.14114541 0.051199988
0.036181908 0.17671369 0.07094097 -0.10196763 0.12328562 -0.015577534 0.15760623 -0.0018108742
-0.027518133 0.17458825 0.01648576 0.11179477 -0.056073003 -0.04593071 0.06774606 0.114104874
-0.008865342 -0.03437574 -0.12460299 -0.023420468 -0.060940966 0.10822449 0.013994172 0.033199

fc2_1_2.bias f4 [32]
00000000: 169a 923d ae53 61bd 35a5 ae3d 507a 233d
00000010: 0ab3 bc3d d099 573d b08f 643c 72c4 f03d
00000020: 44f5 863c 1486 9abd 08bb dabd 3645 963c
00000030: 4649 be3d 64d2 063e 80f7 8dbd 4bad 593d
00000040: c2f3 edbd 51bf 1b3d 8935 cf3d cd9e c53d
00000050: db08 c1bd 4e24 9fbd ffc7 b03b ad3a aebd
00000060: b32c 893d e42c 083c f9ef c4bd f81d 873d
00000070: 6baf ca3d ef95 ca3c ff72 a0bd 6877 b7bc
0.07158296 -0.055011444 0.085276045 0.03991157 0.092138365 0.05263692 0.013950273 0.11756219
0.016474374 -0.075451046 -0.10680205 0.01834355 0.092913195 0.13166195 -0.069319725 0.05314378
-0.11618759 0.03802425 0.10117633 0.096494295 -0.09425517 -0.077705964 0.005394935 -0.08507285
0.06697979 0.008311484 -0.09616084 0.06597513 0.098967396 0.024729697 -0.07834434 -0.022395805

fc2_2.weight f4 [16, 32]
00000000: 4d80 62bd 4695 19bd 2ed7 033e 70a4 ee3c
00000010: 848e e83d 8503 0f3e 88be 02be 956a 903d
00000020: 6aa3 143e 05da 033d 03ed 5b3d f631 2dbe
00000030: 242d 1dbe df12 a73d dfda ae3d 1694 15be
00000040: 598a f63d 6463 9fbd 5f14 43ba 1c20 a4bd
00000050: 6d9a 26bd d3cb 29bc 03ad de3b 8a75 00be
00000060: 5f11 26be 79c3 99bd 1234 e23d 7b3d 88bd
00000070: af91 4fbe 0d6e cdbc c26d 07be b177 553c
00000080: e51b 2cbd fa05 003d 8407 013e ef65 27be
00000090: ed11 9c3d 36e2 b13d 17b9 003e f8a0 b43d
000000a0: 7264 26bc 475f 04be bb21 1d3e fbf2 af3c
000000b0: 0465 c33d 3dc1 a9bd 2f79 b7bc 3c58 babc
000000c0: c23c 2e3e d93b 0f3e 95bf cd3d c1b0 3b3d
000000d0: 6c28 cdbd 1dbf 193e 2e36 2a3e 0d42 0a3d
000000e0: 6dab 833d 4707 05be e001 88bb 6852 29be
000000f0: 335a 31be b1a2 8cbd 20d3 2abe 12c9 c33d
00000100: 8afa 85bc c52d 10be 9f58 2a3d db31 0d3e
00000110: 1c0b 483d 6690 6abd 6bab 8c3d e9b5 2e3e
00000120: 422f 6a3e 7173 503e 58a8 c3bd 0708 563e
00000130: 8c65 003e 6a5a 3bbd d42c 823d 52f0 a43d
00000140: f18d f83d f8c5 e43d 4c8c 3e3b 8c7f bebc
00000150: 5950 18bd 2c70 1c3e fd07 623e 5114 83bd
00000160: fa55 0f3e 5c34 2ebd 5170 bebd 6edd 453e
00000170: cb85 743d bd4e 5b3d c465 b83b 653a 1cbd
00000180: a282 fabd 50cb c03d 4019 263e 9f0c 553e
00000190: 94ef 6fbd d5b3 8bbc 7a57 d9bd f708 b73d
000001a0: 8c79 d23c 62f4 2f3d 0255 b8bd 1db9 2c3e
000001b0: 6b12 0b3d 09d6 8a3d dc7f 373e 1bfa dbbd
000001c0: 8cb6 213e d25b 3fbe 8eeb 233e 2f90 b03d
000001d0: 15ac da3c 47b7 803e ab1a 103e 2e37 363e
000001e0: 57e3 e0bd 1e30 4b3d fafd 383e f5cf 26bc
000001f0: 5852 7d3e ddb7 f7bd 7f01 7a3e 6c96 6c3e
00000200: 5f38 e33d 0a94 0f3d 778a 1f3e 823a 31be
00000210: 469c 06bd 9eec dbbd e362 0fbe 8e4b f7bd
00000220: 2fd5 133d 82d0 213e 6d2a 35be 95a8 093e
00000230: 8ee8 dfbd de48 fb3c 7efe 48bd 7d22 3dbd
00000240: 3765 d7bd 771f 14be a9ef 0ebe 26d3 b03d
00000250: 237f 26be 7618 6d3d 719a 42bd 604e 15be
00000260: 695d a63d af93 aabd 1395 b6bd e6cb c7bc
00000270: 575c 22be deef 34be 17de 34be 76fd 773c
00000280: ad2c 003e 8b13 b03d adfe 20be f486 36ba
00000290: 240e d1bd 69a0 f7bc 4339 06bd 345f 193e
000002a0: bcf8 a1bd 02c5 91bb 864d f13c 6f9f 003d
000002b0: a848 cf3d bfec 84bd 820e c53d 072b 84bc
000002c0: 5e2e b73d 8055 293e 5c0f 86bd 0db1 063d
000002d0: 9899 953d ccc4 04be 4d6a 29be 57c9 11be
000002e0: 2580 8c3c dcb4 903d ec75 283e 4ed1 1ebe
000002f0: 77b7 c43d e931 18bd 5a6c d0bd 9b0d e73d
00000300: ba3c 96bc d032 c93c 20fb 313c 88ad 983d
00000310: 34f2 e03d 84f7 bfbd 01cf 503d 575c 2e3e
00000320: a4c7 1f3e 5dab 873e d65c 2f3e f2f1 503d
00000330: 7ccb 3d3c 59a5 843e 9bc0 e63c e472 55be
00000340: 447c 763e 837d e5bd 282b b83c 8af5 0e3d
00000350: aab4 abbd 992b 613e edda 393e fb79 de3d
00000360: e54e 82bd 3ae0 8cbd 4ee6 95bd 3fc2 b33d
00000370: bb16 653e 19dc 5abe 11cd 9cbc 3441 6d3c
00000380: 2d81 6cbd fb1f 493b a677 193e ab23 f13d
00000390: b759 bdbc 1034 df3b ea61 2cbd c1bd 9f3c
000003a0: 37b8 fabd e0b3 b8bb f64a 30be 8003 0c3e
000003b0: 85b9 2abd a750 0dbe 0ae4 2fbe 9ed3 8ebd
000003c0: 4dc6 dfbc 524c a73d 7777 6abc e4b9 c83c
000003d0: 94d0 1fbe f49e 18be 3b65 1f3d 9d39 17be
000003e0: d97b 71bd 6c55 a53d 9e4c 19be 0e5c 203d
000003f0: dd95 f4bd 11c2 34be ffe7 18be b6d0 8abc
-0.05529814 -0.037495874 0.12875053 0.029131144 0.11355308 0.13966186 -0.12767994 0.07051579
0.14515463 0.03219034 0.05369283 -0.1691359 -0.15349251 0.08157896 0.0853784 -0.14607272
0.120381065 -0.07782629 -0.0007441695 -0.08013937 -0.040674616 -0.010363537 0.006795527 -0.12544838
-0.16217564 -0.075079866 0.11045088 -0.066523515 -0.20270418 -0.02507689 -0.13225463 0.013029025
-0.04201879 0.0312557 0.12600523 -0.16347478 0.076206066 0.086857244 0.12570606 0.08819765
-0.010155784 -0.1292697 0.15344898 0.021478167 0.095407516 -0.082888104 -0.022396652 -0.022747152
0.17015365 0.13987674 0.10046307 0.045822863 -0.100174755 0.1501431 0.1662223 0.033754397
0.06429181 -0.12991057 -0.004150614 -0.16535342 -0.17319565 -0.068669684 -0.166821 0.095598355
-0.016354818 -0.1407996 0.041588422 0.1378855 0.04883872 -0.057266615 0.06868633 0.1706158
0.2286959 0.20356537 -0.095535934 0.209015 0.12538737 -0.045740522 0.063562065 0.0805365
0.12136448 0.11170572 0.0029075323 -0.023254178 -0.037186 0.15277165 0.2207336 -0.064003594
0.13997641 -0.042530403 -0.092987664 0.1932275 0.059697907 0.053541888 0.005627366 -0.038141627
-0.122319475 0.09413779 0.1622057 0.20805596 -0.05857809 -0.017053524 -0.10612388 0.08937257
0.025692724 0.04295767 -0.09000589 0.1686749 0.03395311 0.06779105 0.17919868 -0.10741063
0.15792292 -0.1868737 0.16007826 0.08621251 0.026693383 0.2513983 0.14072673 0.17794487
-0.10980862 0.049606435 0.18065634 -0.010181417 0.24738443 -0.12095616 0.24414633 0.23104256
0.11094736 0.03505329 0.15580164 -0.17307475 -0.032863878 -0.107384905 -0.14002566 -0.12074958
0.03609198 0.15802196 -0.17691965 0.13443215 -0.10933028 0.030674394 -0.049070828 -0.04617547
-0.10517352 -0.14465128 -0.1395861 0.08634023 -0.16259436 0.057884656 -0.047510568 -0.14580679
0.08123285 -0.0832895 -0.089151524 -0.024389219 -0.15855537 -0.17669627 -0.17662846 0.015136113
0.12517042 0.085974775 -0.15722151 -0.00069628586 -0.10207775 -0.030227857 -0.032769453 0.14977723
-0.079087704 -0.004448534 0.029455911 0.031402048 0.1012128 -0.06490468 0.09621908 -0.016133798
0.08944391 0.16536522 -0.06545898 0.032883693 0.07304686 -0.12965697 -0.16544457 -0.14236961
0.017150948 0.07065746 0.16451234 -0.15509531 0.09605306 -0.037156973 -0.101769164 0.11281892
-0.018339504 0.024560362 0.0108630955 0.074549735 0.109836966 -0.09373382 0.050978664 0.17027412
0.156035 0.26497927 0.17125258 0.051011987 0.011584159 0.259074 0.028168013 -0.20844609
0.24070841 -0.1120558 0.022481516 0.034902133 -0.08384068 0.21989287 0.1814992 0.1086311
-0.06362704 -0.06878705 -0.07319318 0.08777284 0.22371952 -0.21373023 -0.019140752 0.014480878
-0.05774038 0.0030689228 0.14987049 0.11774381 -0.023114068 0.0068116263 -0.042085566 0.019499661
-0.122421674 -0.005636677 -0.17216095 0.1367321 -0.04168083 -0.13800298 -0.17176834 -0.069739565
-0.027316237 0.08168854 -0.014310709 0.024502702 -0.1560691 -0.14904386 0.0389149 -0.14768071
-0.058956 0.080729336 -0.14970633 0.03915029 -0.11942647 -0.17652155 -0.1493225 -0.016945224

fc2_2.bias f4 [16]
00000000: 2566 41be 00c0 fa3d a7db babb a649 6fbd
00000010: a8b7 033d fa83 7a3c 8774 033e a55a 31be
00000020: 12c1 0e3d 494c 733d e7ef 1a3e fe26 363e
00000030: e4df 74bd 9c4c 3b3e 7498 073e ad40 5fbd
-0.18886621 0.12243652 -0.005702454 -0.058419846 0.03215757 0.015290255 0.1283742 -0.17319734
0.034852095 0.059398923 0.15130578 0.17788312 -0.05978383 0.18290943 0.1324175 -0.05450504

fc3.weight f4 [4, 16]
00000000: d7d7 03bb 2d5b 823e f135 ee3c ae10 753d
00000010: 9e86 5abc 4225 ff3b c385 983e e86d 3f3e
00000020: 0b76 253d 018a 983e 4ad0 d5bd d6a8 073e
00000030: 4e56 583e d66a 56bd a734 2c3e 531f 67be
00000040: 5e50 34be 6643 d93c b0f5 613d d381 26be
00000050: 705a e6bd 4df2 d03d 6641 9dbc 3069 863c
00000060: 61c7 13be fffe 1abe 12e9 1bbd d2b9 9abc
00000070: 9861 76be 73ff 1e3e 3e4d 653e a919 043e
00000080: 6202 823e a8ee 08bd 0bfd 0ebd 03f8 2bbe
00000090: 2cb6 fbbc 5057 7e3e b03e 0dbe 0226 25be
000000a0: 8173 15be 6d40 b83d a594 883e 8445 083e
000000b0: 9284 35bd e7e6 bf3d 92f1 e4bd 92a7 6f3e
000000c0: 00aa 81bd 7e9d 43be 392f b93d 6c96 743e
000000d0: 88fd 53be 46ae 3ebe 5045 fb3d d0c1 75bd
000000e0: d744 76be f7af 283c 4aa3 3c3e 9171 8d3e
000000f0: 14df 52be b2c4 813e fb3d a13e d722 153b
-0.0020117664 0.25460187 0.029078456 0.05983036 -0.013337759 0.007786424 0.29789552 0.1869427
0.040395778 0.2979279 -0.104401186 0.13248 0.21126673 -0.05234798 0.1681696 -0.22570543
-0.17608783 0.026521396 0.055165946 -0.16260462 -0.11247718 0.10202465 -0.019196223 0.01640758
-0.14431526 -0.15136336 -0.03806407 -0.018887434 -0.24060667 0.15527134 0.22392747 0.12900414
0.25392443 -0.033430725 -0.03490929 -0.16793828 -0.030726515 0.24837995 -0.13793445 -0.1612778
-0.14594842 0.08996663 0.26675907 0.13307768 -0.044315882 0.09370213 -0.111788884 0.23403767
-0.06331253 -0.19103047 0.0904221 0.23885506 -0.20702183 -0.18621168 0.1226908 -0.059999287
-0.24049698 0.01029586 0.18421665 0.27625707 -0.2059291 0.2534538 0.314926 0.0022756362

fc3.bias f4 [4]
00000000: a615 103e 11f1 cdbd 9acf 803e 1942 b63d
0.14070758 -0.100557454 0.25158387 0.08899326
