drone_experiments/MATLAB/weights_NOM/NN_x.onnx (onnx, 39865 bytes, 14 tensors)

fc1.weight f4 [8, 3]
000000 8f 16 b0 3e 75 b3 e2 39 d1 44 6b 3e 0d b4 16 bf
       0.3439221 0.00043239785 0.2297547 -0.58868486
000010 2e ad f4 3c 72 16 c9 3e 65 58 c5 3e ae 2f d3 bd
       0.029867735 0.39274937 0.38544002 -0.103118286
000020 88 a4 a0 be e5 4d b9 3e 73 e8 6c 3e c2 55 f6 3e
       -0.31375527 0.3619224 0.23135547 0.48112303
000030 da 7f 23 be c4 5c db be ce a7 cd 3e 84 ce d4 3e
       -0.1596674 -0.42844212 0.40167087 0.4156381
000040 da 1f 28 bd e5 8f e0 3e df 78 10 bf bd 61 22 3e
       -0.041046 0.43859783 -0.56434435 0.15857597
000050 02 17 0b bf 91 6c 2d be 1f 67 06 bf ef 71 df 3e
       -0.5433198 -0.16935946 -0.525011 0.43641612

fc1.bias f4 [8]
000000 9a 45 e8 3e 7c 3e 32 3c 3d 1f 2f 3e 32 80 f8 3e
       0.45365602 0.010879155 0.1710176 0.48535305
000010 ef 94 d3 3e cf 45 82 3e 93 b3 73 bd e2 00 87 be
       0.41324565 0.25443885 -0.059497427 -0.2636786

fc2.weight f4 [32, 8]
000000 61 5d 94 3e eb fb 83 be c7 d6 cc 3d 10 07 b4 3d
       0.28977492 -0.25778136 0.10001903 0.087904096
000010 be 12 9e 3d 83 ae d6 3e b3 56 3f 3d bd 05 0b 3e
       0.077184185 0.41930017 0.046713542 0.13576408
000020 a2 d0 b7 bd f5 7d d2 bd 5f 1f 6a 3e 04 0e c9 3c
       -0.089753404 -0.10277931 0.2286353 0.024542816
000030 61 7a 7f be e7 fb d2 bd 6e ad 04 be 44 ea 1d be
       -0.24949028 -0.10301953 -0.12956783 -0.15421396
000040 80 98 4a be bc e8 15 3e 73 05 55 bd 34 86 52 be
       -0.19784737 0.14639562 -0.05200715 -0.20559007
000050 49 54 1f bc 5d 14 3d 3d df 11 e5 3e 09 4f a8 3d
       -0.009724685 0.046161998 0.44740197 0.082182
000060 df c5 87 bc 63 82 7c 3e d5 35 37 3d 0a b9 39 3e
       -0.016573844 0.24659114 0.044729073 0.18136993
000070 b0 99 33 3e 2d bc b0 be c4 95 9e 3e ee d7 36 3e
       0.17539096 -0.34518567 0.30973637 0.17855808
000080 90 2b a0 3e f8 ee 9a bd c1 14 8d be 7f 74 99 be
       0.31283236 -0.07565111 -0.27554896 -0.29971692
000090 1d 58 d0 bd 4b 81 bd bd 42 0b c1 bd 67 0e 98 be
       -0.10173056 -0.09253176 -0.094259754 -0.29698488
0000a0 35 28 b0 3e 27 f9 3d bd f3 20 db 3b 98 0a 3a 3e
       0.34405676 -0.04638019 0.0066872775 0.18168104
0000b0 34 14 37 be 87 d7 75 3e 15 84 99 3e 15 1e 41 be
       -0.178788 0.24007998 0.29983583 -0.18859132
0000c0 8d 5e 5f bd d4 c6 52 be 31 10 f0 bd 1e e9 94 be
       -0.05453353 -0.2058366 -0.11721838 -0.29084104
0000d0 c9 f1 02 3f db 09 75 3e 03 27 c9 3b 3a 14 bb 3e
       0.51150185 0.23929541 0.0061386838 0.3653887
0000e0 2d 53 dc 3e 61 57 04 be 15 a4 43 be a4 d1 eb bd
       0.43032208 -0.12923957 -0.19105561 -0.11514595
0000f0 2b a6 9b 3e f3 14 90 3e 38 8c 52 3e f3 b1 c7 be
       0.30400214 0.28140983 0.20561302 -0.39002952
000100 49 2a 98 3e b8 c7 3a be bd 4c 61 be 9d c0 3e be
       0.2971976 -0.18240249 -0.2200193 -0.18628164
000110 d0 bd a1 be b9 5f 85 3e ba 29 82 bd 59 ae b6 be
       -0.31590128 0.26049593 -0.06355615 -0.35679892
000120 4c a9 44 3d e4 2a 6b bd 80 85 a7 be 76 3b 46 3e
       0.048013017 -0.05741395 -0.3271904 0.1935862
000130 b9 64 fa bc c7 fa 42 3e 7f 15 90 3e db 7d 0f 3d
       -0.030565606 0.19040976 0.281414 0.035032135
000140 3f 0f 90 be 4e 39 7b bc 28 97 b4 3e 30 45 4c be
       -0.28136632 -0.015333487 0.35271573 -0.19948268
000150 47 7a ad be 74 92 2e be d4 50 88 3e 43 2b 8d be
       -0.33882353 -0.17048055 0.26624167 -0.2757207
000160 27 1d 57 3e 5c 43 b9 3c 60 e0 a1 3e df 78 3d be
       0.21007214 0.022615127 0.31616497 -0.1850314
000170 34 0f ed bd 57 8b 32 3e db ee 19 3e 9b 48 f9 3d
       -0.115751654 0.17435966 0.15032522 0.121720515
000180 e7 6c 83 bb 2b 91 4d be 2c a2 67 be 29 c4 d1 3e
       -0.004010785 -0.20074908 -0.22620457 0.4096997
000190 55 70 b7 3d fe 97 62 bd 06 07 94 bd 92 e9 b1 be
       0.089569725 -0.055320732 -0.07227902 -0.34748513
0001a0 bb f4 0c 3e 21 37 8a be a5 ea a6 3e 51 8c af 3e
       0.13765232 -0.26995185 0.32600895 0.3428674
0001b0 2d d9 9a bd 10 76 95 3d 50 af cd bd 50 d9 a5 3e
       -0.07560954 0.07297909 -0.10043204 0.3239236
0001c0 b0 5a 08 be cf 2c be 3e d5 df 1b 3e ee a3 84 be
       -0.13315845 0.3714356 0.15222104 -0.25906318
0001d0 56 90 0b 3d 40 c6 f1 be e9 85 19 3e ef 1a 9d 3c
       0.034073196 -0.47221565 0.14992489 0.019177882
0001e0 1b cb 3a be 04 34 91 3e e3 5c 9a be 99 2a 80 3e
       -0.18241541 0.28359997 -0.30148992 0.250325
0001f0 dd dc a3 be 7d 5e ff 3c 31 51 0f 3f 9f e3 5c 3e
       -0.32004443 0.031172985 0.55983263 0.21571206
000200 5a 7a f6 bd 98 dc c1 3e ee f5 fa 3d 13 0e 1d be
       -0.120350555 0.37863612 0.122539386 -0.153374
000210 72 5f e9 3e 6f a7 09 3e e1 1c bd 3e 36 02 fa 3d
       0.45580631 0.13442777 0.36936095 0.12207453
000220 a0 8c 4a be eb 51 21 3e 57 fa 96 be 63 ec a4 be
       -0.19780207 0.15753905 -0.2948787 -0.322116
000230 fa 5d 24 bd 75 62 1d be 71 bb 5e be 57 d4 73 3e
       -0.040128686 -0.1536959 -0.2175119 0.2381147
000240 cb d1 ca 3e b2 5d 1f bd 7c 62 2f 3e 6f ee 3a 3e
       0.39613184 -0.038907714 0.17127413 0.18255018
000250 62 06 8f be cd c7 1a 3c 88 54 d4 3e 59 cc 42 3e
       -0.27934557 0.00944705 0.41470742 0.19023265
000260 d0 f6 90 be df 6c 01 3f 59 69 c5 3e e5 d7 6a 3e
       -0.28313303 0.5055675 0.38556936 0.2293392
000270 ea 4a 9e 3e 77 f5 48 3e c9 b6 68 3e 23 8c 72 3c
       0.3091653 0.19624887 0.22725977 0.014803919
000280 08 e1 93 3e 22 c2 6e 3d 83 de 45 3e 3b 21 57 bd
       0.28882623 0.05829061 0.19323163 -0.052521925
000290 a2 a7 54 be 1a 6b 1e be ac 63 84 3d 01 22 97 be
       -0.20767072 -0.15470544 0.064643234 -0.2951813
0002a0 16 a4 76 3e 98 4a 6b 3e 2f 7f 91 bc 01 19 19 be
       0.24086031 0.22977674 -0.017760841 -0.14950944
0002b0 d8 62 9d 3e 27 06 60 be 18 de f5 3c d1 5e b4 bd
       0.30739474 -0.21877347 0.03001313 -0.08807147
0002c0 37 5a 30 3e 49 5a ac be 61 0e 85 be 4b 89 b3 be
       0.17221914 -0.33662632 -0.25987533 -0.35065684
0002d0 0a b9 80 be c0 5b 7c be 96 05 a6 be 9b 89 92 3c
       -0.25141174 -0.24644375 -0.32426137 0.017887881
0002e0 bd 01 fc bd ae b4 a1 be 00 8c 96 3e d8 22 b4 3d
       -0.12305019 -0.3158316 0.29403687 0.087957084
0002f0 dc 70 49 be 0b b6 e0 3d ca 69 57 be 83 8e 9c bd
       -0.19671959 0.10972222 -0.21036449 -0.076443695
000300 41 9a 58 bc ad cd 79 3e 05 2e 9d be b4 de c4 3d
       -0.013220371 0.24394865 -0.30699173 0.0961279
000310 f1 fd 8f 3d ca d2 3c bd cc f7 15 be 48 70 a3 be
       0.07030857 -0.04609946 -0.14645308 -0.319216
000320 a9 96 24 bd 2d 9d aa 3d de 52 21 3e 51 e3 6f be
       -0.040182743 0.0833076 0.15754268 -0.23426558
000330 90 c6 cc 3e a5 23 84 be 82 a3 8c bd 7b f2 29 3e
       0.3999524 -0.25808445 -0.06867124 0.16596405
000340 cf 31 9c 3e f1 5e 02 3e e9 76 03 be 17 5e 77 be
       0.3050675 0.1273153 -0.1283833 -0.24156986
000350 33 b3 aa 3e 3b 58 1c be c0 0c 72 bd a3 43 e4 bc
       0.33339843 -0.15268032 -0.05909419 -0.027864283
000360 ef a2 70 be b2 e7 62 3e 6c b2 a4 be 5c 37 4a 3d
       -0.23499654 0.22158697 -0.32167375 0.0493692
000370 47 03 96 3e d5 c9 8d 3e 93 2a b6 3e 48 46 2b 3e
       0.29299375 0.27693048 0.35579357 0.16726029
000380 fb 00 1c 3e 88 13 82 be a0 6a c0 3d 12 07 e3 bd
       0.15234749 -0.25405526 0.09395337 -0.11085333
000390 85 72 f6 3d d6 98 a8 be 3c 8e 0c be 22 23 a3 3e
       0.120335616 -0.32929105 -0.13726133 0.31862742
0003a0 7c 84 c3 3e 3e ab 84 3e 1e f5 82 3e c2 21 90 3e
       0.38187015 0.25911897 0.25577635 0.28150755
0003b0 12 a7 32 3e df 7b a4 3e fb 9c e9 3c 67 83 2b be
       0.17446545 0.32125756 0.028517237 -0.16749345
0003c0 58 78 06 3e c5 04 40 be df dd 45 3e 3a 43 38 3d
       0.13131845 -0.1875182 0.19322918 0.044985987
0003d0 2d 1c 96 be 0a 4b 57 bd b1 26 89 3e 61 f9 30 be
       -0.2931837 -0.052561797 0.26787332 -0.1728263
0003e0 71 c7 3a be 53 ae 03 3f b6 0a 4d be 3d 84 58 3e
       -0.18240143 0.5143787 -0.20023617 0.21144195
0003f0 78 57 3c be d9 3e e2 be 28 f6 cc 3e 58 03 0e be
       -0.18392742 -0.44188574 0.40031552 -0.13868463

fc2.bias f4 [32]
000000 e2 1d e7 bb 26 79 a1 3e 5f c9 13 3d 3f 37 5c 3e
       -0.007053123 0.3153774 0.036080714 0.2150545
000010 a9 52 63 3e 9a f6 cd 3d 9a 68 b6 bd d2 aa e5 3e
       0.22199501 0.10056801 -0.0890667 0.44856888
000020 e1 fb a1 3e 77 01 67 be e2 0d 4d bd ba d4 36 3e
       0.3163748 -0.22559153 -0.050062068 0.17854586
000030 d3 d3 9b bc 1a 82 3b 3e d8 d1 da bc 45 30 24 3e
       -0.019021904 0.18311349 -0.02671139 0.16034038
000040 d9 9a 05 3d c4 88 ea 3d d7 f7 86 3e 84 2c 8c 3e
       0.032618377 0.11451867 0.26360962 0.27377713
000050 cb 94 43 be 36 25 d1 3d df d9 6b 3e a9 79 9e 3e
       -0.19099729 0.102121755 0.2303233 0.30952194
000060 d6 d3 65 be 0b 19 35 be b3 85 1f 3e 1f 43 cf 3d
       -0.2244409 -0.17685334 0.15578346 0.10120224
000070 21 a7 88 be 45 95 ef 3d 56 a4 80 be a1 bb 01 3e
       -0.2669001 0.11698393 -0.25125378 0.12669231

fc2_1.weight f4 [64, 32]
000000 69 0d 14 3e 26 7f a5 3c 13 73 98 3e b5 0e 54 3d
       0.1445824 0.02020223 0.29775295 0.05177184
000010 eb 07 45 be d1 c2 2e 3e 46 de f1 3d 47 f6 61 bd
       -0.19241302 0.17066504 0.118099734 -0.05516651
000020 c8 c8 1a 3e ed cb 8e bd 3d 7d 17 be 10 82 db 3d
       0.15115654 -0.069724895 -0.14793868 0.10718167
000030 85 1a 30 bd 9c 16 ec bc 7c b1 55 3d a1 81 8c 3e
       -0.04299404 -0.028819375 0.052171215 0.2744265
000040 b2 0c 31 3e 66 f9 ce 3d 7d cb b9 bd eb dd 45 3e
       0.17289999 0.10106163 -0.090720154 0.19322936
000050 16 ba bc 3c d9 fd 82 3d 2b f0 53 3d f7 ad 9f bd
       0.023037951 0.06396074 0.051742714 -0.07796853
000060 10 40 e7 3d 05 d7 ee 3d 40 99 0e bd 73 94 91 3d
       0.11291516 0.116621055 -0.03481412 0.071083926
000070 b5 86 2d be ad 6f 16 3e 6e 58 32 be 61 1b b9 3c
       -0.16945918 0.14691038 -0.17416546 0.022596063
000080 a9 b5 bf 3d c8 f9 32 bc e5 af 7d bc af e9 7a 3d
       0.09360821 -0.01092381 -0.015483831 0.061258014
000090 2f da 40 be be 04 c3 bc a3 83 69 bd 64 c3 b2 bd
       -0.1883323 -0.023805972 -0.057010304 -0.08728674
0000a0 4f 51 76 3d 19 41 20 3e 73 27 b6 3d 18 6d 17 3e
       0.060136136 0.15649833 0.08894243 0.1478771
0000b0 99 ca 02 3e 54 fe 2e 3d 07 93 85 bd ce cc 90 3e
       0.12772597 0.042723015 -0.06522184 0.28281254
0000c0 d4 99 c8 bd e4 95 6e be fa 97 24 3e 5c c4 70 3e
       -0.097949654 -0.23299366 0.160736 0.23512405
0000d0 a6 ec 09 3d 0b 1f d7 bc 0a 62 a9 bd 9f a0 34 bd
       0.03367295 -0.02625992 -0.082706526 -0.044098493
0000e0 7b a3 23 3d 3f 32 a4 bd 14 64 45 be 6e e2 0f be
       0.03995083 -0.08017396 -0.19276458 -0.1405122
0000f0 a0 bd 40 3d 72 8e 92 3d 7a 0b 92 3d 34 22 17 3d
       0.04705584 0.071560755 0.07131095 0.036897853
000100 87 52 03 3e 8e 30 99 bd e8 bf 89 bd 1f d2 c1 3d
       0.1282445 -0.07479964 -0.06726056 0.094639055
000110 a8 e8 0a be 3c 91 3e 3e da ef 5f be 95 c3 09 3e
       -0.13565314 0.1861009 -0.2186884 0.13453515
000120 a3 d9 d1 3c 43 b9 fe bd 14 0c d2 3d df c4 06 3e
       0.025616473 -0.124376796 0.1025621 0.13161038
000130 d7 d8 a5 bc 81 e2 27 3e 2d 6d e6 3c 12 15 9a 3e
       -0.020244999 0.16394998 0.028128231 0.300942
000140 99 c8 b0 3d b9 37 df 3d 65 22 18 3e 80 a7 25 bb
       0.08632011 0.108993 0.1485687 -0.002527684
000150 07 de cf bb a8 10 7b ba 8e 7c 21 3d e4 29 08 3c
       -0.0063436064 -0.0009577372 0.039425425 0.008310769
000160 6d d0 2b 3e 6a 40 8b bd ae b2 9a be 84 f9 89 3a
       0.16778727 -0.067993954 -0.30214447 0.0010526632
000170 86 ef ed bd a8 36 ff b9 6b 06 20 be 1e 79 03 bd
       -0.11617951 -0.00048678112 -0.15627448 -0.03209793
000180 f1 a1 27 3e 75 25 11 be dc 93 a8 3d ce 6f 55 bd
       0.1637037 -0.14174445 0.08231327 -0.05210858
000190 87 2f 79 3d c9 85 6a bd b7 9a 84 bd 07 24 14 3e
       0.06083634 -0.057256494 -0.06474822 0.14466868
0001a0 49 b0 03 3d 44 d4 93 3d b2 17 e8 bd f5 cb 26 be
       0.03215054 0.07218221 -0.113326445 -0.16288741
0001b0 1f 79 6c bd 71 c2 a4 3d a1 56 1a be 78 20 e7 3d
       -0.057732698 0.08044899 -0.15072109 0.1128549
0001c0 c2 15 b3 bd e1 b1 29 3d 42 4c 4c bd ba 73 1f be
       -0.08744384 0.041429404 -0.049877413 -0.1557149
0001d0 92 4b 3e 3d 5f 47 16 3d a6 8d de 3d 07 d8 83 bd
       0.04645879 0.03668916 0.10866861 -0.06437688
0001e0 9f f1 0f 3e 6b b4 e2 3d ed 28 27 be 47 55 fd 3c
       0.14057015 0.11069568 -0.16324206 0.030924452
0001f0 c6 04 35 bd 35 e3 07 be b8 a8 7f 3d de 89 0d 3e
       -0.044194005 -0.13270266 0.062416762 0.13822123
000200 f2 0a 3c 3c d2 b9 a7 bc 62 7b e9 3b ec 70 e2 3d
       0.011477219 -0.020474348 0.007125304 0.110566944
000210 f5 ce 29 3d e6 b9 0e be 05 09 fc bc f8 68 d1 bd
       0.041457135 -0.13938102 -0.03076602 -0.10225099
000220 8b 1c 0c 3d c8 c5 22 bd 69 22 92 bd 3e e3 22 be
       0.03420691 -0.0397394 -0.071354695 -0.15906999
000230 02 17 cf bd 25 2d f0 3c 0c 28 e8 bd fa 67 85 bc
       -0.1011181 0.029318402 -0.11335763 -0.016284931
000240 be 15 07 3d 37 de f3 bd be d6 9f bd c8 d4 2e 3e
       0.03297972 -0.119076185 -0.07804631 0.17073357
000250 cd fa f4 bc ab b9 c2 bd 3e 54 83 bd b3 64 b4 3d
       -0.029904747 -0.095080696 -0.06412552 0.08808269
000260 74 a3 95 bd 55 91 34 be 83 43 0f be d0 64 15 be
       -0.07306567 -0.17633565 -0.13990597 -0.14589238
000270 78 94 31 bd 53 6f ca bb bd d0 07 3e 65 75 1a be
       -0.04335448 -0.0061778217 0.13263221 -0.15083845
000280 cc d3 3d be d1 cc d5 3b d0 7a 09 be c2 0a fe bd
       -0.18537825 0.00652466 -0.13425756 -0.12404396
000290 23 20 ed bd ca 57 2f be ba 4d 08 be 18 53 e8 3d
       -0.11578395 -0.17123333 -0.133109 0.11343974
0002a0 98 4f 0c bc 49 e7 32 3e 26 00 a1 3c 3f f1 8b 3b
       -0.0085638985 0.17471041 0.019653391 0.004270702
0002b0 fa 04 0a 3d 5f 73 ad 3d 8e 64 80 bd a4 fd d3 bd
       0.033696152 0.08469271 -0.06269179 -0.103511125
0002c0 22 5a a6 bd 02 96 d4 bd 61 99 25 3c 0d c7 e5 bd
       -0.0812266 -0.10380174 0.010107369 -0.112196065
0002d0 8e e9 e1 3c d9 e5 33 be 63 71 01 3e 70 08 00 be
       0.027577188 -0.17568149 0.1264091 -0.12503219
0002e0 9c de fc 3c 2b 32 ab 3d bf ba 90 bb 9b 1a 27 3c
       0.030867867 0.08359178 -0.004416793 0.010199214
0002f0 e8 72 24 be 41 2a 99 bd 86 42 bb 3d 56 a4 fc 3a
       -0.16059458 -0.074787624 0.09143548 0.001927505
000300 ae 61 d0 3d ba 9b ec bd 18 63 c8 bc d9 b0 ba 3d
       0.10174881 -0.1155314 -0.024461314 0.09115762
000310 3d a8 58 bd 78 c0 5a 3c cd 1a d5 3d b7 22 15 be
       -0.05289482 0.013351552 0.104055025 -0.14564024
000320 4f b0 79 bd ff 24 1f 3d f0 09 19 3d 2f 99 40 3d
       -0.060959157 0.03885364 0.037362993 0.047021087
000330 a4 d8 13 be cc 3b 67 3c 13 be f9 bc 39 1c 0a bc
       -0.1443811 0.014113378 -0.030486142 -0.00842958
000340 f2 fb a3 3d 62 ab 2d be 81 40 12 3e 67 27 0b be
       0.08007039 -0.16959909 0.14282419 -0.1358925
000350 b1 41 87 3d 2d a3 10 be 27 38 6b bc 9c f0 92 3d
       0.066043265 -0.14124747 -0.0143566495 0.07174799
000360 11 68 9e 3d 74 03 d1 bd ed 9f 6a bd 09 d1 f9 3b
       0.07734693 -0.10205737 -0.057281423 0.007623796
000370 3d 1a e6 bd 3c f6 13 be a1 3f 1e 3e ea 91 94 bd
       -0.11235473 -0.144494 0.1545396 -0.072543934
000380 ee 98 21 3b 52 39 ca 3c e4 fa 20 bb 32 ae b4 bd
       0.0024657804 0.024685536 -0.0024563605 -0.088222876
000390 e3 e3 5b 3d 50 70 10 3e 90 6d b0 3d 6d e3 28 bd
       0.053684127 0.14105344 0.086146474 -0.041232515
0003a0 66 84 58 3d ac f6 04 3e 10 ff cf bd d8 89 93 3d
       0.05286064 0.12984723 -0.10156071 0.07204026
0003b0 60 32 21 3d 61 ec 02 be 67 ad 27 bd d0 ae e3 bb
       0.039354682 -0.12785484 -0.040936854 -0.0069483295
0003c0 4b 07 d0 bd 46 7e 26 3d ae ed b0 bc 23 9f 0c bd
       -0.10157641 0.040647767 -0.02159771 -0.034331452
0003d0 23 a2 50 bd 4e cd 02 be 82 37 5f 3d 5e 39 c5 3d
       -0.050935876 -0.1277363 0.054496296 0.096300825
0003e0 23 55 1d be 20 48 f2 3d b0 c0 11 be ce 64 d7 bc
       -0.15364508 0.11830163 -0.1423366 -0.026293185
0003f0 8c b1 04 3e 39 63 ea bd 1a 3d 1d be ef 4d db 3d
       0.12958354 -0.114447065 -0.1535534 0.10708224

fc2_1.bias f4 [64]
000000 6a ea 35 3e 65 63 14 3e 6b 02 39 be 94 8c 61 3d
       0.17765203 0.14491041 -0.18067329 0.055065706
000010 3a d6 7d bc 89 20 e4 3d c3 a4 fb bd 81 7d c7 3c
       -0.01549297 0.11139018 -0.12287285 0.024351837
000020 d6 31 e8 3d c2 ca 42 3d 4c ba 00 3d 7d c8 cc 3d
       0.113376305 0.047556646 0.031427667 0.099991776
000030 cb f5 f1 3d e8 8b f9 3d ae 77 90 3d a5 e7 01 be
       0.118144594 0.12184888 0.07054077 -0.12686022
000040 00 7d b4 3d 1e 9f 94 bd 8c 00 59 3e 45 00 c0 bc
       0.08812904 -0.07256912 0.21191615 -0.023437629
000050 c0 6c 12 be 74 f3 6e bd 6d 63 b3 bd 69 03 74 3a
       -0.14299297 -0.058337644 -0.08759198 0.00093083695
000060 c0 51 04 be 7b 08 ae bc fb 4e 92 3b 02 9c dc 39
       -0.1292181 -0.021244278 0.0044649816 0.00042077905
000070 f6 21 55 3e b5 1c 30 be 37 de d9 3d 59 5e 8c 3c
       0.20813736 -0.17198451 0.10638087 0.017134832
000080 b3 2d 6a bd 72 85 1f 3e e6 1e 0e be f1 d9 bc 3b
       -0.05717249 0.15578249 -0.13878974 0.0057632853
000090 27 6b b3 3d 4b 71 81 3e eb ba 2c be 13 63 1c 3e
       0.08760672 0.25281748 -0.16868179 0.15272169
0000a0 20 7a 7e 3d c1 c7 28 3e 82 2c 25 be 56 c9 6e 3e
       0.062128186 0.1648245 -0.1613026 0.23318991
0000b0 39 15 57 3e c6 30 62 bd 85 fd 09 be 59 df 8e bd
       0.2100419 -0.055222295 -0.13475616 -0.06976194
0000c0 ed 10 22 be a1 3e 23 3d 39 10 c5 3d d2 8d f0 bd
       -0.15826769 0.03985465 0.09622235 -0.117458
0000d0 89 69 29 3e b2 05 a4 bc 34 01 83 bd db 7f 4e bd
       0.16544165 -0.020022247 -0.06396714 -0.0504149
0000e0 f0 56 00 3e 61 8f 95 bd a8 86 fa 3c 4e 1b ad bd
       0.12533164 -0.07302738 0.030581787 -0.084524736
0000f0 02 00 c2 bc 62 72 0b be 1b e0 77 3d 19 9b 31 3c
       -0.023681644 -0.13617852 0.060516458 0.010840201

fc2_1_1.weight f4 [64, 64]
000000 93 c6 d6 3d b7 94 e0 3d a6 e2 ad 3d d6 0f 74 3c
       0.10487094 0.10965865 0.084904954 0.014896354
000010 5c 49 e3 3d 59 a6 7a bd 2c a8 c0 3d b8 14 ff 3d
       0.110979766 -0.061193798 0.09407076 0.12455124
000020 fe 68 d0 3c bd e9 f1 3c 8f a8 1f 3e db 13 95 bd
       0.02544069 0.0295304 0.15591644 -0.07279178
000030 68 ab 9e 3c e9 30 6d bd 97 5f 14 3e 6a c4 f5 bd
       0.019368842 -0.057907972 0.1448959 -0.12000354
000040 32 d0 4d 3d db b2 17 be 06 14 a6 3d 46 d5 2d 3e
       0.05024738 -0.14814322 0.08109288 0.16975889
000050 b8 72 98 bd 80 d2 d2 ba 6c 80 c1 3d c7 54 fe bd
       -0.07443756 -0.0016084462 0.09448323 -0.12418514
000060 e0 a2 bb bd f5 40 56 3c 13 ff 03 bd a5 83 e0 bb
       -0.09161925 0.01307701 -0.03222568 -0.0068516308
000070 9d 2d e2 bb d0 10 65 3c 17 88 5c bd cf ed 3e bd
       -0.00690241 0.013981059 -0.053840723 -0.04661351
000080 12 05 62 bd f5 a3 6b 3d ad a8 58 3d d7 49 f7 3d
       -0.055180617 0.05752941 0.052895237 0.12074631
000090 c3 13 6d 3d 93 1f 9d bd a0 22 52 bc 8c 36 de 3d
       0.057880174 -0.07672038 -0.012825638 0.10850248
0000a0 7a 2c 30 bc f5 e6 ff bc 54 dc da 3d 6a 0d a4 3c
       -0.010752792 -0.031238059 0.106865555 0.020025928
0000b0 c4 25 35 be 6e 68 ad bd 13 a6 7d bd 19 0e a7 3d
       -0.17690188 -0.08467184 -0.06192596 0.08156986
0000c0 e0 9e 82 3c 30 e3 e6 bd 90 f3 91 bd 74 4a ac 3d
       0.015944898 -0.11273801 -0.07126534 0.08412638
0000d0 37 8f 0a bc e3 43 34 3e fa e3 9d bd 87 7c 88 3e
       -0.008456997 0.17604022 -0.07709499 0.26657507
0000e0 b6 b6 e7 3c a0 68 97 bb 58 1b c5 bd 72 10 84 3d
       0.028285366 -0.0046206266 -0.09624356 0.06448449
0000f0 ef a6 d5 3c 82 a0 db bc 0e 68 31 bd e8 bb 20 3e
       0.026080577 -0.026809935 -0.043312125 0.1569668
000100 4e 08 24 bd 35 0a 5a 3e 14 6b 11 3d d8 18 ac bd
       -0.040046982 0.21292956 0.03550251 -0.08403176
000110 84 3d c1 bd 57 cd df 3d 5c 6c a4 3d b4 99 9a 3d
       -0.09435561 0.10927837 0.080284804 0.07548848
000120 e4 eb 0f 3e 63 c4 4c 3e 23 70 5a 3d e8 d2 9a bd
       0.14054829 0.1999679 0.0533296 -0.075597584
000130 31 bc 00 3e e9 a1 2e be a8 b6 1d 3e 40 03 7f bc
       0.1257179 -0.17053951 0.15401709 -0.01556474
000140 49 ab 00 be 3d be 35 3d a8 f5 fd 3d 0b bb 24 bd
       -0.1256534 0.04437088 0.12400371 -0.04021744
000150 d0 8a c3 3c 38 85 ad 3d f2 79 ff bc 60 69 97 bd
       0.023869902 0.08472675 -0.031186078 -0.073931456
000160 c0 9a 7e bc bc 46 9c 3d 3e ee 8f bb 98 31 d0 3c
       -0.015539825 0.07630679 -0.0043924144 0.025414273
000170 c7 08 a9 3d 60 a3 e9 3b 6f 7f 24 be c0 75 99 3a
       0.08253627 0.0071300715 -0.16064237 0.0011708066
000180 d7 75 a9 bd 02 cb 9e bd d8 fb b5 3d cd 36 4b 3e
       -0.08274429 -0.077535644 0.08885926 0.19845124
000190 29 0d 3d 3d 77 76 c5 3c 20 59 d8 bd 59 4f 2f ba
       0.04615513 0.02410434 -0.10563874 -0.0006687544
0001a0 7b fc 7d 3d 26 a5 12 be 30 2d d1 3c b8 55 53 3d
       0.062008362 -0.14320812 0.025534242 0.05159542
0001b0 cf 5d f0 bd a8 d2 a3 bd aa c6 c4 3d 0f b9 88 3d
       -0.117366426 -0.07999164 0.09608205 0.06675922
0001c0 c8 72 03 3d f8 3c cf 3d 9d 7a 64 be 39 7f 0f 3e
       0.032091886 0.10119051 -0.22312398 0.14013375
0001d0 c6 95 d2 3c 40 3d 5d 3e c8 09 49 bd 41 f2 92 3e
       0.025706183 0.21605396 -0.049081594 0.2870045
0001e0 35 63 01 bd a2 c0 f4 3d 9a b0 fd bd 54 84 81 3c
       -0.03158875 0.11950804 -0.123872 0.01581017
0001f0 ec 07 c4 3d c3 6b e6 3d 56 64 01 3e 33 93 0d 3e
       0.095718235 0.11251023 0.12635931 0.13825683
000200 47 f7 24 3d 32 f2 aa ba 73 dd cc bd 06 a4 d2 3d
       0.040274885 -0.001304215 -0.100031756 0.10285191
000210 5a 92 c8 3d 48 2a cf 3d b0 ae 11 bd 90 40 f5 bd
       0.09793539 0.101154864 -0.035566986 -0.11975205
000220 5e 2b 8c bd 8f d2 bf 3d ff c0 94 bc c5 e3 ec bd
       -0.06844209 0.09366333 -0.018158434 -0.11566881
000230 8a dc 78 3d 12 f2 9e bd 82 35 1e 3d ac 29 d9 bd
       0.060757197 -0.07761015 0.038625248 -0.106036514
000240 1f ec 3f bc d0 36 42 3d 33 55 72 3c 03 68 a0 bb
       -0.0117140105 0.047415555 0.014790821 -0.0048952117
000250 a4 9e 5b 3d 78 b7 65 bd 82 a8 8e bd a6 5a b7 3d
       0.05361809 -0.056083173 -0.06965734 0.08952837
000260 ec b3 c2 bd 7f be e7 3c b8 ee 92 3d 8c 79 ec 3d
       -0.095069736 0.028289078 0.07174438 0.11546621
000270 26 7c b4 3b 4c a0 7f bd b9 a7 3f 3d 28 36 ea bd
       0.0055079637 -0.06240873 0.046790812 -0.11436111
000280 fe a0 00 be 40 f9 c0 bc 62 29 fb bd 9a b7 ea 3d
       -0.12561414 -0.023556352 -0.122637525 0.114608005
000290 b0 c9 e0 bc 39 bd 65 3d 6c 10 48 bd 70 d1 b3 bc
       -0.027439922 0.05608866 -0.048843786 -0.021950454
0002a0 1b b6 e6 3b d2 1b b1 3d d8 24 de 3d 01 a7 da 3d
       0.0070407516 0.086478844 0.10846871 0.10676385
0002b0 68 d0 f9 bd 50 99 dc 3d de 37 fb 3d fb c8 09 bc
       -0.121979535 0.107714295 0.12266515 -0.008409734
0002c0 34 42 ac 3d 9c 91 2b 3d 50 59 73 3c cb 74 1e 3d
       0.08411065 0.04188691 0.014852837 0.0386856
0002d0 84 cf 2c bd cc f4 65 ba 80 84 fc 3d ec e6 b0 bd
       -0.04219009 -0.00087721343 0.1232996 -0.08637795
0002e0 af 4b e7 bd e0 75 34 bc 59 94 d9 bd 8d 2b 38 3c
       -0.112937324 -0.011014432 -0.10623998 0.011240852
0002f0 8b 7a 3b 3d 8e d6 ef 3d 6d f7 55 bd 81 91 16 bd
       0.045771163 0.11710845 -0.052237917 -0.036759857
000300 98 d3 8c bd 5a bf bb 3d 07 66 bb bd 54 cf 8d 3d
       -0.06876296 0.09167357 -0.091503195 0.0692431
000310 bc 40 ca bd 9c d4 e1 bd 3c 63 72 3d 5e e3 e7 3d
       -0.09875628 -0.1102688 0.05917667 0.11322664
000320 64 a3 3b 3d a5 dd 0c be 14 33 03 3d d0 d4 f5 3c
       0.04581012 -0.13756426 0.032031134 0.030008703
000330 2f 08 79 bd 7c 67 aa bd 6e e8 c5 3d b4 39 4d bd
       -0.06079882 -0.08320519 0.09663473 -0.050103858
000340 da e0 c1 bc 8e 21 13 3d 82 36 29 3b cf 9d 82 bd
       -0.023666788 0.035920672 0.0025819843 -0.06377756
000350 a0 a0 cc bb 60 83 aa 3b a0 90 d2 bb d4 dd 8b bd
       -0.006244734 0.0052036494 -0.006425932 -0.0682942
000360 1c cf c2 3d 03 32 af bc 48 72 fc bc 6f da 48 3d
       0.09512159 -0.021386152 -0.030816212 0.04903644
000370 e8 2a b3 3c d0 75 e9 bc c9 a6 93 bd 5c 4d 9f bd
       0.021871045 -0.02849856 -0.07209546 -0.07778427
000380 b6 42 a7 bc 52 1c f6 3d a3 94 ab bd bf 30 b9 3d
       -0.020417552 0.120171204 -0.083779596 0.09042501
000390 aa 4a af bd ad 4c fb bd 7c 64 5a bd 38 9e cc 3d
       -0.08559163 -0.12270484 -0.053318486 0.09991115
0003a0 68 c0 91 bd bc a7 03 be 08 c2 45 3d 95 1b cd bd
       -0.07116777 -0.12856954 0.048280746 -0.100150265
0003b0 45 fb 0a 3d ae 3c be bd 08 ce f2 bc b4 47 ab bc
       0.033931036 -0.092889175 -0.029639259 -0.020908214
0003c0 c6 25 f6 bd f0 e9 2c 3c d8 7a 1c 3d 5c 14 3b 3d
       -0.120189235 0.010553822 0.03820309 0.045673713
0003d0 39 e3 a2 bd f3 0d c7 3d b0 3f 66 bd 0c 7f 3e 3d
       -0.079534955 0.097194575 -0.05621308 0.04650788
0003e0 b2 a2 1b bd 30 36 34 bd 34 e1 c9 3d fa a5 4d bc
       -0.037996955 -0.04399699 0.09857407 -0.012551779
0003f0 a7 11 99 3d 7c 73 b1 3d c7 d5 87 3b fe 0a 70 3d
       0.0747407 0.08664605 0.0041453573 0.058604233

fc2_1_1.bias f4 [64]
000000 40 36 6a 3c 0b c5 9d 3d 10 fe ee bd 88 33 ed bd
       0.014295161 0.077035986 -0.11669552 -0.115820944
000010 b4 75 07 3e 42 b5 e4 bc 24 9d 30 bd 23 5c 8c 3c
       0.13228494 -0.027918462 -0.04311861 0.017133778
000020 3f 20 c8 bc 4f 98 85 bd b8 11 40 3e 6c 1b c3 3c
       -0.024429439 -0.06523191 0.18756759 0.023816787
000030 6e b0 fd 3d bd d4 17 be 2b 08 66 bd 7a d5 56 3d
       0.12387167 -0.14827247 -0.056160133 0.05244968
000040 a6 8e f9 3c b1 63 3c 3e d1 33 02 3c e7 0c 07 bd
       0.030463528 0.18397404 0.007946924 -0.03297129
000050 9d 28 d6 3d 60 c0 3e bc 53 92 f7 bd e8 eb 6a 3d
       0.10456965 -0.011642545 -0.12088456 0.057353884
000060 06 07 7a 3d 1c c6 05 3d 4c 6b 30 3e 2d 2a c9 bd
       0.061041854 0.032659635 0.1722843 -0.098224975
000070 28 f1 b0 3d 7c 5e b9 bd 20 3f 83 3c 98 f8 05 bd
       0.08639747 -0.090512246 0.016021311 -0.03270778
000080 0f 0e 78 3d 7e 93 d5 bd b9 d9 05 3e 73 ed a0 bc
       0.060560282 -0.104285225 0.13071336 -0.019644475
000090 2a 34 37 bd 50 a1 25 3c 2e 39 e7 bc 2c fe d9 bd
       -0.044727482 0.010109261 -0.028225508 -0.106441826
0000a0 4a d9 84 bd 40 e4 90 3d ca 31 ee 3d 3e b4 00 bd
       -0.06486757 0.07074785 0.1163059 -0.031421892
0000b0 4b fd 39 3d be cc 3a bd d6 24 fa bd 7a 4a f5 bd
       0.045407575 -0.045605414 -0.12214057 -0.11977096
0000c0 d4 de 5a 3c bc 68 00 bd 08 cb 59 3d 9f 6e b4 3c
       0.01335879 -0.031349882 0.05317214 0.022025404
0000d0 f8 73 db bc ab 0a 8e 3b 8b 2d 90 bb 19 a6 b1 3d
       -0.026788697 0.004334768 -0.0043999604 0.08674259
0000e0 08 30 8d bd d5 0d 5d bd 3c 2b ea bd f7 ae 27 bc
       -0.06893927 -0.05396827 -0.114340276 -0.010234586
0000f0 98 e4 23 3d 81 b8 3d 3c df f5 27 3b 3b a8 50 bd
       0.040012926 0.011579634 0.0025628728 -0.050941687

fc2_1_2.weight f4 [32, 64]
000000 23 27 60 3d 29 0e 1a 3e 1f ef b7 3a bf 77 aa bd
       0.054724824 0.15044464 0.0014033056 -0.08323621
000010 8f 90 71 3d 75 b0 21 bd 14 02 e6 bd c7 8b bf 3d
       0.058975752 -0.039474923 -0.11230865 0.09352832
000020 92 4a a4 3e 3f a5 1e 3e c3 41 cf bd e8 c8 4a 3e
       0.32088143 0.15492724 -0.10119965 0.19803202
000030 c4 71 05 3e 29 fb 1d be ae 17 2a 3d 7d 14 6e 3c
       0.1303168 -0.15427841 0.04152649 0.014531252
000040 42 6b 97 bc 9e 8e c4 bd 8a d3 ad bd 55 9e 78 3e
       -0.018483762 -0.095975146 -0.084876135 0.24279149
000050 e0 ac a6 be c0 99 35 bd 89 16 c1 bd c6 7a d5 bd
       -0.32553768 -0.04433608 -0.09428126 -0.10423808
000060 75 f7 b9 3e bf c4 06 3e 25 f1 96 be c2 2b 9e bd
       0.36321607 0.1316099 -0.29480854 -0.0772319
000070 ed a0 c7 3e 10 ff 4f bc 30 34 86 3d 58 74 d3 bd
       0.38989964 -0.012695089 0.06552923 -0.10324925
000080 85 4d b1 bb 7b e8 eb 3c 8d 09 b9 be d3 a6 ec bd
       -0.0054108524 0.028797379 -0.361401 -0.11555257
000090 c9 45 b0 bd c8 00 00 bd 06 ba 8e 3d f4 d2 1d 3d
       -0.086070605 -0.031250745 0.06969075 0.03853126
0000a0 34 f5 25 3e 22 69 ad 3e 53 ad 8e be 73 28 70 3e
       0.16206819 0.33869272 -0.2786661 0.2345293
0000b0 34 a1 36 3d 9e 67 3b 3e 38 dc b0 bd e8 bc 2c 3d
       0.04458733 0.18301246 -0.086357534 0.042172343
0000c0 6f 84 58 3d f0 83 f1 bc 5c bd 3b 3d 61 d6 dc 3d
       0.052860674 -0.029481858 0.045834884 0.10783077
0000d0 d8 1c ab bc 71 06 21 3e de 6c 9d be b0 29 11 3c
       -0.020887777 0.15725113 -0.30747122 0.008860037
0000e0 20 55 d6 3b 3a 26 ec 3c c4 25 0a bd cf 2d 29 bd
       0.0065409094 0.028826822 -0.033727422 -0.041303452
0000f0 eb 66 77 3d 3e 07 99 3c 09 a4 63 be 58 f2 5a bc
       0.060400885 0.018680211 -0.22230543 -0.013363443
000100 99 50 6e 3c 5a d0 c7 3d e6 cb a7 bd d8 54 8c 3d
       0.014545583 0.09756537 -0.081931874 0.0685212
000110 2a 7a 44 3d fa e2 d9 bb 80 98 12 bb bd fc 4d 3e
       0.047968067 -0.006649372 -0.002236873 0.20115943
000120 cc d8 df bd a7 d6 c9 3d 87 49 eb ba 90 cb 93 3d
       -0.109300226 0.09855395 -0.001795099 0.07216561
000130 29 ce 11 3e 14 92 72 bc 02 da 91 3d 9c f8 c7 3c
       0.142388 -0.014805336 0.0712166 0.024410538
000140 b3 4e 05 3e 1e da 12 3e ba d9 15 be 54 b6 2d be
       0.13018303 0.14341018 -0.14633837 -0.16964084
000150 ce ff b7 3c f0 e6 30 3d 9a 61 c9 3d db 08 b8 3d
       0.022460844 0.04318899 0.09833069 0.08986064
000160 54 53 00 be 25 f0 1d bc 71 eb 24 3e 9e 63 d5 bd
       -0.12531787 -0.009639774 0.16105439 -0.10419391
000170 de 55 97 be 24 4c e7 3d c0 c7 24 3c 10 1f ee bc
       -0.295577 0.112938195 0.01005739 -0.029067546
000180 fb 7e 0f 3e 52 5c 00 3d 34 89 8f 3d df 54 f9 bc
       0.14013283 0.031338044 0.07008591 -0.030435978
000190 af 5b a8 bb c0 c3 dc bd e2 c7 12 bb d6 1a cd bd
       -0.0051378827 -0.10779524 -0.0022396971 -0.10014884
0001a0 ce a3 86 bb d7 94 26 be 4f 02 88 3d 5c 9f 22 bc
       -0.0041088825 -0.16267715 0.06641065 -0.00992569
0001b0 a0 d1 ac 3d 63 0a db bd 0e c4 b6 bc 60 90 6a bc
       0.0843842 -0.106953405 -0.022310283 -0.014316648
0001c0 65 ca 47 bc aa e6 a1 3d 98 75 aa 3c 8a 87 a7 bc
       -0.012194251 0.07905324 0.020808026 -0.020450372
0001d0 30 fb 82 3c 8b 5b 6e bc 65 c2 b4 be 67 b4 97 3d
       0.015988916 -0.014548193 -0.3530456 0.07407456
0001e0 c6 2f d4 3d 7d 14 72 3c e0 9b 6b 3c de 04 88 3d
       0.103606746 0.014775393 0.014380425 0.06641553
0001f0 aa 4a 84 3b 34 c9 3d 3e d3 14 0e 3d dc 02 74 3c
       0.004037221 0.18533784 0.03468783 0.01489326
000200 48 3b 70 3d 2f 0f 86 3c 5b 12 a9 3d 03 d2 21 3d
       0.058650285 0.016364662 0.08255454 0.039506923
000210 05 f3 57 bd b7 a5 29 3d b0 35 a6 3d 31 20 8e bd
       -0.052721996 0.041417804 0.08115709 -0.06939734
000220 8d 4d 6e 3e 02 39 eb 3d 34 be 85 bd 5e f9 60 3d
       0.23271771 0.11485483 -0.06530419 0.054925315
000230 b2 c0 03 bd 7f 45 73 3d 7a f1 7c 3d 26 27 21 bd
       -0.03216619 0.05939245 0.061753727 -0.039343975
000240 12 d4 6e bd 32 e9 63 be 98 11 70 3d d2 18 19 3e
       -0.058307715 -0.22256926 0.05861053 0.14950874
000250 18 73 2a be a8 4b 98 bd ac 94 fd bd 6b 1d be 3c
       -0.16645467 -0.07436305 -0.123818725 0.023207387
000260 0a 3c 1f 3e a4 73 2d 3e 3d 75 85 be ca 02 9a 3d
       0.15550247 0.16938645 -0.26066008 0.07520063
000270 72 3a 66 3e 04 ec 76 3d 60 14 a9 bc 68 70 1b bd
       0.22483233 0.060283676 -0.020639598 -0.037948996
000280 a8 b8 c0 3d 51 2e e8 3d c9 d0 e0 bd 7e 61 f7 bc
       0.094102204 0.11336959 -0.109773226 -0.030197855
000290 2b 62 dc 3d 4c bd d3 3d 98 e0 c8 3d 60 17 f7 3d
       0.107609116 0.1033884 0.09808463 0.12065005
0002a0 db d8 ea 3c 23 5b 19 3e fc ac 25 be 91 eb 12 3e
       0.028667858 0.14976172 -0.1617927 0.14347674
0002b0 f7 a1 10 3d c4 09 f2 bc 81 b1 3b bd 2e 64 a3 3d
       0.03531071 -0.029545672 -0.045823578 0.07978092
0002c0 13 08 53 3d 28 04 90 bd 8c ee 59 bd 78 86 0f bc
       0.051521372 -0.07032043 -0.05320601 -0.008760087
0002d0 2c 20 9d 3d f6 b9 ac 3d d3 7f 8f bd f6 82 ab 3c
       0.07672152 0.08433907 -0.070068024 0.02093647
0002e0 42 96 c5 bd 4f 4d 6e 3d 16 6b da bd 94 eb f5 bd
       -0.096478 0.058179196 -0.10664956 -0.120078236
0002f0 7c 06 50 3e df 15 20 be 58 02 17 be a5 61 74 3d
       0.20314974 -0.15633343 -0.14746988 0.059663434
000300 64 c6 8a 3d 9b ef 03 3e 32 92 bf 3d ea 9d fb bc
       0.06776121 0.12884371 0.093540564 -0.030714948
000310 a3 24 63 bc 91 ac 4f bd 3e e5 91 3d 76 eb 15 3e
       -0.013863715 -0.05070168 0.071238026 0.14640602
000320 30 33 4d 3d 69 f6 b8 3d 77 ec 2a 3e 80 06 0c 3e
       0.050097644 0.09031374 0.16691767 0.13674355
000330 03 ff 49 3e e6 5e 66 be db d8 2a be e8 03 de bd
       0.19726186 -0.22497138 -0.16684286 -0.10840589
000340 f8 06 eb 3d 14 a0 19 bd e7 1a 17 be fc 28 30 3d
       0.114759386 -0.037506178 -0.14756356 0.043007836
000350 62 51 81 bd 70 6a c1 bd 8b 44 94 bc b2 7d a5 3d
       -0.06314351 -0.094441295 -0.01809909 0.08080615
000360 26 38 2d 3d 43 ac 24 3e 85 6f 95 bc 3f bf 5c bc
       0.042289875 0.16081338 -0.018241653 -0.013473331
000370 da 3d 80 bd 88 d2 ff 3c 86 be d0 bd 10 92 ac bd
       -0.06261797 0.031228319 -0.101925895 -0.08426297
000380 a2 5c a1 3d 73 c3 ab 3d cb 5c 69 bd d1 fe 7d be
       0.078789964 0.08386888 -0.05697326 -0.24804236
000390 cd 97 0e 3d ba f8 9e 3d f4 32 9b 3d a8 1a fd bc
       0.034812737 0.077622846 0.07578078 -0.0308965
0003a0 a6 6f 04 3e 07 56 8b bd 20 cf 9b 3d ab 6d f3 3d
       0.12933215 -0.06803518 0.07607865 0.11886152
0003b0 38 0e ae 3d 90 8a 88 3d cf d8 f6 3d 80 de cc 3c
       0.08498806 0.06667054 0.12053072 0.02500844
0003c0 ce f9 9b bc 94 89 6f bd 90 82 bf bd 92 88 ec 3d
       -0.019040015 -0.058480814 -0.09351075 0.11549486
0003d0 8c ee 5b bd f5 03 d8 3d f3 4d b7 be 03 12 27 3e
       -0.053694293 0.1054763 -0.35801658 0.16315465
0003e0 a8 1d b2 3c 57 ae 81 bd f0 1d 13 bd 89 0c 15 be
       0.021742657 -0.06332081 -0.035917222 -0.14555563
0003f0 66 de 83 bc 0b 8e 02 3e 43 a8 cd 3c 9d 64 ad 3c
       -0.016097259 0.12749498 0.025104648 0.02116614

fc2_1_2.bias f4 [32]
000000 99 e5 ea bd 63 19 03 3e f5 dc 86 bd bf 14 9d 3c
       -0.114695735 0.12802653 -0.06585113 0.019174932
000010 e1 f7 9c 3d 16 b8 25 bc 64 6a 0d bd e0 e6 91 bd
       0.07664467 -0.01011469 -0.03452529 -0.07124114
000020 48 e7 07 3e c2 f5 45 3d 2b 4b ae 3c c3 af d8 3d
       0.1327182 0.048330076 0.021276077 0.10580399
000030 78 e0 aa bd 5a ba 2e 3d 63 53 b6 3c 26 fb 4e 3b
       -0.08343595 0.042658187 0.022256559 0.0031582802
000040 21 e9 9e bc d2 fb 11 3c 52 ac b2 3d d8 b6 be 3b
       -0.019398274 0.008910136 0.08724274 0.0058201365
000050 65 c3 f1 3d 1e 3d bb 3d 15 2a cc bd 9f 81 dc 3c
       0.11804847 0.091425166 -0.09968964 0.026917277
000060 1c 1a b2 3d 1c 3c ea 3c d0 c6 64 bd ee 72 db bc
       0.08696386 0.028593116 -0.055853665 -0.026788201
000070 20 e6 eb 3d 4e e9 57 bd 1f 79 ba bd 3a ef d1 bc
       0.11518502 -0.05271273 -0.09105133 -0.025626767

fc2_2.weight f4 [16, 32]
000000 af 4f cf 3e 03 a8 a6 bd ed c9 8d 3c 3d fe 26 3e
       0.4049048 -0.081375144 0.0173082 0.16307922
000010 16 4f 13 3e 2b 47 e1 3b ae 0b 0e 3e f9 13 27 3d
       0.14385638 0.006874939 0.13871643 0.04079053
000020 65 81 54 3e 22 fb ac bc 98 b3 c6 3e cb 06 67 be
       0.20752485 -0.021115843 0.38808894 -0.22561185
000030 ed 07 5c bc 0a de 20 bb 88 f6 28 3e d4 43 43 bc
       -0.013429624 -0.0024546408 0.16500294 -0.011918027
000040 f4 8e bb 3d 4f e2 89 3d 07 ab d2 bd 68 1a b5 3d
       0.091581255 0.06732618 -0.10286527 0.08842927
000050 d7 6e 45 3e 95 de 5e 3e 69 14 7a 3e 50 67 6c 3e
       0.19280563 0.21764596 0.24421848 0.23086286
000060 a9 02 16 3e 8e 10 01 3d 69 f8 7a 3d 1a 72 8e 3e
       0.14649452 0.03150993 0.06127206 0.27821428
000070 c0 e6 3c be bc 5d 2f 3d 9e 7b 9e 3d 88 bc 72 3e
       -0.18447399 0.042814 0.07738422 0.23704731
000080 72 cd 1d be 81 76 d6 bd 2a 64 fd 3d ff c7 4b 3d
       -0.15410402 -0.104718216 0.123726204 0.049751278
000090 e1 b2 52 3d 8f c9 7a bd 60 c7 86 bc 17 05 eb 3b
       0.051440123 -0.061227378 -0.016452491 0.0071722376
0000a0 cc 74 a8 bb 2b e2 45 bd f4 5f 10 3e 88 e4 97 3d
       -0.0051408764 -0.048311394 0.14099103 0.07416636
0000b0 46 99 27 3e 71 e9 31 3d fc 8b db bd 92 ad d9 bd
       0.16367063 0.043435518 -0.10720059 -0.10628809
0000c0 90 7e 09 3d 41 75 f7 bd 32 a6 97 bd cf 2d cc bd
       0.033567965 -0.12082911 -0.07404746 -0.09969675
0000d0 76 74 06 be a3 99 68 3c 2d 8a b2 bd 01 82 92 3b
       -0.13130364 0.014196786 -0.08717761 0.004471064
0000e0 ba d7 a1 3d 25 23 0e be 2d ef ac 3d a9 43 9a bd
       0.07902475 -0.13880594 0.08444057 -0.075324364
0000f0 45 00 4a bd c9 15 28 be a5 42 e5 bd ca a8 52 3d
       -0.049316663 -0.1641456 -0.11194352 0.0514305
000100 7e 6e ea be b1 c5 04 3e 31 30 3f be bc 5e 7b 3e
       -0.45787424 0.12966038 -0.18670727 0.24547857
000110 80 9d b5 be e4 49 b2 be 32 08 da bd 3d f7 4e be
       -0.35471725 -0.34822 -0.106460944 -0.20211501
000120 f5 92 5c 3e 2e cf cf bc ff 1c e2 be 9a 4f 99 bb
       0.21540435 -0.025367346 -0.44162747 -0.0046786787
000130 cc 1e 8b be 00 23 2a 3e 18 13 b1 bd 72 81 d6 be
       -0.27171934 0.16614914 -0.0864622 -0.41895634
000140 d0 4d 7a 3e 52 ad 4b 3e 02 6a 25 be c2 75 50 3e
       0.24443746 0.19890335 -0.1615372 0.20357421
000150 92 44 c9 3c d6 20 f2 3d 54 46 82 be 9a 1b 9c be
       0.02456883 0.11822669 -0.2544428 -0.30489808
000160 fd 59 ab bd 2c 81 bb 3c af d7 9a bd aa ae 74 3e
       -0.08366773 0.022888742 -0.0756067 0.23894754
000170 a4 9a 34 3e 98 84 2c 3e 3b f6 25 be 87 ea df 3c
       0.17637116 0.16847456 -0.1620721 0.027333511
000180 70 1e 69 be 29 a9 14 3e ea b4 85 be 28 7c 8f 3d
       -0.22765517 0.14517654 -0.2611459 0.07006103
000190 6b 19 09 3d fb 43 22 3d e5 77 23 bc ee a1 ba 3c
       0.033471506 0.039615612 -0.009977316 0.022782292
0001a0 52 1a e0 3d 5f 2a db bd 93 87 8f be a9 29 4f 3e
       0.1094252 -0.10701441 -0.28033122 0.20230736
0001b0 b8 01 bc bd 69 d0 8b 3d 2c dd 40 bd 08 62 66 be
       -0.09180015 0.068268605 -0.047085926 -0.22498333
0001c0 37 74 34 3d bf fc 93 3e 27 43 cc 3d 68 37 9a 3d
       0.044056144 0.28903767 0.09973746 0.07530099
0001d0 67 a1 d6 bd f8 4c 2e 3e 03 d7 1c 3c d0 97 a7 bd
       -0.10480004 0.17021549 0.009572747 -0.08183253
0001e0 e8 b9 69 3e 52 97 85 3d 88 40 74 3e e4 b2 d9 bd
       0.22824824 0.06523003 0.23852742 -0.10629824
0001f0 55 67 58 3e af 81 00 be 59 a9 de bc c3 ff 6a 3e
       0.21133168 -0.1254947 -0.02718036 0.22949128
000200 2f 9e b4 be 23 cc 82 3d 79 2d fd 3d 86 bf 57 3e
       -0.35276935 0.06386592 0.12362189 0.21069154
000210 b8 f6 6e bc c0 69 0f be e1 d0 80 bd fb b4 a6 be
       -0.0145851895 -0.14005184 -0.062898405 -0.32559952
000220 c4 06 e8 3d 08 ae 27 3d 15 da 9d be 7a d8 3b 3d
       0.113294154 0.040937454 -0.30830446 0.045860745
000230 05 c9 18 bd 38 ae 4d bd b2 89 0b 3e 00 55 a7 be
       -0.037301082 -0.050214976 0.13626745 -0.32682037
000240 c5 b8 63 3e 64 f4 0f 3e 15 e4 02 bd 87 be 29 3e
       0.22238453 0.14058071 -0.031955797 0.16576587
000250 e8 ff 10 3e 30 4c 1d 3d 0d f0 80 bd a2 94 33 be
       0.1416012 0.038402736 -0.06295786 -0.17537168
000260 d2 99 d4 bd db 29 3d 3d 58 58 79 bd 90 4f 88 3e
       -0.103809014 0.046182495 -0.060875267 0.266232
000270 8c d1 c0 bc f8 b0 7c 3d fa b9 01 3e 5a 62 21 3e
       -0.02353742 0.061692208 0.126686 0.15760174
000280 ea a8 84 be d6 78 6b 3e cc 60 d2 3d 16 31 44 3e
       -0.2591012 0.22995314 0.10272369 0.1915935
000290 5f a6 09 3e 15 77 39 be 48 f0 59 3e fd 50 4d be
       0.13442372 -0.18111832 0.21283066 -0.20050426
0002a0 da 57 9e bd 09 68 f6 3d 8e f0 27 be a6 05 58 3b
       -0.077316 0.12031562 -0.16400358 0.003296235
0002b0 e8 a2 4c 3e ca c5 fb 3d 1d 48 78 3e ce d4 59 be
       0.19984019 0.12293585 0.24246259 -0.21272585
0002c0 78 39 6a 3e 07 4c 13 be 05 05 0e be ea df 97 3e
       0.22873485 -0.14384471 -0.13869102 0.2966302
0002d0 f9 fa 6c 3e e7 05 41 bd b7 b2 49 3e 77 8f a2 be
       0.23142613 -0.04712477 0.1969708 -0.3175008
0002e0 72 8c e9 3d 75 63 b3 3c 1f 31 8b be 4a 52 17 3e
       0.11403741 0.02189801 -0.27185914 0.14777485
0002f0 e5 69 fc bc bf 7f 98 bc 3c f4 02 3e 79 e8 66 3d
       -0.030812213 -0.018615602 0.1278848 0.056374047
000300 df c6 f3 bd 57 1d f1 3d 19 c7 c8 3d 2c 3b 50 bc
       -0.11903166 0.11773174 0.098036 -0.01270942
000310 d8 13 f2 bd e8 4c f6 bd 76 38 ed bd 36 ca 4a 3b
       -0.11820191 -0.120263875 -0.11583035 0.003094328
000320 4a e2 1b 3d c4 10 51 be 11 9a 07 be 0b e2 10 3d
       0.038057603 -0.20416552 -0.13242365 0.03537182
000330 4b 6b 00 3d 8d 39 07 3e 69 ea 9d 3c 20 92 c9 3e
       0.031352323 0.13205548 0.019276815 0.39369297
000340 6b de 1f 3d b5 c7 0f 3e fa 23 86 3e 39 78 95 be
       0.039030474 0.14041026 0.26199323 -0.29193285
000350 da ff 8c bd ac dd 49 be 6f ee dd bd 0b 4f 6f 3e
       -0.06884737 -0.19713467 -0.10836493 0.23369996
000360 c0 30 eb 3c fe d2 3e be 64 61 03 3d 0e 19 39 be
       0.02870977 -0.18635175 0.0320753 -0.18075964
000370 15 13 4b 3e 8e 38 07 be 48 b8 08 bd c6 fc 26 3e
       0.19831498 -0.13205168 -0.03337887 0.16307363
000380 c9 97 49 bd 59 a0 54 3e 3f b4 8c bd 58 c9 e9 bd
       -0.04921702 0.20764293 -0.06870317 -0.114153564
000390 10 15 43 bd 46 62 31 be 30 27 de 3d 18 9a 3f bd
       -0.04762751 -0.17322645 0.10847318 -0.046777815
0003a0 1e 4c 52 3e 82 6c c9 bd 5b 3a 88 be 63 f5 4b 3e
       0.20536849 -0.09835149 -0.26607022 0.19917826
0003b0 e4 b9 9f bd 82 93 2a 3b 5a 72 d9 3d 2f 12 96 3c
       -0.07799128 0.0026027863 0.10617514 0.018319217
0003c0 68 68 17 3e 2e bd 03 bd 00 68 b4 3d 6c 64 a6 bd
       0.14785922 -0.032162838 0.08808899 -0.08124623
0003d0 53 55 6c 3b fb 1e bd 3d fc df 5b 3c b6 ce 4d bc
       0.00360616 0.09234425 0.013420101 -0.012561491
0003e0 ad 4c a6 3c 7a 29 94 bb 5a 9d 41 bc 8f 8a 26 be
       0.020300234 -0.004521546 -0.011817301 -0.16263793
0003f0 b6 ec 76 3e d1 db b3 3b 6b 10 93 bd f4 c0 43 3e
       0.24113736 0.0054888506 -0.07180866 0.19116575

fc2_2.bias f4 [16]
000000 01 9d 8e 3d da d1 06 be 39 e7 72 bd 9e 73 28 3e
       0.0696354 -0.1316599 -0.059302542 0.16450354
000010 ec 84 a8 3d ed 89 66 3e d8 3b 55 3d 1c ea 08 3e
       0.08228478 0.22513552 0.052059025 0.13370556
000020 a6 b9 26 3e 77 15 d1 3d 42 8e 99 3d d8 9f b5 3d
       0.16281757 0.10209172 0.07497837 0.088683784
000030 b1 d5 b5 3c ca a7 7b bd c9 55 72 3d cc f5 e9 39
       0.022196623 -0.061439313 0.059163842 0.00044624356

fc3.weight f4 [4, 16]
000000 79 6d 6d be 07 81 5c 3d fe a6 fa 3e 93 aa 67 3e
       -0.23186292 0.053833988 0.4895553 0.22623663
000010 8d 20 eb 3e 4d da 4f 3e fb 1a 9b be 46 90 af 3e
       0.45923272 0.20298119 -0.30294022 0.3428976
000020 4e 8d 6b 3e 28 c7 07 be dd 76 28 be 7d 40 e1 3d
       0.23003122 -0.13259566 -0.16451593 0.10998628
000030 5c 46 b9 3d 88 57 ce 3e 39 e8 81 3e 3a 7e 3e be
       0.09046623 0.40301156 0.25372484 -0.18602839
000040 ef eb 96 bd 40 f0 19 3e 11 e3 f5 3e 6b 11 e1 bc
       -0.073692195 0.15033054 0.480248 -0.027474126
000050 e9 7d 63 3d e2 34 f8 3d dd 7c 98 3c 7f ab d0 bb
       0.05554 0.121194616 0.018614227 -0.0063681
000060 c0 3a b0 3e cf b7 c2 3d 1a 9c 0f be a6 9f 80 3e
       0.34419823 0.09507715 -0.14024392 0.25121802
000070 cb ea 93 bd 2c d7 30 3e e1 5f 6a 3e 1f b6 3d be
       -0.072225176 0.17269582 0.22888137 -0.18526505
000080 ef 4a 06 3e 1a 52 50 be 36 ca 22 3e cb d4 ce 3b
       0.13114522 -0.2034382 0.1589745 0.006311988
000090 c6 46 46 bd ae 0f 2d bc 7e d3 17 3c e6 49 39 3e
       -0.04840734 -0.01056282 0.009266732 0.18094596
0000a0 99 99 86 3e 6e 1e 14 bd b5 3c 99 bd d9 13 ab 3e
       0.2628906 -0.036161833 -0.07482282 0.3341358
0000b0 d0 eb 5b 3c 93 17 81 3e 8a a9 87 3e d6 66 81 bd
       0.013422921 0.25213298 0.26496536 -0.063184425
0000c0 c3 77 11 3e d0 c9 0c 3d 36 ef 97 bd 33 54 4a be
       0.14205842 0.03437215 -0.07418673 -0.19758682
0000d0 83 a0 36 3e 47 a5 00 3e 28 6c 91 be aa b1 92 be
       0.17834668 0.12563048 -0.2840283 -0.28651172
0000e0 c8 4d 62 bc 1c 5b 86 3e b5 80 70 be d9 02 0d be
       -0.01381249 0.26241386 -0.23486598 -0.13770618
0000f0 19 64 70 3e f8 6e 81 bd 89 62 5f 3e 1d 6a 87 3e
       0.23475684 -0.06319994 0.21814932 0.26448146

fc3.bias f4 [4]
000000 08 30 83 3d 8a 13 dd 3d 3a 58 96 bd 54 98 7f be
       0.064056456 0.107947424 -0.07341047 -0.24960452
