drone_experiments/MATLAB/weights_NOM/NN_y_2.onnx (onnx, 39865 bytes, 14 tensors)

fc1.weight f4 [8, 3]
00000000: 1c60 033d 9934 16bf c660 d0be 28a5 06bf
00000010: f859 b43d 381f 933e 49fb e73e a173 c03b
00000020: 506e 65be 4e79 cc3e fe21 d5be 6a82 eb3d
00000030: 9c8a 58be 703a 983e 314d ac3e cd74 1f3f
00000040: b8fb c83e 8f62 733e 034f fbbe 4a7a 3b3f
00000050: 3448 2dbe 9018 553f bc8e 07bf d4cd b3bd
0.03207408 -0.5867401 -0.40698832 -0.5259576 0.08806223 0.28734756 0.45308903 0.005873159
-0.22405362 0.39936298 -0.41627496 0.11499484 -0.21146625 0.29732084 0.33652642 0.622876
0.39254546 0.23768066 -0.4908372 0.73233473 -0.16922075 0.83240604 -0.5295217 -0.08779493

fc1.bias f4 [8]
00000000: 0db4 fabd 8df1 f03e 70c4 e93e 085b 9e3e
00000010: a64a a3be 49e7 563e 19d2 55be 86fc 163d
-0.12241373 0.4705929 0.45657682 0.30928826 -0.3189289 0.20986666 -0.20880927 0.03686192

fc2.weight f4 [32, 8]
00000000: 3611 893e ae9d f33e 1d20 9a3c 7f49 a8be
00000010: ce5c 1ebf bcd6 13be faf8 883e 0c39 3fbf
00000020: 34b5 dcbe 5aa2 ab3e e11f a53d b45f 76be
00000030: 7a2e dc3e 155d 1dbf 543f 3cbe 7371 d83c
00000040: 283c 72be b444 83bd 370a a33e e1da 40bd
00000050: 5bbd 03bf d08d 473e 3bac 873e 27d0 163e
00000060: c34d 643e 6e28 a33e e921 4f3e e5d3 b5bd
00000070: caa8 b83e fbef afbe 69a2 93be 92e2 013f
00000080: 2750 713d 3283 653e 97e6 7fbe ec6e 05bc
00000090: 35ca 52bd 1aef f13d c022 e93e b4a2 8b3e
000000a0: 98b7 9c3e 253f 0d3e 01a1 bf3d 9ea1 383e
000000b0: fa16 8e3e 9537 713e 5cf0 38bc da8e 20be
000000c0: 82bd e93e 7ab3 83bd 5856 e03d 14f6 533e
000000d0: 255b 03be deaa 8ebe e460 0f3f 1bfe 31bd
000000e0: 05c2 cd3d 9ac0 673d f0aa 3a3d de1e 14be
000000f0: cbc0 a13d a981 f9bb 0309 ecbd 4d9d c33a
00000100: 175f 153c 0bf9 97be 4444 853e a1ea 7ebc
00000110: e373 17bf 9889 a63e 1c85 0d3e fde0 573e
00000120: b405 c6be e575 bc3b 7712 ff3d 8fc0 903e
00000130: 012f 9fbd d3fa cd3e dc49 6b3e 7cb2 883e
00000140: 5afc 423e b32b d33e a78a 983e 51ab 19be
00000150: f5cb 15bf e91f de3e 6e43 31bd a6f7 4f3c
00000160: fe45 2e3f cf36 703e 39b0 b8bd 804c 18bf
00000170: 0054 e4be e9e3 5fbe a095 6d3e a0e5 ddbc
00000180: 48fa 613e 1de5 44be 3b44 08bd 136e bcbd
00000190: deb1 e63d f6f6 82be db91 98be e36f 813d
000001a0: 9462 ff3e 1bf6 043e 763d 313e c5f3 33bd
000001b0: 8ee9 c63e 5581 a3be d0f3 20bd a15a ca3e
000001c0: 303f 48bd e69f 8cbe d1a9 ca3e 3b18 323e
000001d0: d2d0 f3be 14e0 f43d 7217 80be e1dd 7c3d
000001e0: c9ba 913d ba84 c13e 10e7 09be 7063 dabc
000001f0: 3c36 95be 9dd5 5abd 37f4 603e acfc 853e
00000200: de08 c53d 6c19 a63e 76cb 00be d74b f53d
00000210: ed31 373c 2f27 dbbd 8fe7 953e d893 153e
00000220: 2207 b83e 47c8 7d3e 1024 bbbe 4314 00be
00000230: 0239 a83e 8900 8a3d 372d 2cbe 2bc3 a43e
00000240: cde7 a2be e63e ccbd e748 d23e 6106 d9bd
00000250: f7ba 51bd 9499 35be 93ed 6c3e cadd 89be
00000260: 391d 80be 95bd 3f3e 9a78 ca3e 72b1 413e
00000270: 898b e5be d1c4 aa3e c97b d53e f489 553e
00000280: dfab a2be 7da5 8bbe 901f 863e 6dfb 883e
00000290: 0acf 1abf 0ba8 9c3e 21ff abbe 5cd8 573e
000002a0: a670 8dbe d18c 1abe 43fd 273e d691 6dbe
000002b0: 038a dbbe 2e7f 963e c690 8bbe 4453 813e
000002c0: c74d c3be 7a97 53bd f951 8f3d 07c4 2b3e
000002d0: 17ae 56be 2bfb d73e d658 193f 48a3 123f
000002e0: a2f2 a5bf 9d61 a4be 4fce ecbd a2f2 8d3e
000002f0: 4da0 53be ae12 f23d 8d43 51bf 655b e0bd
00000300: 2ac6 df3e 613c 253c 25fc 573e dbfc 8d3e
00000310: 176d 0e3f e0e3 89be 950d 93bd 6ffb 8b3e
00000320: cfbf 2b3e ac72 c8bd 3ba6 143e 9094 f3bb
00000330: 06e4 863d 947f 80be fd88 c8bd b82d 0dbe
00000340: 061d 8b3e d419 3a3e d41a 773e 7c80 a43e
00000350: 631a da3e cb14 c0bd 26a9 413e 6227 ae3e
00000360: 3b46 cbbe 00e6 babe 5e93 a93e 2b61 babe
00000370: 9c97 b1bd f837 3bbd 0c3b e33e f915 b03e
00000380: e1b3 d93e 2df3 ba3e 40d2 40be eabd 853e
00000390: d925 a03e 7d9b bb3d 833c df3e 271b 52bc
000003a0: 74f5 d13d 78d6 753e 4880 793c bdb1 8abd
000003b0: 9eb4 013e 8ecb 57be aa73 30bd 241e 25be
000003c0: e003 223e 631e dd3e a6fa 27bf 33ec 17be
000003d0: b355 083f 2f6c c0be 15cd af3e 8796 a73d
000003e0: 089c 8c3d 257c 6c3c e655 fb3e 1eb0 9fbc
000003f0: 689f 8fbd 5f11 ff3e 3633 46bd 9a2b a7bd
0.26770943 0.47581238 0.01881414 -0.32868573 -0.6186036 -0.14437383 0.26752454 -0.7469642
-0.43106997 0.33522302 0.08062721 -0.24059945 0.4300421 -0.61470157 -0.18383533 0.026421284
-0.2365576 -0.064095885 0.3184373 -0.04708374 -0.5146081 0.19487691 0.2649859 0.14727841
0.22295289 0.31866783 0.2022778 -0.08878306 0.36066276 -0.34362778 -0.28834847 0.50736344
0.05891433 0.22413328 -0.24990307 -0.008144122 -0.05146237 0.11813183 0.45534325 0.2727257
0.3060882 0.13793619 0.09356881 0.18030402 0.27751905 0.23556359 -0.011287775 -0.15679494
0.45652395 -0.06430717 0.10953969 0.2069934 -0.12827738 -0.27864736 0.5600722 -0.043455224
0.10046772 0.056580164 0.045573175 -0.144649 0.078981005 -0.0076143336 -0.11525156 0.0014924199
0.0091169095 -0.29682192 0.26028645 -0.01555887 -0.59161204 0.3252685 0.13820308 0.2108192
-0.38676226 0.005751359 0.12454694 0.2827191 -0.07772637 0.40230426 0.22977394 0.26698673
0.19041577 0.41244277 0.29793283 -0.15006758 -0.5851434 0.4338372 -0.043277197 0.012693321
0.6807555 0.23458408 -0.09017987 -0.5949173 -0.44595337 -0.21864285 0.23201609 -0.027087033
0.22068131 -0.19228025 -0.033268195 -0.092006825 0.11264394 -0.2557904 -0.2979878 0.06320169
0.49879897 0.12984507 0.17308602 -0.04393365 0.38850063 -0.3193461 -0.039295018 0.3952227
-0.048888385 -0.27465743 0.39582685 0.17392056 -0.47620255 0.11956802 -0.25017887 0.061735038
0.071157046 0.37796575 -0.1346705 -0.026658744 -0.2914294 -0.053426374 0.2196816 0.26169336
0.09620832 0.3244127 -0.12577614 0.11977356 0.011181337 -0.10700833 0.29278228 0.14607179
0.35942942 0.24783431 -0.3655095 -0.12507729 0.32855994 0.06738383 -0.16814123 0.3218015
-0.31817475 -0.099729344 0.41071245 -0.1059692 -0.051203694 -0.17734367 0.23137502 -0.26927024
-0.25022295 0.18724664 0.39545137 0.18915346 -0.4483302 0.33353284 0.41696003 0.20853406
-0.31771752 -0.27274695 0.26195955 0.26754323 -0.60472167 0.30596957 -0.33593085 0.21078628
-0.27625006 -0.1509278 0.16405205 -0.23200163 -0.42878732 0.29393905 -0.2725889 0.2525884
-0.38145277 -0.05165813 0.06998057 0.16773997 -0.20964848 0.42183813 0.5990118 0.572804
-1.2964671 -0.32105723 -0.11562788 0.27724177 -0.20666619 0.11819969 -0.817437 -0.10954932
0.43705875 0.010085196 0.2109228 0.27731976 0.5563521 -0.26931667 -0.07180325 0.27340266
0.16772388 -0.09787497 0.14516537 -0.0074334815 0.06586461 -0.25097334 -0.097917534 -0.13786972
0.2717058 0.18173915 0.24131328 0.32129276 0.42598256 -0.09378966 0.18912181 0.34014422
-0.3970202 -0.365036 0.33120245 -0.36402258 -0.08671495 -0.045707673 0.44380987 0.34391764
0.4252005 0.36513653 -0.18830204 0.26121455 0.31278875 0.091605164 0.43600854 -0.012823856
0.102518946 0.24007595 0.015228339 -0.06772182 0.12666556 -0.21073744 -0.043079056 -0.16124779
0.1582179 0.43187246 -0.65616834 -0.14836197 0.53255767 -0.37582538 0.34336153 0.08183008
0.06865698 0.014433895 0.49088973 -0.019493159 -0.07012826 0.4981794 -0.048388682 -0.08162613

fc2.bias f4 [32]
00000000: 760c 58bd ae91 e73d f9c1 233e 858b 183e
00000010: 86ef 963e c623 ca3d af0b b3bd c285 b1be
00000020: 1a5e 8c3e 6898 283e 9217 9a3e f8ff 1b3e
00000030: f3f7 b1be 409a 013d e9db b23e 043e 913e
00000040: b02a 363e d487 383e 107e 4f3e 8c8b 11be
00000050: 1585 c13e 287a 6b3e afd4 133e 3c77 723d
00000060: 2b6a 993e ab15 c3bd 2b6f 4cbe 1e26 343e
00000070: b995 a13e 70bb b43e 1d86 4ebe 0216 53be
-0.05274626 0.11307083 0.15991963 0.14896972 0.29479617 0.098701045 -0.08742463 -0.34672362
0.27415544 0.16464388 0.30096108 0.15234363 -0.34759483 0.031641245 0.34933403 0.28367627
0.17789721 0.18020564 0.20262933 -0.14213389 0.37796846 0.22995818 0.14436601 0.059195742
0.29963812 -0.09525617 -0.19964282 0.17592666 0.31559542 0.35299253 -0.20168348 -0.20613864

fc2_1.weight f4 [64, 32]
00000000: 5245 1dbe 84af 3abf d792 1d3e f94e 6bbc
00000010: c306 8e3c 7b15 043e 5e52 e53e ed9c 1f3e
00000020: 6899 133e 5a29 97bd 036c 5a3e 9cd5 91be
00000030: 5636 463d 4872 32be 204c ad3d de60 7abd
00000040: e673 37be dca0 40bc 94c2 91bd b3b6 6d3e
00000050: 9e0c 1a3e f556 0d3e 8df1 d5bd 9a58 1b3f
00000060: a40f 52be c07f fd3d 9250 e1bd 018a e43d
00000070: 669b 533d 4881 203c bbe5 30be dfbc 573e
00000080: 37c2 8cbd 1206 603c 1388 1dbe f0ec 2abe
00000090: 6642 d5bd e2c9 c5bd 2e0d 1ebc 1fb0 e2bd
000000a0: 4615 903d 5687 653c e7ea 3b3d 520f babd
000000b0: 47e9 ee3d 22d4 e7bd 39ee 863d 6dab 01be
000000c0: e609 b53a 7705 12bd 675e 053e 56e1 13be
000000d0: d930 d63d 0bc7 b6bd 4f5d 36bc 37f9 88bd
000000e0: 2d77 c9bc 655c 853c dbfb 883d 83f7 eb3c
000000f0: 973f ef3d d197 33bd 493b 243e cc80 083d
00000100: bbd7 b43e b03a d33e eddc a1bd cb55 a9bd
00000110: ea80 db3d 1554 423c 8ef7 29bf 336f 8cbd
00000120: 5667 1dbd 57c9 183e e28a 133e cc36 573e
00000130: bd6c cabd a583 123e 04fb 313e 238e 4d3e
00000140: 2ee7 18bc 03dd a73d 6401 c4bc f714 4e3e
00000150: ef27 cb3d 05a5 b33e 5a50 e13d 58bb 1abe
00000160: a243 1fbe 2ce0 5b3c e212 d93d dc8d dd3e
00000170: 9218 0ebc b54b 953d b9f8 0dbe b2ae d93d
00000180: 6dd2 a2bd 62ce c23e cfeb b23d 8fe9 cd3d
00000190: 6236 20bd 45f0 2bbd 13f2 42bf 36de 00be
000001a0: 03b7 69bd fda2 533d 4e30 543d 74cf ed3d
000001b0: f46b 6e3c fdc2 aa3e 44ba 99bd 84df 333e
000001c0: cd8e bdbd 34c8 553e 7fde 1bbe 982f 1b3d
000001d0: 0675 113e 33f3 7dbd b2aa 81bd ee1a 84be
000001e0: d88d 663e 8882 883d a7f3 373e cf5e cc3d
000001f0: 98d8 193e a3be 23bd 9f6c 833e eaa9 87be
00000200: 2d28 aa3d 2a29 963d 6d80 82bd ae1e e9bd
00000210: fd70 79bd 64f5 4cbe 4670 a0bd fa33 243e
00000220: 909d 68bd 9cb8 903d 8491 8d3d 8b1a 903d
00000230: 9e25 d53c 712c bc3c 280c 49be 3b74 a13b
00000240: 85dd 3dbe 4962 963d 3101 1b3b cbd0 fe3d
00000250: d614 233d f2ff 323d 01d1 b1bb b671 8cbd
00000260: e6b3 a0bc 823c 233e 0b07 14be 1760 f03d
00000270: 8b8c d4bd e4a8 8fbd 5303 f2bc 3429 0a3e
00000280: 42b7 043f 28a1 af3e 0eac 6e3e 7fdf df3c
00000290: 7132 573d f45f 23be a6e5 6abf 2555 31be
000002a0: b8de 09bd 1517 5ebc 3caa bc3d d6ca 153f
000002b0: 5476 f23d c70e 05be 655f 8f3d 529c 573e
000002c0: a5ae 31bd 8711 e3bb cdcf 59bd 7820 3d3e
000002d0: 470d 653d 54cf 8a3e bdf1 1f3e bea1 ddbe
000002e0: 8b64 90bd aa2e 013e 7a6a 43bb 1180 5f3e
000002f0: fdf8 dabd 5c16 0b3e dcbb 4e3e aabf 6fbd
00000300: 4ece 6b3c ab20 053e f9ee 153e 6c33 e83c
00000310: 3cf6 483d b879 d4bc 823f 913d d693 a7bd
00000320: 4e72 d8bd 6b6e f9bd 588d 043e 57d5 dbbd
00000330: a81e c0bd 0a51 18be 8068 69bb cc41 eebb
00000340: a5d0 3ebe b428 413d b26c 303d e55b bf3d
00000350: 25bf 69bd 15b6 943d 25fd 39be 8262 213e
00000360: 0e1a 1d3e c173 33be aa1e 893b 6077 2cbd
00000370: 1694 91bd c233 0d3d 75cb 0b3e 8f1c 0ebe
00000380: 64fb bfbd 665e 24bd 99aa 6abd cdb7 6cbd
00000390: b814 fcbd 38a4 d83d 4500 f1bd 89d7 673d
000003a0: 4a47 02be 7e94 80bd 5780 dfbc 5556 df3d
000003b0: a981 0cbd b1b0 6bbd 7605 b43c 0db8 0abe
000003c0: 82cb b23c 6e60 963d 74e6 933d de61 f6bd
000003d0: 66b6 343e 202d 6b3d ca13 b7bc 8b05 31be
000003e0: 1b50 56bd 0aea 19be 403e 173d c5e6 4c3c
000003f0: 1d7e 123d 346d 23be 4847 d33d a240 f03d
-0.15358475 -0.72924066 0.15388046 -0.01436209 0.017337209 0.12898819 0.44789404 0.15587206
0.14413989 -0.07380934 0.21330266 -0.28483284 0.048391663 -0.17426407 0.08461785 -0.061127536
-0.17915305 -0.011757102 -0.07117191 0.23214225 0.15043876 0.13802703 -0.10446463 0.6068207
-0.20513779 0.12377882 -0.11001696 0.11159135 0.05166187 0.009796448 -0.17275135 0.21068142
-0.06872981 0.013673322 -0.1538394 -0.16691947 -0.10413055 -0.09657647 -0.009646697 -0.11068749
0.070353076 0.014009317 0.045878317 -0.09084953 0.11665588 -0.11319758 0.06588406 -0.1266305
0.0013812154 -0.035649743 0.13024293 -0.14441428 0.10458536 -0.08924683 -0.011130645 -0.06688159
-0.02459296 0.016279409 0.066886626 0.028804546 0.11682051 -0.043845955 0.1603824 0.033325955
0.3532084 0.41255713 -0.079034664 -0.08268317 0.10717948 0.011860867 -0.66393363 -0.06857147
-0.038428627 0.14920555 0.14408448 0.21016997 -0.098840214 0.14308031 0.17380911 0.20073752
-0.009332461 0.081964515 -0.023926444 0.20125185 0.09919726 0.35086837 0.11001654 -0.15110528
-0.15553144 0.013420146 0.10599305 0.43272293 -0.00867285 0.072898306 -0.13864411 0.106290236
-0.07950292 0.38048083 0.08736383 0.100543134 -0.039114363 -0.041977186 -0.76150626 -0.12584767
-0.0570593 0.05166911 0.05180388 0.11611834 0.014552105 0.3335189 -0.075062305 0.17565733
-0.09255753 0.20877153 -0.15221594 0.037887186 0.14204797 -0.06199951 -0.06331386 -0.25801796
0.22515047 0.06665522 0.1796404 0.09979021 0.1502403 -0.039976727 0.2566881 -0.26496822
0.08308444 0.0733207 -0.063721515 -0.11382805 -0.06089877 -0.20015484 -0.078339145 0.16035452
-0.05679089 0.070664614 0.069125205 0.07036313 0.026018914 0.02297041 -0.19633543 0.004927186
-0.18541534 0.07342965 0.0023651833 0.12442168 0.039814793 0.04370112 -0.0054265265 -0.06857626
-0.019617032 0.1594105 -0.14455812 0.11737078 -0.10378369 -0.07014635 -0.0295426 0.1349228
0.5184213 0.3430264 0.23307821 0.02732825 0.05253834 -0.15954572 -0.91756666 -0.17317636
-0.033659667 -0.013555308 0.09212157 0.5851263 0.118389755 -0.12993918 0.07000617 0.21055725
-0.043379445 -0.0069295797 -0.05317669 0.18469417 0.055920865 0.27111304 0.1561956 -0.43287462
-0.07050427 0.12615457 -0.0029818104 0.21826197 -0.10692022 0.13582748 0.2018885 -0.058532394
0.014392449 0.13000743 0.14641942 0.028344832 0.049062952 -0.025936946 0.07092191 -0.08182494
-0.10568677 -0.12179264 0.12944543 -0.10734051 -0.09380847 -0.14874664 -0.0035615265 -0.007271027
-0.18634279 0.04715796 0.04307241 0.09343699 -0.057067055 0.07261292 -0.18162973 0.15760234
0.1534197 -0.17524625 0.0041845636 -0.042106032 -0.07108323 0.03447319 0.13651831 -0.13878082
-0.09374121 -0.040129088 -0.0572916 -0.057792474 -0.12308639 0.10578197 -0.117676295 0.056602035
-0.12722507 -0.06278323 -0.027282877 0.109051384 -0.03430334 -0.057541553 0.02197526 -0.13546772
0.021825556 0.07342611 0.0722169 -0.120303854 0.17647704 0.05741608 -0.022348303 -0.1728727
-0.05232249 -0.15030685 0.0369246 0.012506192 0.035764802 -0.15959626 0.1031633 0.11731078

fc2_1.bias f4 [64]
00000000: ec53 80bd aaa3 03be 1645 6d3d 208c 813d
00000010: 1ad2 17be efc5 5d3e 26fd 89bd ddd2 febd
00000020: f4fc 26be d042 2fbe ecc7 abbc 240e 2cbd
00000030: e7dd 28bc 2195 a8bd e6b0 4e3d d61e bc3c
00000040: 3c71 233e ea1e 783d 7e44 d13d d5db 08bd
00000050: de3a 9fbd a606 1f3e a1dc de3d fb56 853d
00000060: 45f1 423e e6d6 0abd 2b5e a1bd 0a87 a13d
00000070: 1cf8 b03d 8901 f93d d0c9 1b3e 68c9 c03d
00000080: a69e 653d a231 233e b174 cc3d 739d 00be
00000090: 145a 11bd 1def 29bd 99b8 c73d cbce 123c
000000a0: 40c9 b8ba c039 253e 3420 1b3d 4ce1 453d
000000b0: c7a3 623e d35b 5f3e 2fd6 eabd 2f74 ecbc
000000c0: 7bd5 383e 840d bebd ed5c 52bc 6f73 863d
000000d0: bd4d 183e c3be c33d 29f3 8d3d 67ee 53bd
000000e0: 2c65 26be 9afd 7d3e df90 18be 6125 4abd
000000f0: a4c9 ea3d 2995 f1bd 64ca 5a3e 0eb8 c53c
-0.06266007 -0.12855402 0.057927214 0.06325555 -0.14826241 0.21657537 -0.06737737 -0.12442563
-0.16307431 -0.1711533 -0.020969354 -0.042005673 -0.010306812 -0.08231569 0.050461672 0.022963922
0.15961164 0.060576357 0.10218142 -0.033412773 -0.077749 0.1552988 0.108819254 0.06510731
0.1903735 -0.03389635 -0.07879289 0.07887085 0.08641073 0.12158496 0.15213704 0.09413415
0.056059502 0.15936902 0.099831946 -0.12560062 -0.035486296 -0.0414878 0.09752006 0.008960436
-0.0014098063 0.16135311 0.03787251 0.048310563 0.22132789 0.21812372 -0.114666335 -0.028863994
0.18050186 -0.09279922 -0.012839538 0.06564986 0.14873405 0.09557869 0.06931145 -0.05174103
-0.16249532 0.24803773 -0.14899014 -0.049352054 0.11464241 -0.11796028 0.21366268 0.024135616

fc2_1_1.weight f4 [64, 64]
00000000: 0363 29bd 184b 813d abe6 e33d b0fb 0c3e
00000010: 2cda 1ebb 93f5 823d 8a48 953d 3218 dc3d
00000020: 814c 05bf 90e2 3b3c e3f1 cfbc 9a99 43be
00000030: d127 463d cf99 103c be01 1bbe 0932 303e
00000040: 13c9 953d 4624 c2bd b28d fb3c 3d71 65bd
00000050: 3fe4 ea3d f7ce 373d 0664 3ebe 34c9 233d
00000060: 4738 fdbd 94ea 2fbd e225 423d d6d6 cdbd
00000070: 4dad af3e 2acb a1bd 494b 42bd 011c c33d
00000080: a045 f4bc 1f10 203e e8ff 9dbd 185b bfbd
00000090: 055a d43d 3876 313e 2769 87bd b549 de3d
000000a0: 81b6 a33d 0017 09bd 1603 08be 0bba 5f3e
000000b0: ff53 ce3d d5c1 a83d 1094 97bc fab0 9d3d
000000c0: 751b d4bb ee34 1f3e 913c bf3d 0383 223d
000000d0: 2adf 31bc f09e 7c3d d2df 0fbe a64d a6bd
000000e0: 0010 93b8 61bd 1dbd 4cc1 6cbd 6791 e7bc
000000f0: 035b 433d 7427 1f3d 7c7e dbbd 70fb 2d3e
00000100: 00e6 253c 5c6c 183d b077 c2bd a83f d33d
00000110: 1842 e3bd 2cc3 b4bd e8e7 f83d 203b 1dbd
00000120: d012 f1bd c425 663d a07e af3d c2f0 a03d
00000130: 1c4f 5b3d 66eb eabd a409 b53d d0cd 3c3d
00000140: 1407 0fbd b0be 283d 9ca4 13bd 18f1 8ebd
00000150: 30d3 1fbd 7021 593d a8e7 1cbd 9cd2 163d
00000160: c800 d93d 9495 12bd 0070 83bd f497 d8bd
00000170: 82d9 a6bd 1c30 5c3d 4891 c13c ec45 14bd
00000180: ecfc c53d a0d3 a23c eae5 88bd 86ba f03d
00000190: a422 2fbd c84f eebc 68e2 66bd 40a8 39bb
000001a0: b00d 633d d491 fabd f0fd 4bbd 4020 edbc
000001b0: 308d c6bd 62cb bc3d 4a14 c6bd 3c75 c33d
000001c0: a07d f63b b01e e93c d4cb 6fbd b845 d0bd
000001d0: 2077 ad3b 8c0f 80bd 32e5 aebd 4e4b 873d
000001e0: 04d1 f1bd f2a1 e73d 08b9 d23c c637 efbd
000001f0: 9e14 97bd 945e 16bd 702d 3a3d 4006 7ebd
00000200: ff96 80bc 1857 8c3c bc0e 30bd 51fc c03d
00000210: 847c 52bd 9ad3 dabd 8e32 30bb f84b 183d
00000220: ee20 eabd 6e68 babd d061 cdbc f2d5 febc
00000230: 7739 b6bd 0723 8d3d d045 7ebd 99bb 03be
00000240: 7ef0 07bd 9eaa ca3d af91 a43c 0198 e7bd
00000250: 7bc0 c53d ff19 18bd 71ec 53bd 0c36 b43b
00000260: 03a4 74bd c45b 943d c78a 063d 2a76 c73d
00000270: e51e e9bb ac56 7bbd d447 b8bc c9e7 e0bd
00000280: 9430 193d 1537 90bd 7c47 d93d d614 b4bd
00000290: aa9f d3bd 038b 62bd 4086 cb3d 4d2a 5f3d
000002a0: 9d7f 5e3d b4d8 3e3d 35b2 6bbc 6608 b5bd
000002b0: 7fe4 523d 434b a63d 8a59 d2bd 957a 0f3d
000002c0: 4f35 993d af14 5f3d e979 963d 55d2 eabd
000002d0: 229f 7ebd f211 523d 2c63 1c3d 8c72 cf3d
000002e0: 5049 afbd f2d8 1f3d 9256 e8bd c94e 773c
000002f0: 7a8c eebd 800f d23b e794 b0bd 00a9 acbd
00000300: 9037 d03c 7e88 b33d 0ea3 d73d f392 29bd
00000310: d8f0 eb3d 0e93 b5bd 8007 ffbb 4acc c2bd
00000320: c8d6 b7bc 2ae2 9cbd 2475 883d 36ca d23d
00000330: 7872 9dbd 4f72 8a3c 00ea cc3a 274d 8b3c
00000340: 00d6 a93d 66ad fa3d e02c 05bd 627a d43c
00000350: 996f 3ebd efcc 613d 882d e3bd fd6f 393d
00000360: 191a c43d f0c0 b43d 5a8e f5bd 40eb d6bd
00000370: 92f6 a6bd e0ed 723d ca25 c0bd ea81 88bd
00000380: ea20 cf3d a057 583d 6883 483d 20c8 453d
00000390: 9899 a8bd 2af7 9d3d 8aa9 e0bc f406 b63d
000003a0: e8f3 8bbd 7203 6dbd 249a 05be 202b c6bd
000003b0: 00dc d5bb d813 493d 065f f0bd 40bd abbb
000003c0: a036 6b3d 6858 fabd 3fe6 803b 74f0 18bd
000003d0: aff1 a63c 4a87 fdbd 1dea 873d 3aeb e0bd
000003e0: d877 263d 4e82 96bd aa46 8d3d 2aca 94bd
000003f0: 6511 a93b 0cfd 1dbd 83df 81bd 75cf 0abc
-0.04135419 0.06313151 0.11127981 0.13767886 -0.0024238927 0.06394496 0.07289226 0.107468024
-0.5206986 0.011467591 -0.025383895 -0.19101563 0.048377816 0.008825733 -0.15137383 0.17206587
0.073137425 -0.09479575 0.030707214 -0.056016196 0.11469316 0.04487511 -0.18592843 0.039986804
-0.1236425 -0.04294832 0.04739941 -0.10050742 0.34311906 -0.079000786 -0.04743508 0.09526826
-0.029818356 0.1563115 -0.07714826 -0.09343547 0.10368732 0.17330253 -0.06611853 0.10853902
0.07993794 -0.0334692 -0.13282427 0.21848314 0.10074615 0.082400955 -0.018503219 0.07699771
-0.0064729997 0.15547535 0.09337724 0.039675724 -0.010856429 0.061675012 -0.14050224 -0.08120279
-7.0124865e-05 -0.038510684 -0.05780153 -0.028267575 0.047694217 0.038855985 -0.10717484 0.16990447
0.010125637 0.037212715 -0.09495485 0.10314876 -0.11096591 -0.088262886 0.121536076 -0.038386464
-0.11771166 0.05618836 0.08569074 0.07858421 0.05354224 -0.1147068 0.088397294 0.046094716
-0.03491886 0.04119748 -0.036045656 -0.06979579 -0.039019763 0.053010404 -0.038306862 0.036821947
0.10595852 -0.03578718 -0.06417847 -0.10575858 -0.08146955 0.05375682 0.023628846 -0.036199495
0.09667382 0.019876301 -0.066844776 0.117543265 -0.042757645 -0.029090777 -0.05636826 -0.0028329045
0.055432975 -0.12234846 -0.04980272 -0.028946042 -0.09694898 0.0921848 -0.096718386 0.09543845
0.0075223 0.028457016 -0.058543995 -0.10169548 0.005293742 -0.06252965 -0.08539809 0.0660616
-0.11807445 0.113101855 0.025722995 -0.1168056 -0.07376979 -0.03671129 0.04545349 -0.06201768
-0.015697 0.017131373 -0.0429828 0.094231255 -0.05138828 -0.10684891 -0.0026885602 0.037181824
-0.11432062 -0.0910195 -0.025071055 -0.031107876 -0.08897679 0.068914466 -0.062078297 -0.12864532
-0.033188336 0.09895824 0.020088999 -0.11308289 0.09655853 -0.037134167 -0.05173916 0.005499607
-0.059726726 0.072440654 0.032847192 0.09739335 -0.0071142786 -0.061361954 -0.022495188 -0.109817095
0.037399843 -0.07041756 0.10609338 -0.08793037 -0.10333188 -0.055308353 0.099377155 0.0544837
0.05432092 0.046593383 -0.01438575 -0.088394925 0.051487442 0.08119824 -0.102709845 0.035029013
0.07480871 0.054463085 0.07347471 -0.11465899 -0.06216348 0.051286645 0.038180515 0.1012927
-0.08558905 0.039025255 -0.11344637 0.015094467 -0.116478875 0.006410539 -0.08622151 -0.08430672
0.02541712 0.08766268 0.10529147 -0.041399907 0.11520547 -0.08865939 -0.0077828765 -0.09511621
-0.022441283 -0.07660325 0.06662968 0.10292475 -0.07687849 0.01690021 0.0015633702 0.017004563
0.082927704 0.122401044 -0.0325135 0.025937263 -0.046493147 0.05512708 -0.11092669 0.045272816
0.0957529 0.088258624 -0.11990042 -0.10494089 -0.08152498 0.059308887 -0.09382208 -0.06665404
0.101137 0.05281794 0.048953444 0.048286557 -0.08232421 0.077131584 -0.027424593 0.08888045
-0.06833631 -0.057864614 -0.13047081 -0.09676194 -0.00652647 0.04909119 -0.11736874 -0.005241066
0.05742514 -0.122238934 0.0039336975 -0.03733869 0.020378916 -0.1237932 0.066364504 -0.10982366
0.040641636 -0.073490724 0.06898244 -0.07265122 0.0051595443 -0.038571402 -0.063414596 -0.008472313

fc2_1_1.bias f4 [64]
00000000: dc6f c53d d2f2 fabd 105e 673d ed97 543d
00000010: dfe8 2b3e 1c2d efbd 50c1 bd3d 5108 b83d
00000020: f008 ffbd 3de2 f33d 6b08 3e3e 4146 ae3d
00000030: e04b a83d 06ff 4a3d b539 8ebd be09 243e
00000040: 2950 d93a 01f3 803c cedb d8bd 2b44 a13d
00000050: d4b9 1a3d 3b0f 993d bbba ec3d 2d1c b3bd
00000060: b256 60bd 78ac eebb 984b fd3d 3e24 2a3d
00000070: 35b0 c73d 5bd8 2abe 07e8 c73d 92c6 bc3d
00000080: e082 d53b 787d e43d fe03 523e d74c 5d3c
00000090: 2aab 19be bc55 ffbd be62 023d 9e8d 233d
000000a0: 3ecb 773d 07c2 19bc 6eb8 d23d e827 fd3d
000000b0: 8659 b23d 3860 9abd b375 aa3d e09f 0dbe
000000c0: 9064 1f3c af47 1bbc 8e62 78bc 3dab c53d
000000d0: fbfd d03d 2ebe 503c 0222 6bbd 4ccd 13bd
000000e0: 9647 d13d c20d d43b d940 843d 4188 463e
000000f0: 5aaa f4bd 5f47 9dbd 00f0 02bd e986 393e
0.09640476 -0.122533455 0.05648619 0.0519027 0.16788052 -0.11678526 0.09265387 0.08985961
-0.124528766 0.11908386 0.18557899 0.085094936 0.08217597 0.049559616 -0.069446005 0.16019341
0.0016579676 0.015740873 -0.105887994 0.0787433 0.037774876 0.07473608 0.115590535 -0.087456085
-0.05477018 -0.0072837435 0.12367934 0.04153847 0.09750406 -0.16684096 0.097610526 0.09217562
0.0065158457 0.11156744 0.20509335 0.01350709 -0.150067 -0.124675244 0.03183245 0.03992998
0.06049656 -0.009384639 0.102890834 0.12361127 0.087084815 -0.075378835 0.083232306 -0.13830519
0.009728566 -0.00947754 -0.015160216 0.09651802 0.10204693 0.012740655 -0.05740548 -0.03608446
0.10218732 0.0064713666 0.06457681 0.19387914 -0.119465545 -0.076796286 -0.031967163 0.1811787

fc2_1_2.weight f4 [32, 64]
00000000: d540 d0bb b253 e3bd 0e2c d5bc 7e92 abbc
00000010: 69ed f6bc 3a5b 49bd 17b0 c0bd bcad 99bd
00000020: 542c 2c3d 98b1 0c3e 8e9d 773e 6b72 05be
00000030: 5ef6 2f3e c2c6 153e 8bb7 a4bd 6b9d 903d
00000040: 3bb7 e63d e0e0 e9bb 60d1 203c b8c4 033e
00000050: 865d af3a 4c08 8bbc bb8b 0f3e c073 edba
00000060: c757 453c 8af9 613c f954 1cbe 42a5 bdbd
00000070: 7713 67be a84a 3c3e 7e01 32bd d0dd 513c
00000080: c849 9a3c 18a3 bf3c b4b9 5f3e cb02 dbbc
00000090: 69ba 03bd f2e6 9abd a370 b9bc 509a 6e3e
000000a0: 3dda 84bd 7e26 403e c292 5ebe 892e cc3b
000000b0: d3a2 1f3c 8a9e f8bd 2a73 5c3e 036a 463c
000000c0: 1080 843d 607f 3bbe 9474 863d 4789 84bd
000000d0: 2e53 b63b ebc7 723d 674a ab3d 58d7 db3c
000000e0: a27a 763e 1bc6 2e3d fe7c 07be 4679 9a3d
000000f0: 9195 9e3c 34d7 10be 9a2e bcbd b00c 57be
00000100: c5ef 1bbe 3498 7cbd 95f2 b33d d371 bd3d
00000110: 5389 8cbb 57b5 023c 3d81 d5be db4d f8bd
00000120: 4ca2 3ebd a5ac 403e 55f4 ba3c db3f 38be
00000130: 6fb8 203e 99d0 8f3d 8130 8bbe 1e77 76bd
00000140: 274d 543e b75d 193e 00c4 8b3b a1aa cd3d
00000150: bcaa a8bd e60c b0bc dbb4 7e3e b0ee ecbc
00000160: 45cd 58bd 28f1 0ebe 2a88 74be 4459 98be
00000170: 0622 7dbe 5285 af3e 1c98 eebe 6cd8 7cbd
00000180: 4e19 eabd 01be 9fbe 302f f23d 77e8 2bbd
00000190: 892b fbbe 0cda ac3d 9aab c2bd f9f7 fb3d
000001a0: 1dd2 77be 8aa1 aa3d 3429 a1bd 5cc8 5dbe
000001b0: cd40 9cbe 805c 58bd 7aad 643e ccd0 133e
000001c0: b498 d23d cf3e 00be 637e acbc f479 33be
000001d0: 57ed 7ebd a0b3 723d 7304 dd3d 8eae acbd
000001e0: bc1f 9abc b940 f7bd 822c 17bd f97d 8f3e
000001f0: 46d5 d83d 307d 9fbe da80 a4bd a4ea 03bd
00000200: 66c7 3f3e 803b 853b 142d 913d 00fc 983a
00000210: 4827 193e 4a1b b83d 121c 423e 64ae 443d
00000220: a08b f03d d572 d3be 76d6 bebd 9196 4b3e
00000230: 6df0 fd3c cb38 c1bd d1bb 093e 11d8 38bc
00000240: bb7a a8be 1a3f 8cbe eccc 29bd 5ade b3be
00000250: c08d 2dbd 88fb c6bc 2935 19be ff53 96bd
00000260: a8d4 4b3d d5ec b93d 4c2f f13d 881d 113d
00000270: 7e60 8a3d 20a0 10bc 6d3e a83d 3620 d73d
00000280: 5a74 f5bd f04d 693d 34e9 a5be 70eb 8b3d
00000290: 07bb 8b3e 68ad 3a3d 6ff4 a1bc 2142 5fbe
000002a0: a42b 4b3e a862 a2be 8da4 893d 6daa cf3d
000002b0: a4eb fa3c 36b7 d83d f9f3 b1be 9a4d 69bd
000002c0: c09c 123c 020c eb3b 24f8 c63d cb97 193d
000002d0: f478 0cbc 37cf 8dbe c661 f63d 2604 c83d
000002e0: 946a 73be a815 763d 63a2 813e a884 233f
000002f0: 3436 ccbd 3042 0f3e 74bf f63d 3eb1 f93d
00000300: f27f 963c a41e 003d 65f6 343c 901d 49bd
00000310: f22d c2bc 14d2 afbd aa07 2f3e 4d1a a8bd
00000320: 8848 163d a0de 87be 1133 22be 2ea1 4bb9
00000330: 7957 d6bc 3ddd 90be c6ff 183e 4907 613d
00000340: 556d 94be d1a1 a8be dcd5 cd3d 7cc9 80be
00000350: 697c d73d 6ac9 e1bd 6a30 57be 651e 1e3c
00000360: 9e9b e5bd f432 3f3e 105b 57bc f126 cfbc
00000370: c958 4bba 3c21 103d f188 0d3e 94ea 1a3d
00000380: a226 ab3d b39d f83d 03f7 6abe 407a 9b3d
00000390: e903 883c 40a2 f33c 40de 573d 0356 83be
000003a0: ab6a 913b 5f78 85be 9b94 543d 725f beba
000003b0: 749a 593d 88ed 993d d962 90be 3d7d eebd
000003c0: 00d9 cb3d 0e96 d5bc f8a1 0fbd f388 313e
000003d0: 66da b0bc 89ec 92be 3d51 61bd dafe dcbd
000003e0: a215 55be 5413 8bbb fc4a 333d c30e 18be
000003f0: 70fd f73d 16b3 193e 7a9d df3d 8702 043e
-0.006355385 -0.11099948 -0.026021983 -0.020943876 -0.030142503 -0.049159266 -0.094085865 -0.0750384
0.042034462 0.13739622 0.24181196 -0.13031928 0.17183825 0.14626601 -0.080428205 0.07061275
0.11265417 -0.007137403 0.009815544 0.12868011 0.0013379313 -0.01697173 0.14018147 -0.0018116161
0.0120448535 0.013792405 -0.1526679 -0.09260036 -0.22566019 0.18387854 -0.043458454 0.012809232
0.01883401 0.023393199 0.21848184 -0.02673473 -0.032160196 -0.075635806 -0.022636717 0.23301053
-0.06486938 0.18764684 -0.21735671 0.0062311334 0.00974341 -0.12139614 0.21528307 0.012110236
0.064697385 -0.18310308 0.06565204 -0.06471496 0.005564115 0.059272688 0.083638005 0.026836082
0.24070218 0.042669397 -0.13231274 0.07542662 0.019358428 -0.14144593 -0.09188576 -0.21000934
-0.15228184 -0.06166859 0.08786503 0.09250226 -0.0042888313 0.007977805 -0.41700163 -0.12124225
-0.046541497 0.18815859 0.022821585 -0.17993109 0.15695356 0.07022209 -0.27185443 -0.060172193
0.20732556 0.14977156 0.0042653084 0.100423105 -0.0823569 -0.021490525 0.24873678 -0.028922409
-0.052930135 -0.13959181 -0.23880067 -0.29755604 -0.2472001 0.34281403 -0.46600425 -0.061729833
-0.11430608 -0.3119965 0.118254066 -0.041969743 -0.49056652 0.08440027 -0.09505387 0.123031564
-0.24201246 0.083315924 -0.07869187 -0.21658462 -0.3051819 -0.05282259 0.22331801 0.14435118
0.10283032 -0.1252396 -0.02105636 -0.1752699 -0.062238064 0.059253335 0.10791864 -0.08431731
-0.01881396 -0.12072892 -0.03690768 0.28025797 0.10587554 -0.31150198 -0.08032389 -0.032206193
0.18728408 0.004065931 0.07088676 0.0011671782 0.14956391 0.0898958 0.1895602 0.048017874
0.11745381 -0.41298547 -0.09318249 0.19881655 0.030998433 -0.094346605 0.13450553 -0.011281983
-0.32906136 -0.27391893 -0.041455194 -0.35130578 -0.04237151 -0.024289861 -0.14961685 -0.0734024
0.04976335 0.09078375 0.11776599 0.035428554 0.06756686 -0.008827239 0.08215032 0.105041906
-0.11985083 0.056959093 -0.32404482 0.068320155 0.27291128 0.04557553 -0.019769875 -0.2180257
0.19840866 -0.31715894 0.06720839 0.10139928 0.03062994 0.1058182 -0.3475645 -0.056958772
0.008948505 0.0071730623 0.09715298 0.037498277 -0.008573759 -0.27697155 0.120303676 0.09766416
-0.23771125 0.060079247 0.25319204 0.6387429 -0.09971276 0.13990092 0.120482355 0.121920094
0.018371556 0.03127922 0.011045073 -0.04910046 -0.023703549 -0.08584991 0.17092767 -0.082081415
0.036690265 -0.26537037 -0.15839793 -0.00019419633 -0.026164757 -0.2829379 0.1494132 0.05493859
-0.28989664 -0.32935956 0.10050556 -0.2515372 0.10521776 -0.11024745 -0.21014562 0.009650801
-0.11211322 0.18671781 -0.01314427 -0.025287123 -0.00077570655 0.035187945 0.1382177 0.037821367
0.08356978 0.12139454 -0.2294579 0.07591677 0.016603427 0.029740453 0.05270219 -0.2565156
0.0044377646 -0.26068398 0.051899534 -0.0014524295 0.053125814 0.075160086 -0.28200415 -0.11644981
0.09953499 -0.026072528 -0.035066575 0.17337398 -0.021588515 -0.28696087 -0.055009115 -0.107907966
-0.20809034 -0.0042442475 0.043772683 -0.14849381 0.12108886 0.15009722 0.10918708 0.12891589

fc2_1_2.bias f4 [32]
00000000: 691e 8bbd 6d15 3f3e 76a5 f1bc 28a4 143e
00000010: e019 973d 316b 6a3c 1896 d2bc 36d8 0a3d
00000020: 268e 2e3e 475e 263e 38e4 3c3e 7889 04bd
00000030: 243d 173e 43a0 5c3e 83b6 d7bc be38 d7bd
00000040: 0fba 003e c0f0 aebd a82b cb3d d3d8 f83d
00000050: f326 553e c2a8 0c3e 30db 1d3e 65d9 4f3e
00000060: 15db 363e 4b21 203e 1484 b1bb 5356 bb3c
00000070: 2fbd f03c c979 76bb 5877 9fbc 601a 9d3c
-0.0679291 0.18660517 -0.029497843 0.14515746 0.07377982 0.014307783 -0.025706336 0.0338976
0.17046413 0.16246901 0.18446434 -0.032357663 0.14769417 0.2154551 -0.026332146 -0.105088696
0.12570976 -0.08542013 0.09920436 0.12150731 0.20815639 0.13736251 0.15415645 0.20297773
0.1785701 0.156377 -0.0054173563 0.022868311 0.029387085 -0.003760921 -0.019466087 0.019177616

fc2_2.weight f4 [16, 32]
00000000: f8bb aa3e ef14 46bf bc5b 1b3d 569d 893c
00000010: e028 9e3d e9f5 423e d589 16bf 7a4e 5a3e
00000020: 2b21 71bd ff94 903a 7381 28bf 7bc9 0fbe
00000030: 67a7 81bd 093e 3fbf 1395 ccbc 93ef 303e
00000040: a9ae 1ebd c71e 853e 96a8 22bf 9201 693e
00000050: 02e1 a4be b253 6a3e 83ca 873d 2ff9 e6bd
00000060: 0280 6cbe f2cd 48bf 275f 533e a3a7 7a3e
00000070: 94d2 d7be 82ba e73c d3d7 ebbe 4d18 4b3e
00000080: 6d32 dd3d b20d 2cbe 0aa0 d0bc f093 9abd
00000090: cdf3 30be f977 1dbe ffd4 97bc 1911 e43c
000000a0: cb34 2b3e 2396 1bbe 8cad 073e e285 2ebe
000000b0: bc6c 79bd fc75 96bd 069b 8f3d 79be 10be
000000c0: 5fb0 d2bd b64a a8bd aac5 13be 2e80 293d
000000d0: 746a ca3d 2895 13bd fc15 d33c 5c12 c0bd
000000e0: f83b 03bc d517 31be 441d 1bbe 0e63 d83d
000000f0: c908 053e 0ae3 04bd 233a 8fbb 4181 bebd
00000100: 0e32 f63d 8ff2 45be a924 8ebc 4166 36be
00000110: d3aa b33d 771a 73bd 9516 993d b2e9 123d
00000120: 1be1 ef3d 67e0 9fbe 4781 56be cd96 3e3e
00000130: cd9b 80bd 5f57 16be dfd0 cdbd e19d 183e
00000140: 9726 693e 54c0 3b3d 5f17 5dbe 5fbf 12be
00000150: 5a44 a7be 318b e23d 68a4 f63d ea38 29be
00000160: fc49 793e cd46 25bd 1f96 6dbd b836 6b3e
00000170: 8d4e 183e 4bb1 5a3d 7a3e 80be 871c f03c
00000180: ca64 583d 8ab9 c3bd dbff 12be 8b2d adbc
00000190: cf0d fbbd ef5a ffbd 3d2a fdbc 6177 04be
000001a0: 0edf cb3c fbf9 cf3d 0835 babd 2972 c9bb
000001b0: 44b2 413d c29c 083e 0272 193d e3e3 ca3c
000001c0: 0761 1d3d dc8b 44be f64b 49be 6c28 9cbd
000001d0: 922a 843d 0629 7c3d dfee 53bd 8ccc 55bd
000001e0: 326e 3bbe f6ec e03d 98d1 cc3d 973e 49bd
000001f0: e218 01bd 470b 00be 9814 d4bd 35cf 5dbd
00000200: e1a9 2b3e 81f8 89be b44e 96bd 2f7b 77be
00000210: a80a c6bd a07b 1e3d 92eb b83e 107c ce39
00000220: ad89 c73d ab88 9cbe 7ccc 1abe 7aef 173e
00000230: 9511 ecba fbdf 2cbe 8591 71be ca90 5d3e
00000240: 5143 6d3e 933e 1b3e 26e5 6fbe 479a 1ebe
00000250: 2176 a9be 6de5 6e3e 7d15 923e 865e 03bf
00000260: 3712 2f3e d2f5 02be 9baa 47bd 20d4 f13d
00000270: 0204 e53e ec7b 013e 8641 67be f0f0 3bbe
00000280: 85c4 33be e3c1 283d 5a1c 0f3d d790 613e
00000290: 84c1 2e3e d401 90bd 0305 d73e b888 4fbe
000002a0: 2b83 b0bd b29b ff3c 475e 38be 4ac8 f3bd
000002b0: ae50 383e e13b 1ebe 019b 96bd 2566 ce3d
000002c0: 3962 ba3d 5dc8 513b 8fe5 c7be 4c3a 043e
000002d0: 377a b8bb 3c96 1ebe 2609 223d def3 643e
000002e0: 986e 1abd 2bf7 6cbe 7511 d83d fe1d e9bd
000002f0: a3de 01bd 6660 573e 307d b5be 1860 493e
00000300: 49f4 e23d 2748 173c 3412 043e 5cd6 3d3e
00000310: 7351 f53d 7488 0a3e ce23 903d 9ee7 abbd
00000320: 4708 3c3e de5b 4b3c 9c49 cdbd bb84 9e3d
00000330: 6c2c 8a3d fd53 05bd df99 bd3d 628c 40bc
00000340: f8b0 6b3d 4421 ae3d d459 bcbd 684d 8fbd
00000350: 7871 32be d1c3 153e 3764 833d 07e2 35be
00000360: fe22 febd d7b4 e2bd 1e63 2f3e e8b9 123e
00000370: 23bf 5dbd e81e fbbd cb63 1d3e 7828 98bd
00000380: 0a08 623e 82d5 223d f386 ec3d 4e24 663d
00000390: 8b3d 61be da84 c2bb 153c b5bd ee2b 1e3e
000003a0: 6424 35be 633f 7ebd fac2 893e 8222 3e3e
000003b0: c9fe de3d bb4d db3d 50d3 b4bd 698e b53d
000003c0: a32a 9b3d 2939 1b3e 616f 323d cfea 16bd
000003d0: a508 29be 02ea b7bd deb1 1c3e 7578 78bd
000003e0: def8 1ebb 7770 93bc ab1b 24bd 28f5 3b3e
000003f0: 0a0b dcbd 5009 60be 8d1e 2a3e e613 ecbd
0.33346534 -0.7737569 0.03792928 0.016798656 0.0772264 0.1903912 -0.58804065 0.21318999
-0.058869522 0.0011030732 -0.65822524 -0.14041702 -0.063307576 -0.74704033 -0.024973428 0.1727889
-0.038740788 0.26000044 -0.6353849 0.22754505 -0.32202917 0.2288349 0.06630423 -0.11277997
-0.23095706 -0.7843925 0.20641766 0.24478011 -0.42152846 0.028287176 -0.46063098 0.19833489
0.108006336 -0.168021 -0.025466938 -0.07547748 -0.17280503 -0.15377797 -0.018534182 0.027840184
0.16719358 -0.15193991 0.13249797 -0.1704326 -0.060894713 -0.073467225 0.0701199 -0.1413516
-0.10287546 -0.08217375 -0.14430872 0.041382007 0.098835856 -0.03603092 0.025767319 -0.09378502
-0.008009903 -0.17294247 -0.15147883 0.10565768 0.12991633 -0.032443084 -0.004370944 -0.09301997
0.12021266 -0.1933081 -0.017351465 -0.17812444 0.087728165 -0.05935141 0.0747501 0.0358674
0.11712857 -0.31225893 -0.20947753 0.18612213 -0.06279717 -0.14681767 -0.100496046 0.14903976
0.22768627 0.045837715 -0.21590947 -0.14330815 -0.32669336 0.11061705 0.12043077 -0.16525617
0.24344629 -0.040350724 -0.058004495 0.22970092 0.14873715 0.053391736 -0.25047666 0.029310478
0.052830495 -0.09556873 -0.14355414 -0.02113988 -0.12258493 -0.12468516 -0.03090393 -0.12936164
0.024886634 0.10155102 -0.09092146 -0.006147642 0.047289148 0.13341048 0.037462242 0.024766868
0.03842261 -0.19193977 -0.19657883 -0.07624897 0.06453432 0.06156256 -0.051741477 -0.052197024
-0.18303755 0.10982697 0.10000914 -0.049131956 -0.03151787 -0.12504302 -0.103554904 -0.054152686
0.16764022 -0.26947406 -0.0733923 -0.24168085 -0.09670001 0.038692117 0.36117226 0.00039383816
0.097430564 -0.3057302 -0.15117067 0.14837447 -0.0018010611 -0.16882317 -0.23590668 0.21637264
0.2317021 0.15160589 -0.23427257 -0.1548854 -0.33097938 0.23329706 0.2853202 -0.51316106
0.17096792 -0.12789086 -0.048746686 0.11808038 0.4472962 0.12644929 -0.22583589 -0.18353629
-0.17555435 0.04120053 0.034939148 0.22027908 0.17066008 -0.07031599 0.4199601 -0.20266998
-0.08618768 0.031202171 -0.18004714 -0.119034365 0.17999527 -0.1545253 -0.073537834 0.10078076
0.09100766 0.0032010295 -0.39042327 0.12912863 -0.0056298035 -0.15486997 0.039559506 0.22358653
-0.037703127 -0.23141162 0.10550205 -0.11382674 -0.031706464 0.21032867 -0.35447073 0.19665563
0.1108175 0.009233511 0.12897569 0.18538803 0.11978426 0.13528615 0.07038079 -0.08393787
0.18362533 0.01241204 -0.100238055 0.0774016 0.06746754 -0.0325508 0.09257864 -0.01175222
0.057541817 0.08502439 -0.09196821 -0.06997186 -0.17426097 0.1462548 0.06415599 -0.17762004
-0.12409018 -0.11069649 0.17127654 0.1432873 -0.05413736 -0.12261754 0.15370099 -0.07429594
0.22073379 0.0397544 0.11549177 0.056186967 -0.21996133 -0.0059362473 -0.0884935 0.15446445
-0.17689663 -0.06207217 0.26906568 0.18567851 0.1088844 0.10708185 -0.08829367 0.08865053
0.07576492 0.15158524 0.04356325 -0.036845025 -0.16507204 -0.0898018 0.15302226 -0.06066175
-0.0024257223 -0.017997963 -0.04006545 0.18355238 -0.10744293 -0.21878552 0.16613217 -0.11527233

fc2_2.bias f4 [16]
00000000: 67a9 f7bd f7e5 8dbd bd45 843c 7eeb 50be
00000010: 243b 693e 20fa 323e 1bcb 233e e745 563e
00000020: 9a7c 7dbd ff25 65bc c03b aabd 16c0 2ebe
00000030: 0681 123e f523 003e 3fbd 133e c4db 5c3e
-0.12092858 -0.06928628 0.016146535 -0.20402333 0.22776467 0.17478228 0.15995447 0.20925103
-0.061886407 -0.01398611 -0.08312178 -0.17065462 0.14307031 0.12513717 0.1442766 0.21568209

fc3.weight f4 [4, 16]
00000000: 71b7 473f a8be 18bd 7eed 293f 6eb4 32be
00000010: 0d5c 123f 8df1 91be 4659 5b3e bb72 a8be
00000020: 3f6f 4e3f d80e aa3e fa7d 83be c04f 5e3d
00000030: 99fc 5abe 0b88 e6be b0bb ac3d e407 333f
00000040: e3d4 9f3e 207a 7ebd d492 7e3e 9d08 30be
00000050: 922b 243e f7c4 eebd 6f9d 093e 6dea 96be
00000060: 4d07 283d b89f 003f af5e 263e 3809 8c3d
00000070: 9f31 5bbe 653d 3bbe 640d 02be fd84 f63d
00000080: 847f 8f3e 4467 1d3e 4e4b 3e3e 4644 2bbe
00000090: 299b 103e caca c13a d2e8 913e f0bb 58be
000000a0: 098a 20bf cf1b e63e 0830 32bd 80ab 05be
000000b0: 18e7 803e 489e 833c b0c3 083c 44c0 1bbe
000000c0: 8d51 923e d018 6f3d 4976 603e 6b6e cabd
000000d0: 3688 873d edf2 91be 2741 a7be 89c7 503e
000000e0: ce6e a7be 46ce f6bd dd0c 6a3e da65 1b3e
000000f0: 7a83 5f3c e8a3 95be d402 773e f384 2cbe
0.78014284 -0.0372912 0.6637801 -0.17451641 0.5717171 -0.285046 0.21420774 -0.32900032
0.806385 0.3321445 -0.2568205 0.054275274 -0.21385421 -0.45025668 0.08434236 0.69933915
0.31217107 -0.062128186 0.24860698 -0.17190786 0.16032246 -0.11658662 0.13438962 -0.29475728
0.041022588 0.5024371 0.16247056 0.06837696 -0.21405648 -0.18285139 -0.1270042 0.12037084
0.28026974 0.15371424 0.18583414 -0.16725263 0.14121689 0.0014785167 0.2849794 -0.21165442
-0.62710625 0.4494309 -0.043502837 -0.13053703 0.2517631 0.016066685 0.008347437 -0.15210062
0.28577843 0.058373272 0.21920122 -0.09884342 0.06617777 -0.2850565 -0.32666895 0.20388617
-0.32701725 -0.12051062 0.2285647 0.15175572 0.013642186 -0.29226613 0.24122173 -0.16847591

fc3.bias f4 [4]
00000000: 8388 b7bd a7d1 96be c946 b7be d3e7 2c3e
-0.089615844 -0.29456827 -0.35796192 0.16885309
