drone_experiments/MATLAB/weights_NOM/NN_y_1.onnx (onnx, 39865 bytes, 14 tensors)

fc1.weight f4 [8, 3]
00000000: aede 053d 3618 14bf c660 d0be 6a76 07bf
00000010: 0488 b63d 381f 933e 8dc0 e83e 3b31 523b
00000020: 506e 65be 4ae3 be3e ff9c cdbe 6a82 eb3d
00000030: f3c6 57be 4a9b 993e 314d ac3e e980 1a3f
00000040: 1c56 c43e 8f62 733e 50b4 fabe 0f95 3a3f
00000050: 3448 2dbe ee63 533f 3387 04bf d4cd b3bd
0.032683067 -0.5784944 -0.40698832 -0.5291506 0.08912662 0.28734756 0.45459405 0.00320728
-0.22405362 0.37282783 -0.4015884 0.11499484 -0.21071987 0.3000129 0.33652642 0.6035295
0.38346946 0.23768066 -0.48965693 0.72883695 -0.16922075 0.82574356 -0.517688 -0.08779493

fc1.bias f4 [8]
00000000: 74c5 e8bd 4f00 f23e 4ef6 e93e b979 9d3e
00000010: 6817 a2be 06e3 573e 3286 55be 5010 1a3d
-0.11365786 0.4726586 0.45695728 0.3075693 -0.31658483 0.21082696 -0.20851973 0.037613213

fc2.weight f4 [32, 8]
00000000: 5a75 753e f81b ed3e 3d1c c03c 1d7e 9cbe
00000010: f9c3 1bbf 899f 27be 443f 923e 70a9 2fbf
00000020: 868b d5be 15e6 a93e a7ea 9d3d 622e 7bbe
00000030: 497a e13e 699d 1abf 1abd 3cbe af94 d53c
00000040: 35ae 70be 80b4 8abd fc17 a43e 80b5 34bd
00000050: 0c1e 03bf 58e0 433e 12cb 8a3e 4b27 1a3e
00000060: d63e 643e 76ce a53e 0571 4b3e 9afc b6bd
00000070: d702 bf3e 85db afbe ad68 94be 0954 003f
00000080: ee0e 6d3d a0e7 673e 1c0b 7dbe 8de5 d53b
00000090: 0b44 0cbd 38d9 ee3d b892 ec3e 6ecc 893e
000000a0: 557c 9d3e 9e96 0e3e ee32 c33d 1475 383e
000000b0: 812d 8a3e 34a3 6d3e b83a 06bc 44b8 1bbe
000000c0: c47b e93e d3f7 81bd 16d0 d53d 8e63 493e
000000d0: 2149 0fbe a507 86be bc42 0d3f 0816 48bd
000000e0: 05c2 cd3d 9ac0 673d f0aa 3a3d de1e 14be
000000f0: cbc0 a13d a981 f9bb 0309 ecbd 4d9d c33a
00000100: dd20 6c3c fcea 98be 28ac 863e c83a 62bc
00000110: 4ab7 18bf aef3 a43e 77cc 153e 6b73 5b3e
00000120: 2d90 c3be 2f14 8f3b e172 023e 6114 943e
00000130: c546 93bd 532c cb3e 3ef2 763e 338f 8a3e
00000140: 9448 403e 549a d33e 3c58 9c3e 9cb0 0fbe
00000150: ac77 0ebf e380 d73e de74 4dbc e508 713c
00000160: f85c 133f 12d3 6a3e ecc8 bdbd e298 10bf
00000170: 7d80 d6be a41e 5dbe 90f3 703e 64bf 0dbd
00000180: 48fa 613e 1de5 44be 3b44 08bd 136e bcbd
00000190: deb1 e63d f6f6 82be db91 98be e36f 813d
000001a0: 6493 fe3e fac1 083e efe5 2a3e b5e9 3bbd
000001b0: 63b7 ca3e 33a8 a6be cf2b 36bd cb73 c73e
000001c0: 9d8b 2cbd 7e49 8fbe f7a4 cb3e d85f 343e
000001d0: 3b35 dfbe 0578 ed3d fbbd 70be 0f5d 813d
000001e0: 5ce4 883d d038 c43e 2d7e 0abe 02ab a3bc
000001f0: 5b0a 8ebe dab1 5bbd 55c9 5e3e 2dff 833e
00000200: de22 bd3d 0acf a73e eefd 01be 0028 f83d
00000210: 7403 413c e456 d8bd 7979 923e 92b9 133e
00000220: b0d0 b63e 8fcf 803e f1b7 bbbe 26cd febd
00000230: 13e4 aa3e 431f 903d e2f4 2ebe f796 a23e
00000240: b00c a7be 042c d9bd a451 d23e a148 dcbd
00000250: 2e9f 6fbd 5e26 35be 9fdd 6d3e e209 88be
00000260: f4a2 7fbe 5ac2 3c3e 2135 cb3e 695b 463e
00000270: 833f e3be d18d a73e ed45 da3e 56f3 573e
00000280: c05b 9ebe 1e0a 8fbe 4980 873e ecc5 893e
00000290: 3c6d 10bf f4fd 9a3e 582f a2be 1e2b 5a3e
000002a0: f248 8bbe 72a3 21be 96f6 293e fb77 69be
000002b0: 0b5d c7be 32ed 933e 3a2e 84be 66bf 813e
000002c0: f6e7 bebe 062b 35bd d6ed 913d 541b 403e
000002d0: 3fa8 3fbe ce0b d23e 3783 1e3f 7002 123f
000002e0: 26ee 9abf beb9 a3be 5daf eabd 6cba 8f3e
000002f0: 4da0 53be 9fb3 ef3d 58d7 57bf 801b dbbd
00000300: 20de e03e 8109 833c e019 553e 1ba1 8d3e
00000310: 9767 113f edd0 88be eb17 94bd 351e 893e
00000320: cfbf 2b3e ac72 c8bd 3ba6 143e 9094 f3bb
00000330: 06e4 863d 947f 80be fd88 c8bd b82d 0dbe
00000340: f79a 8c3e f228 413e d644 743e 27cc a33e
00000350: aac4 e23e 4928 babd 13a4 423e df0a ab3e
00000360: a055 cbbe 2b11 b9be 3162 aa3e 80be b6be
00000370: d815 a4bd d1a2 52bd a59f e23e 2359 b03e
00000380: 352b d73e 6f65 bd3e 8485 41be dc06 873e
00000390: 299b a23e 0652 bb3d c0de dc3e d0e7 88bc
000003a0: de57 cb3d 08a5 773e 0c5c 5a3c 32f1 8fbd
000003b0: a832 043e 18c0 57be 6ad0 44bd 40ba 28be
000003c0: f118 1b3e 7ff5 dc3e b5f3 28bf 9d0b 16be
000003d0: ecce 093f 67c1 c1be 3e4a ad3e cd6d a63d
000003e0: 13f0 803d 0338 663c de37 fb3e 77b0 98bc
000003f0: 03b7 79bd 0d4f fc3e dc8a 3abd 8f25 a6bd
0.23970547 0.463104 0.023450965 -0.30564967 -0.60845906 -0.16369452 0.28563893 -0.68617916
-0.4170801 0.3318335 0.07710772 -0.24529412 0.4403861 -0.6039644 -0.18431512 0.026071874
-0.23503955 -0.06772709 0.3204955 -0.044118404 -0.5121772 0.19128549 0.27108055 0.15054052
0.22289595 0.3238408 0.19867332 -0.08934899 0.37306854 -0.34347168 -0.2898611 0.5012823
0.057875566 0.22646952 -0.24711269 0.0065276087 -0.03424458 0.11662525 0.46205688 0.2691378
0.3075892 0.13924643 0.095311984 0.18013412 0.26987842 0.23206788 -0.008192711 -0.1520701
0.45602238 -0.06346097 0.1044008 0.19666883 -0.1399274 -0.26177707 0.55179954 -0.048849136
0.10046772 0.056580164 0.045573175 -0.144649 0.078981005 -0.0076143336 -0.11525156 0.0014924199
0.014412132 -0.2986678 0.2630322 -0.01380796 -0.59654677 0.32217163 0.14628778 0.21430747
-0.38195935 0.0043664197 0.12739135 0.28921798 -0.071912326 0.39682254 0.24115846 0.27062377
0.18777686 0.4132868 0.30536067 -0.14032215 -0.55651355 0.4209052 -0.01254007 0.014711593
0.57563734 0.2293208 -0.092668384 -0.5648328 -0.41894904 -0.2159372 0.23530412 -0.034606352
0.22068131 -0.19228025 -0.033268195 -0.092006825 0.11264394 -0.2557904 -0.2979878 0.06320169
0.49721825 0.13355246 0.16689275 -0.045877177 0.39593038 -0.325502 -0.044475373 0.3895553
-0.042125333 -0.27985758 0.39774296 0.17614686 -0.435953 0.115951575 -0.23509972 0.06316578
0.06684181 0.38324594 -0.13524695 -0.019979004 -0.27742276 -0.05363641 0.2175649 0.2578062
0.09235166 0.32775146 -0.12694523 0.121170044 0.011780608 -0.10563448 0.286083 0.14426258
0.3570609 0.25158355 -0.36663774 -0.12441473 0.33377132 0.07037213 -0.17085603 0.31755802
-0.32626867 -0.106040984 0.41077912 -0.1075604 -0.058501415 -0.17690417 0.23229073 -0.2657004
-0.24964505 0.18433514 0.39688972 0.19370808 -0.44384393 0.32725385 0.42631474 0.21088919
-0.30929375 -0.27937406 0.2646506 0.26908815 -0.5641668 0.30271876 -0.31676745 0.2130551
-0.2720409 -0.15785006 0.16597971 -0.22799675 -0.38938174 0.28891903 -0.25816518 0.25341338
-0.37286347 -0.044230483 0.07125442 0.18760425 -0.18716525 0.4102463 0.6191897 0.5703497
-1.2103927 -0.31977648 -0.11459229 0.28071916 -0.20666619 0.11704182 -0.84312963 -0.106986046
0.43919468 0.015995743 0.20810652 0.27661976 0.5679869 -0.26721898 -0.072311245 0.2678086
0.16772388 -0.09787497 0.14516537 -0.0074334815 0.06586461 -0.25097334 -0.097917534 -0.13786972
0.2746198 0.18863276 0.23854384 0.31991693 0.44290668 -0.09089715 0.19007902 0.3340673
-0.39713764 -0.3614591 0.3327804 -0.35692215 -0.08011979 -0.051424805 0.44262424 0.34443006
0.42025152 0.3699145 -0.18898588 0.2637242 0.31759003 0.09146504 0.43138695 -0.0167121
0.09928869 0.24184048 0.01332761 -0.07028426 0.12909949 -0.21069372 -0.04805032 -0.16477299
0.15146233 0.4315605 -0.6599687 -0.14652868 0.5383136 -0.37842867 0.33845705 0.081264116
0.062957905 0.01405144 0.4906606 -0.018638832 -0.06096555 0.4927906 -0.045542583 -0.081126325

fc2.bias f4 [32]
00000000: 12eb 7cbd 1713 e53d a762 233e d7f5 183e
00000010: 6d1e 983e 0694 cc3d 4a32 b4bd c285 b1be
00000020: 6ec3 8c3e 2ccd 293e 1142 9c3e 2067 173e
00000030: f3f7 b1be 9d2d f53c 300f b23e 8556 923e
00000040: 76f4 363e 1396 393e a20c 4c3e cbc9 11be
00000050: fc74 c03e d782 693e 03f0 183e 6597 7a3d
00000060: 4df0 993e ab15 c3bd fd1b 4bbe 85d8 373e
00000070: 847f a23e 2966 b43e fd62 4fbe 6aa5 52be
-0.061747618 0.11185282 0.15955602 0.1493753 0.29710713 0.09989171 -0.087986544 -0.34672362
0.2749285 0.16582173 0.30519155 0.14785433 -0.34759483 0.029928977 0.34777212 0.28581634
0.17866692 0.18123655 0.19926694 -0.14237134 0.37589252 0.22803818 0.14935307 0.061179537
0.30066147 -0.09525617 -0.19834895 0.1795369 0.31737912 0.35234192 -0.20252605 -0.20570913

fc2_1.weight f4 [64, 32]
00000000: b229 1abe ddf7 27bf 0f92 1c3e 6c01 5cbc
00000010: db71 7f3c a21f 003e e3a5 d63e ed9c 1f3e
00000020: e323 123e c94a 9bbd a1a5 583e 244b 8dbe
00000030: 5636 463d 5f7b 33be 63d2 ab3d bf16 7ebd
00000040: f922 39be 8a95 53bc eb20 90bd e0bd 6a3e
00000050: 9755 193e 9fab 0e3e 84f2 d9bd 5729 123f
00000060: c835 53be c07f fd3d f18b e7bd 8441 ed3d
00000070: 1cab 473d 9a56 1b3c 5b42 41be 5638 513e
00000080: 37c2 8cbd 1206 603c 1388 1dbe f0ec 2abe
00000090: 6642 d5bd e2c9 c5bd 2e0d 1ebc 1fb0 e2bd
000000a0: 4615 903d 5687 653c e7ea 3b3d 520f babd
000000b0: 47e9 ee3d 22d4 e7bd 39ee 863d 6dab 01be
000000c0: e609 b53a 7705 12bd 675e 053e 56e1 13be
000000d0: d930 d63d 0bc7 b6bd 4f5d 36bc 37f9 88bd
000000e0: 2d77 c9bc 655c 853c dbfb 883d 83f7 eb3c
000000f0: 973f ef3d d197 33bd 493b 243e cc80 083d
00000100: c940 b03e 860a d43e 5605 9bbd 4a19 a4bd
00000110: 3482 ec3d 9f1c b93c c28c 13bf 336f 8cbd
00000120: e443 11bd 67ce 1e3e aa13 163e 95fe 4a3e
00000130: bd6c cabd d174 1f3e 20ac 343e 0e48 543e
00000140: f68e 263b 29c4 a53d 719d 8abc c1e2 563e
00000150: 5fdf c93d ef30 aa3e 8b78 ef3d c890 f6bd
00000160: c320 12be 2ce0 5b3c 44cb 043e ca45 d53e
00000170: 3aa4 943b 9b29 a23d 09ab f9bd b8f8 be3d
00000180: 4c6e 97bd 9f98 c03e ea30 b03d d0d7 c83d
00000190: 2739 0cbd f15e 16bd ef06 34bf 36de 00be
000001a0: 08b2 7abd 7dcc 543d 22f7 5d3d 47e3 e73d
000001b0: f46b 6e3c 44c0 a83e 37c7 a1bd 8b77 383e
000001c0: a683 afbd 7509 593e 895b 18be ba54 1f3d
000001d0: 1eca 0c3e e177 93bd 90cc 82bd a082 65be
000001e0: 37b3 663e 8882 883d f241 383e 9565 bf3d
000001f0: df43 213e bb37 0abd 773e 8a3e db36 89be
00000200: 2d28 aa3d 2a29 963d 6d80 82bd ae1e e9bd
00000210: fd70 79bd 64f5 4cbe 4670 a0bd fa33 243e
00000220: 909d 68bd 9cb8 903d 8491 8d3d 8b1a 903d
00000230: 9e25 d53c 712c bc3c 280c 49be 3b74 a13b
00000240: 85dd 3dbe 4962 963d 3101 1b3b cbd0 fe3d
00000250: d614 233d f2ff 323d 01d1 b1bb b671 8cbd
00000260: e6b3 a0bc 823c 233e 0b07 14be 1760 f03d
00000270: 8b8c d4bd e4a8 8fbd 5303 f2bc 3429 0a3e
00000280: f2f5 013f 7e52 b73e ef1b 713e 9a77 f53c
00000290: 9f3d 6d3d 45b6 1dbe 6c49 58bf 2555 31be
000002a0: 987b 06bd d0c3 0ebc c3bc be3d a12d 103f
000002b0: 5476 f23d c95c fcbd b3ca 933d 249c 5c3e
000002c0: 886f 0dbd 2a8d 26bc fd61 41bd e40e 433e
000002d0: beaf 693d 3791 853e 2401 253e 098e cdbe
000002e0: 982b 7fbd aa2e 013e 5b73 3e3c a00b 513e
000002f0: b8fb c9bd 3a37 103e 818a 713e c5ae 89bd
00000300: 4ece 6b3c ab20 053e f9ee 153e 6c33 e83c
00000310: 3cf6 483d b879 d4bc 823f 913d d693 a7bd
00000320: 4e72 d8bd 6b6e f9bd 588d 043e 57d5 dbbd
00000330: a81e c0bd 0a51 18be 8068 69bb cc41 eebb
00000340: a5d0 3ebe b428 413d b26c 303d e55b bf3d
00000350: 25bf 69bd 15b6 943d 25fd 39be 8262 213e
00000360: 0e1a 1d3e c173 33be aa1e 893b 6077 2cbd
00000370: 1694 91bd c233 0d3d 75cb 0b3e 8f1c 0ebe
00000380: 64fb bfbd 665e 24bd 99aa 6abd cdb7 6cbd
00000390: b814 fcbd 38a4 d83d 4500 f1bd 89d7 673d
000003a0: 4a47 02be 7e94 80bd 5780 dfbc 5556 df3d
000003b0: a981 0cbd b1b0 6bbd 7605 b43c 0db8 0abe
000003c0: 82cb b23c 6e60 963d 74e6 933d de61 f6bd
000003d0: 66b6 343e 202d 6b3d ca13 b7bc 8b05 31be
000003e0: 1b50 56bd 0aea 19be 403e 173d c5e6 4c3c
000003f0: 1d7e 123d 346d 23be 4847 d33d a240 f03d
-0.15054968 -0.65612584 0.15290092 -0.013428073 0.01559111 0.12512067 0.41923437 0.15587206
0.14271502 -0.075826235 0.21156932 -0.2759639 0.048391663 -0.17527531 0.083897375 -0.06203341
-0.18079747 -0.012914071 -0.070375286 0.22923994 0.14974056 0.13932656 -0.10641959 0.5709433
-0.20625985 0.12377882 -0.113059886 0.11584762 0.048747167 0.009481097 -0.18872969 0.20431647
-0.06872981 0.013673322 -0.1538394 -0.16691947 -0.10413055 -0.09657647 -0.009646697 -0.11068749
0.070353076 0.014009317 0.045878317 -0.09084953 0.11665588 -0.11319758 0.06588406 -0.1266305
0.0013812154 -0.035649743 0.13024293 -0.14441428 0.10458536 -0.08924683 -0.011130645 -0.06688159
-0.02459296 0.016279409 0.066886626 0.028804546 0.11682051 -0.043845955 0.1603824 0.033325955
0.34424427 0.4141428 -0.07569377 -0.08012636 0.11548272 0.022596655 -0.57636654 -0.06857147
-0.035465136 0.15508424 0.14655939 0.19823678 -0.098840214 0.15571906 0.17643785 0.20730612
0.0025414801 0.08094055 -0.016920777 0.20984937 0.09857058 0.33240458 0.116929136 -0.120393336
-0.1427031 0.013420146 0.12968165 0.41654807 0.004536179 0.07918092 -0.121908255 0.09324783
-0.07394084 0.3761644 0.086030796 0.09806788 -0.034234192 -0.036711637 -0.7032308 -0.12584767
-0.06120494 0.051952828 0.054190762 0.113226466 0.014552105 0.32959187 -0.07899325 0.18014352
-0.08570032 0.21195014 -0.14878668 0.03889916 0.13748977 -0.072005995 -0.063866735 -0.2241311
0.22529303 0.06665522 0.17993906 0.09345547 0.15748547 -0.033744555 0.27000782 -0.26799664
0.08308444 0.0733207 -0.063721515 -0.11382805 -0.06089877 -0.20015484 -0.078339145 0.16035452
-0.05679089 0.070664614 0.069125205 0.07036313 0.026018914 0.02297041 -0.19633543 0.004927186
-0.18541534 0.07342965 0.0023651833 0.12442168 0.039814793 0.04370112 -0.0054265265 -0.06857626
-0.019617032 0.1594105 -0.14455812 0.11737078 -0.10378369 -0.07014635 -0.0295426 0.1349228
0.5076591 0.35805124 0.23545812 0.029964257 0.057920095 -0.15401562 -0.8448703 -0.17317636
-0.032832712 -0.0087136775 0.09313347 0.56319624 0.118389755 -0.12322385 0.07216396 0.21543938
-0.034530193 -0.010165492 -0.04721259 0.19048649 0.057052366 0.26087353 0.16113716 -0.40147427
-0.062297434 0.12615457 0.011624183 0.20414591 -0.09862465 0.14083567 0.23587991 -0.06722788
0.014392449 0.13000743 0.14641942 0.028344832 0.049062952 -0.025936946 0.07092191 -0.08182494
-0.10568677 -0.12179264 0.12944543 -0.10734051 -0.09380847 -0.14874664 -0.0035615265 -0.007271027
-0.18634279 0.04715796 0.04307241 0.09343699 -0.057067055 0.07261292 -0.18162973 0.15760234
0.1534197 -0.17524625 0.0041845636 -0.042106032 -0.07108323 0.03447319 0.13651831 -0.13878082
-0.09374121 -0.040129088 -0.0572916 -0.057792474 -0.12308639 0.10578197 -0.117676295 0.056602035
-0.12722507 -0.06278323 -0.027282877 0.109051384 -0.03430334 -0.057541553 0.02197526 -0.13546772
0.021825556 0.07342611 0.0722169 -0.120303854 0.17647704 0.05741608 -0.022348303 -0.1728727
-0.05232249 -0.15030685 0.0369246 0.012506192 0.035764802 -0.15959626 0.1031633 0.11731078

fc2_1.bias f4 [64]
00000000: a4b1 81bd aaa3 03be ad56 813d f787 863d
00000010: 1ad2 17be 79aa 613e 26fd 89bd ddd2 febd
00000020: 26f3 24be d042 2fbe ecc7 abbc 54ad 22bd
00000030: 3714 29bc dfa9 a8bd c78a 503d 7766 d93c
00000040: 2209 243e ea1e 783d b5fb d53d 6a03 0bbd
00000050: 3b03 9dbd 4f34 203e d7e6 db3d 5569 853d
00000060: 7a0c 433e e6d6 0abd 9beb a0bd 0a87 a13d
00000070: 0360 ae3d e794 f83d 2656 1b3e f3c6 c83d
00000080: a69e 653d 0973 243e b174 cc3d 739d 00be
00000090: 145a 11bd 051a 17bd 3a09 c83d 06d6 273c
000000a0: e8bb 503a 5834 293e 9e1b 1c3d 365c 4b3d
000000b0: a249 643e 6662 5f3e 2fd6 eabd 9c73 e2bc
000000c0: 5616 3a3e 25a9 b8bd 91e0 32bc 6c3f 883d
000000d0: 7de1 193e fbb8 c43d fadd 8b3d 67ee 53bd
000000e0: 2c65 26be 7bcc 7f3e df90 18be 9281 3ebd
000000f0: 9966 f03d 2995 f1bd 9748 5a3e 0166 c73c
-0.063327104 -0.12855402 0.0631536 0.06568902 -0.14826241 0.22037686 -0.06737737 -0.12442563
-0.16108379 -0.1711533 -0.020969354 -0.03971608 -0.010319761 -0.08235525 0.0509136 0.026538117
0.16019109 0.060576357 0.104484 -0.033938803 -0.07666632 0.15644954 0.107373886 0.06514231
0.19047728 -0.03389635 -0.07857438 0.07887085 0.085144065 0.12137776 0.15169582 0.098035716
0.056059502 0.16059507 0.099831946 -0.12560062 -0.035486296 -0.03689005 0.09767385 0.010243898
0.00079625705 0.16523874 0.038112275 0.049648486 0.22293714 0.2181488 -0.114666335 -0.027643017
0.18172583 -0.09016637 -0.010917799 0.06652722 0.15027423 0.09605595 0.06829448 -0.05174103
-0.16249532 0.24980347 -0.14899014 -0.046510287 0.11738319 -0.11796028 0.21316753 0.024340631

fc2_1_1.weight f4 [64, 64]
00000000: 2cd4 13bd 184b 813d a2e2 df3d 6545 0a3e
00000010: 2cda 1ebb ae0f 7b3d 8a48 953d 3218 dc3d
00000020: ced8 02bf 90e2 3b3c e3f1 cfbc 4a06 40be
00000030: 95e9 473d 7af3 0b3c 91f1 13be c3d8 2d3e
00000040: 8699 993d 4624 c2bd 606e d93c b831 64bd
00000050: fc33 e93d bb6f 3d3d 57fd 39be 16b4 283d
00000060: a5d1 febd 94ea 2fbd 0742 403d d6d6 cdbd
00000070: 6dc9 ad3e 1ab1 a3bd e4ae 44bd 2c04 be3d
00000080: a045 f4bc 3265 1f3e e8ff 9dbd 185b bfbd
00000090: 055a d43d 1539 2d3e 1a99 84bd 3094 cd3d
000000a0: 83dc 9f3d 18a2 0ebd ab28 06be fc5d 5f3e
000000b0: 0b70 ca3d 0b27 aa3d 1094 97bc 26b0 9d3d
000000c0: 8f73 a4bb c2c5 1d3e 541e be3d cab3 213d
000000d0: f9a8 11bc a936 813d f48c 10be a64d a6bd
000000e0: 0010 93b8 dd09 1fbd 4cc1 6cbd b687 eebc
000000f0: d86d 3f3d 7427 1f3d 58b5 d9bd 9692 303e
00000100: 00e6 253c 5c6c 183d b077 c2bd a83f d33d
00000110: 1842 e3bd 2cc3 b4bd e8e7 f83d 203b 1dbd
00000120: d012 f1bd c425 663d a07e af3d c2f0 a03d
00000130: 1c4f 5b3d 66eb eabd a409 b53d d0cd 3c3d
00000140: 1407 0fbd b0be 283d 9ca4 13bd 18f1 8ebd
00000150: 30d3 1fbd 7021 593d a8e7 1cbd 9cd2 163d
00000160: c800 d93d 9495 12bd 0070 83bd f497 d8bd
00000170: 82d9 a6bd 1c30 5c3d 4891 c13c ec45 14bd
00000180: ecfc c53d a0d3 a23c eae5 88bd 86ba f03d
00000190: a422 2fbd c84f eebc 68e2 66bd 40a8 39bb
000001a0: b00d 633d d491 fabd f0fd 4bbd 4020 edbc
000001b0: 308d c6bd 62cb bc3d 4a14 c6bd 3c75 c33d
000001c0: a07d f63b b01e e93c d4cb 6fbd b845 d0bd
000001d0: 2077 ad3b 8c0f 80bd 32e5 aebd 4e4b 873d
000001e0: 04d1 f1bd f2a1 e73d 08b9 d23c c637 efbd
000001f0: 9e14 97bd 945e 16bd 702d 3a3d 4006 7ebd
00000200: ff96 80bc 1857 8c3c bc0e 30bd 51fc c03d
00000210: 847c 52bd 9ad3 dabd 8e32 30bb f84b 183d
00000220: ee20 eabd 6e68 babd d061 cdbc f2d5 febc
00000230: 7739 b6bd 0723 8d3d d045 7ebd 99bb 03be
00000240: 7ef0 07bd 9eaa ca3d af91 a43c 0198 e7bd
00000250: 7bc0 c53d ff19 18bd 71ec 53bd 0c36 b43b
00000260: 03a4 74bd c45b 943d c78a 063d 2a76 c73d
00000270: e51e e9bb ac56 7bbd d447 b8bc c9e7 e0bd
00000280: 9430 193d 1537 90bd 7c47 d93d d614 b4bd
00000290: aa9f d3bd 038b 62bd 4086 cb3d 4d2a 5f3d
000002a0: 9d7f 5e3d b4d8 3e3d 35b2 6bbc 6608 b5bd
000002b0: 7fe4 523d 434b a63d 8a59 d2bd 957a 0f3d
000002c0: 4f35 993d af14 5f3d e979 963d 55d2 eabd
000002d0: 229f 7ebd f211 523d 2c63 1c3d 8c72 cf3d
000002e0: 5049 afbd f2d8 1f3d 9256 e8bd c94e 773c
000002f0: 7a8c eebd 800f d23b e794 b0bd 00a9 acbd
00000300: 9037 d03c 7e88 b33d 0ea3 d73d f392 29bd
00000310: d8f0 eb3d 0e93 b5bd 8007 ffbb 4acc c2bd
00000320: c8d6 b7bc 2ae2 9cbd 2475 883d 36ca d23d
00000330: 7872 9dbd 4f72 8a3c 00ea cc3a 274d 8b3c
00000340: 00d6 a93d 66ad fa3d e02c 05bd 627a d43c
00000350: 996f 3ebd efcc 613d 882d e3bd fd6f 393d
00000360: 191a c43d f0c0 b43d 5a8e f5bd 40eb d6bd
00000370: 92f6 a6bd e0ed 723d ca25 c0bd ea81 88bd
00000380: ea20 cf3d a057 583d 6883 483d 20c8 453d
00000390: 9899 a8bd 2af7 9d3d 8aa9 e0bc f406 b63d
000003a0: e8f3 8bbd 7203 6dbd 249a 05be 202b c6bd
000003b0: 00dc d5bb d813 493d 065f f0bd 40bd abbb
000003c0: a036 6b3d 6858 fabd 3fe6 803b 74f0 18bd
000003d0: aff1 a63c 4a87 fdbd 1dea 873d 3aeb e0bd
000003e0: d877 263d 4e82 96bd aa46 8d3d 2aca 94bd
000003f0: 6511 a93b 0cfd 1dbd 83df 81bd 75cf 0abc
-0.036091015 0.06313151 0.10931899 0.13503034 -0.0024238927 0.06129425 0.07289226 0.107468024
-0.5111207 0.011467591 -0.025383895 -0.18752399 0.048806746 0.008541936 -0.14447619 0.1697722
0.074999854 -0.09479575 0.026541889 -0.055711478 0.11386868 0.046249133 -0.18163048 0.04118737
-0.1244233 -0.04294832 0.04693797 -0.10050742 0.33942738 -0.07992764 -0.04801835 0.092781395
-0.029818356 0.15565947 -0.07714826 -0.09343547 0.10368732 0.16916306 -0.06474514 0.1003803
0.07805731 -0.034822553 -0.13101451 0.21813196 0.09884652 0.08308228 -0.018503219 0.07699613
-0.0050186585 0.1540747 0.092831284 0.0394781 -0.008890384 0.06309254 -0.1411627 -0.08120279
-7.0124865e-05 -0.038827766 -0.05780153 -0.029117446 0.046735615 0.038855985 -0.10630292 0.17243418
0.010125637 0.037212715 -0.09495485 0.10314876 -0.11096591 -0.088262886 0.121536076 -0.038386464
-0.11771166 0.05618836 0.08569074 0.07858421 0.05354224 -0.1147068 0.088397294 0.046094716
-0.03491886 0.04119748 -0.036045656 -0.06979579 -0.039019763 0.053010404 -0.038306862 0.036821947
0.10595852 -0.03578718 -0.06417847 -0.10575858 -0.08146955 0.05375682 0.023628846 -0.036199495
0.09667382 0.019876301 -0.066844776 0.117543265 -0.042757645 -0.029090777 -0.05636826 -0.0028329045
0.055432975 -0.12234846 -0.04980272 -0.028946042 -0.09694898 0.0921848 -0.096718386 0.09543845
0.0075223 0.028457016 -0.058543995 -0.10169548 0.005293742 -0.06252965 -0.08539809 0.0660616
-0.11807445 0.113101855 0.025722995 -0.1168056 -0.07376979 -0.03671129 0.04545349 -0.06201768
-0.015697 0.017131373 -0.0429828 0.094231255 -0.05138828 -0.10684891 -0.0026885602 0.037181824
-0.11432062 -0.0910195 -0.025071055 -0.031107876 -0.08897679 0.068914466 -0.062078297 -0.12864532
-0.033188336 0.09895824 0.020088999 -0.11308289 0.09655853 -0.037134167 -0.05173916 0.005499607
-0.059726726 0.072440654 0.032847192 0.09739335 -0.0071142786 -0.061361954 -0.022495188 -0.109817095
0.037399843 -0.07041756 0.10609338 -0.08793037 -0.10333188 -0.055308353 0.099377155 0.0544837
0.05432092 0.046593383 -0.01438575 -0.088394925 0.051487442 0.08119824 -0.102709845 0.035029013
0.07480871 0.054463085 0.07347471 -0.11465899 -0.06216348 0.051286645 0.038180515 0.1012927
-0.08558905 0.039025255 -0.11344637 0.015094467 -0.116478875 0.006410539 -0.08622151 -0.08430672
0.02541712 0.08766268 0.10529147 -0.041399907 0.11520547 -0.08865939 -0.0077828765 -0.09511621
-0.022441283 -0.07660325 0.06662968 0.10292475 -0.07687849 0.01690021 0.0015633702 0.017004563
0.082927704 0.122401044 -0.0325135 0.025937263 -0.046493147 0.05512708 -0.11092669 0.045272816
0.0957529 0.088258624 -0.11990042 -0.10494089 -0.08152498 0.059308887 -0.09382208 -0.06665404
0.101137 0.05281794 0.048953444 0.048286557 -0.08232421 0.077131584 -0.027424593 0.08888045
-0.06833631 -0.057864614 -0.13047081 -0.09676194 -0.00652647 0.04909119 -0.11736874 -0.005241066
0.05742514 -0.122238934 0.0039336975 -0.03733869 0.020378916 -0.1237932 0.066364504 -0.10982366
0.040641636 -0.073490724 0.06898244 -0.07265122 0.0051595443 -0.038571402 -0.063414596 -0.008472313

fc2_1_1.bias f4 [64]
00000000: ed03 c93d d2f2 fabd 105e 673d ed97 543d
00000010: 6c0e 2b3e 1c2d efbd c0de bf3d 5108 b83d
00000020: f008 ffbd b866 f43d 9813 3e3e b50e aa3d
00000030: 3f3e a43d a95b 563d bd75 89bd fcaf 1c3e
00000040: 242d 2f3b 8617 773c 15b6 c9bd f621 a53d
00000050: d4b9 1a3d 3b0f 993d 8afc ee3d 2d1c b3bd
00000060: b256 60bd 2567 f6bb 12c5 033e 817b 323d
00000070: 122a cc3d 61ca 28be 5a8a cc3d 92c6 bc3d
00000080: e082 d53b 2caa e63d 963f 533e 0e6c 7f3c
00000090: 5df5 12be bc55 ffbd be62 023d c93e 323d
000000a0: 2444 7e3d c9e4 f3bb 8536 d63d 8b63 003e
000000b0: e558 c03d 3860 9abd a929 ad3d e09f 0dbe
000000c0: 9064 1f3c f293 f4bb 8e62 78bc 2c03 c63d
000000d0: 4de4 d43d 68fb 7f3c 0222 6bbd 4ccd 13bd
000000e0: 5fc8 d13d c20d d43b 642c 883d 6db1 463e
000000f0: 5aaa f4bd 4495 96bd 00f0 02bd 427d 3c3e
0.09815202 -0.122533455 0.05648619 0.0519027 0.1670472 -0.11678526 0.09368658 0.08985961
-0.124528766 0.119336545 0.18562162 0.083035864 0.08019685 0.052333508 -0.0671191 0.15301508
0.0026729787 0.015081292 -0.098491825 0.08063118 0.037774876 0.07473608 0.11669262 -0.087456085
-0.05477018 -0.00751962 0.12868145 0.043574814 0.09968962 -0.16483451 0.09987326 0.09217562
0.0065158457 0.112629265 0.20629725 0.015589727 -0.14351411 -0.124675244 0.03183245 0.043516908
0.062076703 -0.007443045 0.104596175 0.12537973 0.09391955 -0.075378835 0.08455212 -0.13830519
0.009728566 -0.0074639255 -0.015160216 0.09668574 0.103951074 0.015623905 -0.05740548 -0.03608446
0.10243296 0.0064713666 0.06649092 0.1940362 -0.119465545 -0.07352689 -0.031967163 0.18407157

fc2_1_2.weight f4 [32, 64]
00000000: aef4 513b b253 e3bd 0e2c d5bc 7e92 abbc
00000010: 3e3b 5fbc 3a5b 49bd 85a1 b0bd bcad 99bd
00000020: 542c 2c3d 292e 0b3e 1389 653e 730e ffbd
00000030: dfee 303e 3271 163e 8940 b5bd 3789 873d
00000040: e4ef e33d a0db 84bb 60d1 203c 7422 043e
00000050: 865d af3a 4c08 8bbc 72ec 0e3e c073 edba
00000060: c757 453c 41a6 043c 251a 06be efc2 b7bd
00000070: 0f67 59be 7a5d 313e 43a7 12bd d0dd 513c
00000080: c849 9a3c 9343 8a3c dc3b 5e3e e731 52bc
00000090: 9732 19bd f2e6 9abd a370 b9bc da1d 6e3e
000000a0: e928 71bd b2d5 413e b6c5 48be ca8d 493c
000000b0: c813 453c 8a9e f8bd 675b 5b3e 036a 463c
000000c0: 1080 843d 747e 34be 9474 863d 7e55 79bd
000000d0: e436 b23b 1f90 623d 674a ab3d 58d7 db3c
000000e0: 94bc 713e 1bc6 2e3d 8a85 fbbd f0bc 8a3d
000000f0: 9195 9e3c 5913 13be 9a2e bcbd a6a8 48be
00000100: 5410 14be 3498 7cbd 95f2 b33d d371 bd3d
00000110: 74d6 cbba 57b5 023c ab78 ccbe db4d f8bd
00000120: 4ca2 3ebd 0950 423e d75d b73c 3b1f 35be
00000130: 8b2b 243e 5875 953d cd88 84be 9059 66bd
00000140: c5c2 573e a19a 1b3e 00c4 8b3b d8a8 d13d
00000150: bcaa a8bd e60c b0bc 34c1 803e b0ee ecbc
00000160: 45cd 58bd 6740 0cbe 3dca 6cbe 8b29 96be
00000170: 76d0 76be 58c9 8b3e 9867 e2be 6cd8 7cbd
00000180: 4e19 eabd 9062 9dbe e970 f63d 7d72 21bd
00000190: be0a f1be 0cda ac3d 9aab c2bd cf8c 013e
000001a0: 2907 74be b9b9 b03d f3d0 9abd 05d3 57be
000001b0: 1cc0 95be 805c 58bd 52bd 663e ccd0 133e
000001c0: b498 d23d ec1a fabd 637e acbc 4b00 30be
000001d0: 462a 69bd 59a9 7a3d 7304 dd3d 8eae acbd
000001e0: 0250 74bc b940 f7bd 7e29 03bd 57de 8e3e
000001f0: 46d5 d83d fe08 9cbe da80 a4bd ce50 eabc
00000200: 309a 403e 803b 853b 142d 913d 00fc 983a
00000210: c23b 193e 4a1b b83d 42a0 413e 64ae 443d
00000220: a08b f03d e7b9 d2be 76d6 bebd 797a 493e
00000230: 2e7f 1b3d bac1 b0bd 458a 043e 4ea8 86bc
00000240: a6a4 a8be 9b44 88be 507a 4bbd 6336 b3be
00000250: c08d 2dbd 88fb c6bc 2808 16be ff53 96bd
00000260: a8d4 4b3d e101 ac3d eef0 f93d 590d 0a3d
00000270: 4fb2 8b3d 20a0 10bc a7b9 a33d 3620 d73d
00000280: 5a74 f5bd ed64 4b3d c0cc a2be 51fd 923d
00000290: 690d 893e 68ad 3a3d 6ff4 a1bc 7691 60be
000002a0: 4e92 4a3e 7c2d 9cbe e392 913d a4d1 c93d
000002b0: 61e2 dc3c 36b7 d83d 5bb4 afbe 9a4d 69bd
000002c0: c09c 123c e750 e23b 24f8 c63d 3aa8 123d
000002d0: 2a9d 46bc 9dd4 8ebe c661 f63d 2604 c83d
000002e0: adaa 70be a815 763d a7ce 813e 8ccc 173f
000002f0: 3436 ccbd 77d9 093e 74bf f63d 9ecd fc3d
00000300: 689e a93c a41e 003d 65f6 343c 901d 49bd
00000310: abbf a7bc 14d2 afbd dc6f 313e 4d1a a8bd
00000320: 8848 163d b8ec 83be 1133 22be 2198 703a
00000330: 3f6d 97bc d834 88be aa04 163e 68c2 563d
00000340: add4 92be 49c0 a1be dcd5 cd3d 3cde 79be
00000350: 697c d73d 6ac9 e1bd 7af3 4fbe 651e 1e3c
00000360: 9e9b e5bd 211d 3c3e 5766 f1bb 708a c8bc
00000370: 0eee 073b 3c21 103d 8c04 0e3e 94ea 1a3d
00000380: a226 ab3d 632b f03d a1c3 60be fd72 a63d
00000390: 308e 593c 40a2 f33c 40de 573d c038 82be
000003a0: 0e2a d23b 8db1 77be 5c71 6d3d d0de b3ba
000003b0: 2da3 533d 88ed 993d 1936 8cbe 3d7d eebd
000003c0: 00d9 cb3d 5a98 c3bc f8a1 0fbd 416e 323e
000003d0: ea36 b5bc a611 92be 3d51 61bd dafe dcbd
000003e0: 8c48 55be 5413 8bbb b899 3d3d b6d9 1abe
000003f0: 70fd f73d 5663 173e 7a9d df3d 9f06 083e
0.003203671 -0.11099948 -0.026021983 -0.020943876 -0.013624964 -0.049159266 -0.086245574 -0.0750384
0.042034462 0.13591827 0.22415571 -0.12453928 0.17278622 0.14691618 -0.088502 0.066179685
0.1112974 -0.0040545017 0.009815544 0.12903768 0.0013379313 -0.01697173 0.13957384 -0.0018116161
0.0120448535 0.008096279 -0.13095911 -0.089727275 -0.2123072 0.17320815 -0.035804044 0.012809232
0.01883401 0.016877925 0.21702522 -0.01282928 -0.03740176 -0.075635806 -0.022636717 0.23253575
-0.058876906 0.18929175 -0.1960667 0.012301872 0.012028642 -0.12139614 0.21421586 0.012110236
0.064697385 -0.17626363 0.06565204 -0.060872547 0.0054386724 0.055313226 0.083638005 0.026836082
0.23607093 0.042669397 -0.1228133 0.06774318 0.019358428 -0.1436285 -0.09188576 -0.19595584
-0.14459354 -0.06166859 0.08786503 0.09250226 -0.0015551583 0.007977805 -0.39935812 -0.12124225
-0.046541497 0.18975843 0.022383614 -0.17687695 0.16032235 0.07297772 -0.2588562 -0.056237757
0.21070392 0.15195705 0.0042653084 0.102372825 -0.0823569 -0.021490525 0.25147402 -0.028922409
-0.052930135 -0.13696443 -0.23124023 -0.2932857 -0.24102959 0.2730205 -0.4421966 -0.061729833
-0.11430608 -0.3073926 0.12033255 -0.039415825 -0.47078508 0.08440027 -0.09505387 0.1265137
-0.23830856 0.08629174 -0.07559385 -0.21076591 -0.2924813 -0.05282259 0.22533157 0.14435118
0.10283032 -0.12212166 -0.02105636 -0.17187612 -0.05692508 0.06119666 0.10791864 -0.08431731
-0.0149116535 -0.12072892 -0.032021992 0.27904007 0.10587554 -0.3047561 -0.08032389 -0.028602984
0.18808818 0.004065931 0.07088676 0.0011671782 0.14964202 0.0898958 0.1890879 0.048017874
0.11745381 -0.41157457 -0.09318249 0.19675626 0.037963085 -0.086307004 0.1294337 -0.016437676
-0.32938117 -0.26614842 -0.049677193 -0.3500243 -0.04237151 -0.024289861 -0.14651549 -0.0734024
0.04976335 0.08398796 0.12204157 0.033704136 0.06821119 -0.008827239 0.07994395 0.105041906
-0.11985083 0.049656797 -0.31796837 0.071772225 0.26768044 0.04557553 -0.019769875 -0.21930489
0.19782373 -0.30503452 0.071080945 0.09854439 0.026963415 0.1058182 -0.34317288 -0.056958772
0.008948505 0.006906617 0.09715298 0.035804965 -0.012122432 -0.27896586 0.120303676 0.09766416
-0.23502608 0.060079247 0.25352976 0.5929649 -0.09971276 0.13461863 0.120482355 0.12343906
0.020705417 0.03127922 0.011045073 -0.04910046 -0.020477137 -0.08584991 0.17327827 -0.082081415
0.036690265 -0.2576654 -0.15839793 0.00091779424 -0.01848471 -0.26602817 0.14650217 0.052431494
-0.28677884 -0.31592014 0.10050556 -0.24401182 0.10521776 -0.11024745 -0.20307723 0.009650801
-0.11211322 0.18370487 -0.007366936 -0.024480075 0.0020741257 0.035187945 0.13868922 0.037821367
0.08356978 0.11727025 -0.21949627 0.08127401 0.013278529 0.029740453 0.05270219 -0.25433922
0.0064137047 -0.24188824 0.057969436 -0.001372302 0.05166929 0.075160086 -0.27385023 -0.11644981
0.09953499 -0.023876358 -0.035066575 0.17424871 -0.022120912 -0.2852909 -0.055009115 -0.107907966
-0.20828456 -0.0042442475 0.046289176 -0.15122113 0.12108886 0.14783987 0.10918708 0.13283776

fc2_1_2.bias f4 [32]
00000000: ab86 8dbd 9d04 3d3e 6a57 20bd 9a19 123e
00000010: 6353 8c3d 93e0 283c 8e1d d0bc 6d72 f83c
00000020: 29e1 2a3e 5c93 1f3e 2344 3b3e 10da 0ebd
00000030: d4c1 163e 2f31 513e 9d9e 19bd 7153 d5bd
00000040: 929f fa3d 3fe3 b9bd b5a2 c23d 9fdc f23d
00000050: 118f 4c3e 3118 063e 5373 183e d7da 4b3e
00000060: f804 353e cca7 183e b6f3 01bc be35 b23c
00000070: b07e bf3c 02f0 0b3c 8527 8bbc b4b7 fc3c
-0.069104515 0.18458791 -0.039145865 0.14267579 0.06851842 0.010307449 -0.025404718 0.030328
0.16687454 0.15583557 0.18287711 -0.03487593 0.14722377 0.20428918 -0.03750478 -0.10416306
0.12237467 -0.09076547 0.0950369 0.118584864 0.1997645 0.13095166 0.14887743 0.199077
0.17677677 0.1490776 -0.00793164 0.021754142 0.023375839 0.008541109 -0.016986618 0.030849315

fc2_2.weight f4 [16, 32]
00000000: d62f a23e 793b 3fbf 5645 123d 861a b53c
00000010: 7610 963d 3437 3f3e d3d5 0fbf 3711 523e
00000020: 5195 7ebd 6d8e 653b 3fa9 25bf 7bc9 0fbe
00000030: cc59 70bd 9441 3bbf e34c 13bd 31b7 2a3e
00000040: e574 28bd c060 823e 8cb9 1cbf bba3 653e
00000050: bc6b a3be 528c 633e 3cf5 603d 0553 e2bd
00000060: 0280 6cbe 3261 42bf 1208 4f3e e682 653e
00000070: bdf8 d3be 1358 de3c 2b0b e8be bf61 493e
00000080: 6d32 dd3d b20d 2cbe 0aa0 d0bc f093 9abd
00000090: cdf3 30be f977 1dbe ffd4 97bc 1911 e43c
000000a0: cb34 2b3e 2396 1bbe 8cad 073e e285 2ebe
000000b0: bc6c 79bd fc75 96bd 069b 8f3d 79be 10be
000000c0: 5fb0 d2bd b64a a8bd aac5 13be 2e80 293d
000000d0: 746a ca3d 2895 13bd fc15 d33c 5c12 c0bd
000000e0: f83b 03bc d517 31be 441d 1bbe 0e63 d83d
000000f0: c908 053e 0ae3 04bd 233a 8fbb 4181 bebd
00000100: f14b f63d 538a 44be 1acd 8ebc 4166 36be
00000110: 970c b13d e0d6 77bd d7ff a93d e7db 113d
00000120: 1405 ef3d a426 9cbe 282f 54be d0aa 3a3e
00000130: cd9b 80bd e98a 13be dfd0 cdbd 35bf 183e
00000140: 8fba 683e f297 373d 4e2e 5bbe 22f4 11be
00000150: 489f a3be 15aa e23d 7798 f43d 254f 24be
00000160: 81ab 743e edc2 1ebd e556 6cbd 4695 6a3e
00000170: d735 173e bb83 3f3d fb3d 7dbe 95cf d83c
00000180: ca64 583d 8ab9 c3bd dbff 12be 8b2d adbc
00000190: cf0d fbbd ef5a ffbd 3d2a fdbc 6177 04be
000001a0: 0edf cb3c fbf9 cf3d 0835 babd 2972 c9bb
000001b0: 44b2 413d c29c 083e 0272 193d e3e3 ca3c
000001c0: 0761 1d3d dc8b 44be f64b 49be 6c28 9cbd
000001d0: 922a 843d 0629 7c3d dfee 53bd 8ccc 55bd
000001e0: 326e 3bbe f6ec e03d 98d1 cc3d 973e 49bd
000001f0: e218 01bd 470b 00be 9814 d4bd 35cf 5dbd
00000200: 1790 2d3e 9cd2 88be 093c 96bd 2f7b 77be
00000210: 2f99 c8bd cb7a 1b3d c9f5 c43e 16f4 ab3a
00000220: 13d3 c63d f684 96be 62a4 15be c038 0f3e
00000230: 9511 ecba 5f3d 25be 8591 71be 0736 5f3e
00000240: eab3 6d3e 157e 1b3e c145 6dbe abd3 1cbe
00000250: 267a a0be 2f42 703e 95f9 913e 6c4a ffbe
00000260: dc34 243e 1e7e 00be 057e 42bd 0329 f13d
00000270: d934 e43e ed6c f03d 98dc 5fbe d1e4 3dbe
00000280: 2995 25be efad 273d a4ae 143d c808 5d3e
00000290: a9ec 2e3e 509f 8fbd fffe b23e bb3b 50be
000002a0: 1908 b0bd 6b75 fa3c 68db 2dbe 4ac8 f3bd
000002b0: c5a8 333e f0ed 35be a2c9 94bd a9b3 cb3d
000002c0: c9c7 a83d 6311 e13a b236 c8be 6a51 043e
000002d0: b979 acbb fec4 1dbe 536f 353d 5c4d 653e
000002e0: 986e 1abd 2efe 62be 9545 d93d 28dc d6bd
000002f0: b3df 00bd f42d 563e 6ed6 bcbe aaa8 483e
00000300: 5ba8 e43d e88e 093c 4b4d 043e 644d 3a3e
00000310: b5b4 f63d 657a 0b3e a35d 953d 9a14 aabd
00000320: cb80 3c3e cce4 583c e192 cebd 8f3d a03d
00000330: 4b3a 813d a405 04bd 4e9c b63d 3deb 30bc
00000340: 14fb 6b3d 916f b13d f499 bebd 3de6 8dbd
00000350: 33cb 2ebe cdae 163e 43fc 863d 0505 33be
00000360: d7ce fdbd d8e4 e5bd 853b 303e d263 123e
00000370: d8e1 60bd db04 fabd ef59 1d3e 5bfa 94bd
00000380: 6a04 623e d481 223d f386 ec3d 4e24 663d
00000390: b350 5cbe 4d04 ddba 95a1 bcbd a02b 1f3e
000003a0: 3085 30be cd21 7ebd ea9a 893e 5df7 3c3e
000003b0: c9fe de3d 0059 d83d 50d3 b4bd fb73 b73d
000003c0: d06d 9c3d 10c9 1b3e 28e0 343d 6d23 03bd
000003d0: 8da8 28be 2491 b4bd 42ed 1c3e 6963 78bd
000003e0: bca2 24bb 5b8e 8cbc c099 15bd 597b 3b3e
000003f0: b82a dabd e76f 51be f22e 2a3e cefb debd
0.3167712 -0.74700123 0.035710655 0.022107374 0.073273584 0.18673402 -0.56185645 0.2051438
-0.062154118 0.003502752 -0.64711374 -0.14041702 -0.058679387 -0.7314694 -0.035961997 0.16671444
-0.041127104 0.2546444 -0.6122062 0.2242574 -0.31918132 0.22221497 0.054921374 -0.11050991
-0.23095706 -0.7592956 0.20217922 0.22413215 -0.4140071 0.027141606 -0.4532102 0.19666193
0.108006336 -0.168021 -0.025466938 -0.07547748 -0.17280503 -0.15377797 -0.018534182 0.027840184
0.16719358 -0.15193991 0.13249797 -0.1704326 -0.060894713 -0.073467225 0.0701199 -0.1413516
-0.10287546 -0.08217375 -0.14430872 0.041382007 0.098835856 -0.03603092 0.025767319 -0.09378502
-0.008009903 -0.17294247 -0.15147883 0.10565768 0.12991633 -0.032443084 -0.004370944 -0.09301997
0.120262034 -0.19193392 -0.017431784 -0.17812444 0.086449794 -0.060507655 0.08300751 0.035610106
0.116708905 -0.3049823 -0.20721114 0.18229222 -0.06279717 -0.14408459 -0.100496046 0.1491669
0.22727416 0.04482264 -0.21404383 -0.14253286 -0.3195746 0.11067597 0.11943143 -0.16045816
0.23893549 -0.038760114 -0.057700057 0.22908506 0.14766632 0.046756487 -0.24730675 0.02646617
0.052830495 -0.09556873 -0.14355414 -0.02113988 -0.12258493 -0.12468516 -0.03090393 -0.12936164
0.024886634 0.10155102 -0.09092146 -0.006147642 0.047289148 0.13341048 0.037462242 0.024766868
0.03842261 -0.19193977 -0.19657883 -0.07624897 0.06453432 0.06156256 -0.051741477 -0.052197024
-0.18303755 0.10982697 0.10000914 -0.049131956 -0.03151787 -0.12504302 -0.103554904 -0.054152686
0.16949497 -0.26723182 -0.073356695 -0.24168085 -0.097948425 0.0379589 0.3846877 0.0013119008
0.09708228 -0.29398316 -0.14613488 0.13986492 -0.0018010611 -0.16136692 -0.23590668 0.21797954
0.23213163 0.15184815 -0.2317114 -0.1531512 -0.31343192 0.23462747 0.28510728 -0.49861467
0.16035789 -0.1254811 -0.047483463 0.117754005 0.4457157 0.11739526 -0.21861494 -0.18544318
-0.16170181 0.04093736 0.036299363 0.21585381 0.17082466 -0.07012808 0.34960172 -0.20335285
-0.085952945 0.030573567 -0.16978228 -0.119034365 0.17544849 -0.17766547 -0.07265021 0.09946377
0.08241231 0.0017171319 -0.3910423 0.12921682 -0.005263534 -0.15407178 0.04429562 0.22392792
-0.037703127 -0.22167274 0.10608975 -0.1049121 -0.031463336 0.20915967 -0.36882347 0.1959559
0.11164924 0.008395888 0.1292011 0.18193585 0.12046186 0.13620909 0.072932504 -0.08304711
0.18408506 0.013238143 -0.10086609 0.07824241 0.063099466 -0.03223194 0.089165315 -0.010798273
0.057612494 0.08663858 -0.09306708 -0.0692868 -0.17069702 0.14715119 0.06591084 -0.17482384
-0.12392967 -0.11225289 0.17210205 0.14295891 -0.05490288 -0.12207957 0.15366338 -0.07274314
0.22071996 0.039674595 0.11549177 0.056186967 -0.2151516 -0.0016862244 -0.09210507 0.15543985
-0.17238307 -0.062043954 0.26876003 0.18453737 0.1088844 0.105638504 -0.08829367 0.089576684
0.076381326 0.15213418 0.044159085 -0.032016207 -0.16470547 -0.08816746 0.15324882 -0.06064168
-0.0025121411 -0.017157724 -0.03652358 0.18308772 -0.10652679 -0.20452844 0.1661947 -0.10887872

fc2_2.bias f4 [16]
00000000: 7752 01be f7e5 8dbd a412 3c3c 7eeb 50be
00000010: a8bd 603e d5f5 333e b03f 233e affa 5a3e
00000020: ac83 8bbd f48e 4039 478d 9cbd 16c0 2ebe
00000030: 0681 123e 5453 013e 1c6e 153e 9ae7 4d3e
-0.12629114 -0.06928628 0.011479054 -0.20402333 0.21947348 0.17574246 0.15942264 0.2138469
-0.06812224 0.00018363801 -0.07644134 -0.17065462 0.14307031 0.12629443 0.14592785 0.2010788

fc3.weight f4 [4, 16]
00000000: 437b 423f a8be 18bd 6b35 273f 6eb4 32be
00000010: 61d7 113f 4680 8bbe 6204 603e 77df a2be
00000020: 2ce3 423f cf21 af3e bbdb 7abe c04f 5e3d
00000030: 99fc 5abe 4b9d dcbe dcfe b53d 559b 2a3f
00000040: 12d1 953e 207a 7ebd cacc 753e 9d08 30be
00000050: 1ea3 1e3e b820 e8bd c2df 093e f58b 90be
00000060: d3ed a73d a739 ee3e 2dcf 2a3e 3809 8c3d
00000070: 9f31 5bbe 287b 3dbe 859b f9bd 2b47 fa3d
00000080: 95ec 823e 4467 1d3e 70f3 383e 4644 2bbe
00000090: f55a 0c3e 95ae 4e3b 957f 943e 972b 53be
000000a0: 0338 14bf bea6 cd3e 5353 28bd 80ab 05be
000000b0: 18e7 803e f227 3c3c 0d8a 253c 9188 18be
000000c0: 5e1f 913e d018 6f3d f7e9 5d3e 6b6e cabd
000000d0: d745 863d 0f7a 91be 962d a7be aa47 523e
000000e0: f987 a2be 14d1 f0bd 4f01 6a3e da65 1b3e
000000f0: 7a83 5f3c 6c47 95be 2f27 733e 5b4e 2bbe
0.7596933 -0.0372912 0.65315884 -0.17451641 0.5696927 -0.27246302 0.21876672 -0.31811115
0.76127887 0.3420548 -0.24497883 0.054275274 -0.21385421 -0.43088755 0.08886501 0.6664327
0.2926107 -0.062128186 0.24003902 -0.17190786 0.15491912 -0.113343656 0.13464263 -0.2823178
0.08199658 0.4652836 0.16680594 0.06837696 -0.21405648 -0.18504012 -0.12187866 0.122206055
0.25571123 0.15371424 0.18061614 -0.16725263 0.13706572 0.0031537164 0.29003587 -0.20622097
-0.5789797 0.40166277 -0.04109509 -0.13053703 0.2517631 0.011484133 0.010103715 -0.14895846
0.28344244 0.058373272 0.21671282 -0.09884342 0.0655629 -0.28413436 -0.32651967 0.2053515
-0.31744364 -0.117586285 0.22852062 0.15175572 0.013642186 -0.29156053 0.23745416 -0.16729109

fc3.bias f4 [4]
00000000: 6bd9 d2bd 94ff 87be d912 a0be 2006 2f3e
-0.102953754 -0.26562178 -0.3126438 0.1709218
