drone_experiments/MATLAB/weights_NOM/NN_y.onnx (onnx, 39865 bytes, 14 tensors)

fc1.weight f4 [8, 3]
0	0x3cfc9cf7	0.030836565
1	0xbf17fad6	-0.5936712
2	0xbed060c6	-0.40698832
3	0xbf05b9fd	-0.5223692
4	0x3db0e936	0.086382315
5	0x3e931f38	0.28734756
6	0x3ee780d2	0.4521547
7	0x3c1464c0	0.009057224
8	0xbe656e50	-0.22405362
9	0x3eda6d05	0.426613
10	0xbed90760	-0.4238844
11	0x3deb826a	0.11499484
12	0xbe5b9fe8	-0.21447718
13	0x3e9664fe	0.29373926
14	0x3eac4d31	0.33652642
15	0x3f2341c9	0.63772255
16	0x3ecd2385	0.40066162
17	0x3e73628f	0.23768066
18	0xbefc6eeb	-0.49303374
19	0x3f3c3438	0.7351718
20	0xbe2d4834	-0.16922075
21	0x3f565095	0.8371671
22	0xbf0a5359	-0.5403343
23	0xbdb3cdd4	-0.08779493

fc1.bias f4 [8]
0	0xbe03f560	-0.12886572
1	0x3eeeeb66	0.4666397
2	0x3eea820c	0.45802343
3	0x3ea03fb2	0.31298596
4	0xbea443ee	-0.32083076
5	0x3e55d5c1	0.20882322
6	0xbe53d0a6	-0.20685062
7	0x3d0b610a	0.03402809

fc2.weight f4 [32, 8]
0	0x3e90a367	0.28249666
1	0x3ef7ffbd	0.484373
2	0x3c408317	0.011750004
3	0xbeb56900	-0.3543167
4	0xbf1e6005	-0.61865264
5	0xbe0a2825	-0.13491876
6	0x3e8110c9	0.2520812
7	0xbf4cd952	-0.80019104
8	0xbedff05c	-0.43738067
9	0x3ead85db	0.33891186
10	0x3dac71f9	0.08420176
11	0xbe75b433	-0.23994522
12	0x3ed7a92d	0.42121258
13	0xbf1eb135	-0.61989146
14	0xbe3a4f41	-0.18194295
15	0x3cb1b693	0.021693503
16	0xbe753797	-0.23946987
17	0xbd7a13ac	-0.061053917
18	0x3ea245a8	0.31693769
19	0xbd47916a	-0.048722662
20	0xbf0378bc	-0.513561
21	0x3e49a04d	0.19690056
22	0x3e850449	0.25979832
23	0x3e1564aa	0.14589182
24	0x3e673f65	0.22582777
25	0x3ea0cb75	0.31405225
26	0x3e520832	0.20510939
27	0xbdb73f93	-0.08947673
28	0x3eb24111	0.34815267
29	0xbeaf5392	-0.34243447
30	0xbe932984	-0.2874261
31	0x3f02edfd	0.5114439
32	0x3d87f135	0.066378035
33	0x3e629eed	0.22130938
34	0xbe8138cf	-0.25238654
35	0xbca5d86a	-0.020244796
36	0xbd741876	-0.05959364
37	0x3df38024	0.11889675
38	0x3ee5ed45	0.44907585
39	0x3e8e39f7	0.277786
40	0x3e9afcc7	0.3027098
41	0x3e06652e	0.13124534
42	0x3db93cb3	0.090447806
43	0x3e38fc70	0.18065047
44	0x3e918f0b	0.28429446
45	0x3e73a25b	0.23792402
46	0xbcaa8bf6	-0.020818692
47	0xbe2749c4	-0.16336733
48	0x3ee7cfbf	0.45275685
49	0xbd82e162	-0.063906446
50	0x3de3def6	0.11126511
51	0x3e595804	0.21224982
52	0xbdf199d1	-0.11796916
53	0xbe962f45	-0.2933294
54	0x3f111a62	0.5668088
55	0xbd2b54c7	-0.041828897
56	0x3dcdc205	0.10046772
57	0x3d67c09a	0.056580164
58	0x3d3aaaf0	0.045573175
59	0xbe141ede	-0.144649
60	0x3da1c0cb	0.078981005
61	0xbbf981a9	-0.0076143336
62	0xbdec0903	-0.11525156
63	0x3ac39d4d	0.0014924199
64	0x3b5189df	0.0031973047
65	0xbe973ee4	-0.2954017
66	0x3e841992	0.2580076
67	0xbc83d8d0	-0.016094595
68	0xbf15f80b	-0.5858161
69	0x3ea76478	0.3269384
70	0x3e0596e6	0.13045844
71	0x3e561684	0.20907027
72	0xbec8b214	-0.39198363
73	0x3bfcee5e	0.0077188453
74	0x3dfb71cd	0.12277565
75	0x3e8e6c5c	0.27817047
76	0xbda039b0	-0.07823503
77	0x3ecfe4ef	0.4060435
78	0x3e61c8f6	0.22049317
79	0x3e87eccb	0.26547846
80	0x3e43cf84	0.1912213
81	0x3ed10330	0.40822744
82	0x3e95a268	0.2922547
83	0xbe1fd2b5	-0.15607722
84	0xbf18d124	-0.59694123
85	0x3ee19b16	0.44063634
86	0xbda452d5	-0.080236115
87	0x3c5f0a2a	0.013613263
88	0x3f479aba	0.7797047
89	0x3e73f660	0.23824453
90	0xbdb3bb1c	-0.08775923
91	0xbf1f699c	-0.6227052
92	0xbeeaf21a	-0.45887834
93	0xbe612fce	-0.21990892
94	0x3e6b1487	0.2295705
95	0x3aa2de75	0.0012425917
96	0x3e61fa48	0.22068131
97	0xbe44e51d	-0.19228025
98	0xbd08443b	-0.033268195
99	0xbdbc6e13	-0.092006825
100	0x3de6b1de	0.11264394
101	0xbe82f6f6	-0.2557904
102	0xbe9891db	-0.2979878
103	0x3d816fe3	0.06320169
104	0x3f00aa59	0.5025993
105	0x3e023a61	0.12717582
106	0x3e36749b	0.17817919
107	0xbd32834b	-0.043582242
108	0x3ec2a9fd	0.38020316
109	0xbea0053e	-0.31254
110	0xbd0b6dc6	-0.034040235
111	0x3ecc0bfe	0.398529
112	0xbd6532d0	-0.05595666
113	0xbe8abc29	-0.2709668
114	0x3eca0a54	0.39461005
115	0x3e30e623	0.1727529
116	0xbf0049df	-0.5011272
117	0x3dfa011e	0.12207244
118	0xbe86bc02	-0.26315314
119	0x3d7db1d6	0.061937176
120	0x3da06a0f	0.07832729
121	0x3ebf5a1d	0.37373438
122	0xbe0911c8	-0.1338569
123	0xbd06a9f8	-0.03287694
124	0xbe99f653	-0.30070743
125	0xbd58844b	-0.05286054
126	0x3e623820	0.22091722
127	0x3e87cac8	0.26521897
128	0x3dcfeaa9	0.1015218
129	0x3ea4f273	0.32216224
130	0xbdff079e	-0.12452625
131	0x3df21b1f	0.11821579
132	0x3c2b6465	0.010460948
133	0xbddbdbe1	-0.10735298
134	0x3e991d4d	0.29905167
135	0x3e163d90	0.14671922
136	0x3eba4429	0.36380127
137	0x3e7a0469	0.24415745
138	0xbebb2015	-0.36547914
139	0xbe020f29	-0.12701096
140	0x3ea538f6	0.3227002
141	0x3d842e35	0.06454126
142	0xbe2a7fa7	-0.16650258
143	0x3ea61e97	0.32445213
144	0xbea17f20	-0.315423
145	0xbdc1001e	-0.094238505
146	0x3ed21a7f	0.4103584
147	0xbdd5bdd1	-0.10436595
148	0xbd2e196a	-0.042504705
149	0xbe3746ce	-0.17898104
150	0x3e6dc2a6	0.23218784
151	0xbe8ad8cc	-0.27118528
152	0xbe80b3be	-0.25137132
153	0x3e428977	0.18997751
154	0x3ec9e222	0.39430338
155	0x3e3ee905	0.18643577
156	0xbee531db	-0.447646
157	0x3eac9808	0.3370974
158	0x3ed15fdc	0.40893447
159	0x3e551458	0.20808542
160	0xbea6ca9a	-0.32576448
161	0xbe893a36	-0.26802224
162	0x3e84d6fc	0.2594527
163	0x3e889bef	0.26681468
164	0xbf225570	-0.6341162
165	0x3e9d7797	0.30755302
166	0xbeb46822	-0.35235697
167	0x3e576ca5	0.21037538
168	0xbe904ca4	-0.28183472
169	0xbe158478	-0.14601314
170	0x3e25f42c	0.16206425
171	0xbe70d5ac	-0.2351901
172	0xbee91f66	-0.45531768
173	0x3e97f115	0.29676118
174	0xbe924008	-0.28564477
175	0x3e81912a	0.25306064
176	0xbec58d8a	-0.38584548
177	0xbd6a70b1	-0.057236377
178	0x3d90b31b	0.07065412
179	0x3e1b82db	0.15186636
180	0xbe647090	-0.22308564
181	0x3edc7fe1	0.43066314
182	0x3f155a45	0.58340865
183	0x3f14292a	0.5787531
184	0xbfaf69c2	-1.370415
185	0xbea27aeb	-0.31734404
186	0xbdf37b19	-0.118887134
187	0x3e8ce9fe	0.27522272
188	0xbe53a04d	-0.20666619
189	0x3de87f37	0.11352389
190	0xbf504892	-0.81360734
191	0xbde4ffeb	-0.11181625
192	0x3ee06cbe	0.43832964
193	0x3bb2aa7f	0.0054524536
194	0x3e5a582b	0.21322696
195	0x3e8dcfa9	0.27697495
196	0x3f0b4ce4	0.544142
197	0xbe8a24de	-0.26981252
198	0xbd914430	-0.07093084
199	0x3e8db89b	0.27679905
200	0x3e2bbfcf	0.16772388
201	0xbdc872ac	-0.09787497
202	0x3e14a63b	0.14516537
203	0xbbf39490	-0.0074334815
204	0x3d86e406	0.06586461
205	0xbe807f94	-0.25097334
206	0xbdc888fd	-0.097917534
207	0xbe0d2db8	-0.13786972
208	0x3e8b99e8	0.2726586
209	0x3e34dbdc	0.17661995
210	0x3e79a9c4	0.24381167
211	0x3ea4976c	0.32146776
212	0x3ed1947b	0.40933594
213	0xbdc1abca	-0.09456594
214	0x3e41f225	0.18940027
215	0x3eb0087a	0.34381467
216	0xbecbb490	-0.39786196
217	0xbebbc068	-0.36670232
218	0x3ea8f39a	0.32998353
219	0xbebccde5	-0.36875835
220	0xbdb415cd	-0.08793221
221	0xbd2b073a	-0.04175494
222	0x3ee42bd3	0.44564685
223	0x3eb09967	0.34492037
224	0x3edd21ec	0.43189943
225	0x3eb893d5	0.36050287
226	0xbe4058fc	-0.18783945
227	0x3e848c2f	0.25888202
228	0x3e9e8960	0.30964184
229	0x3dbbab49	0.091635294
230	0x3ee0cfee	0.43908638
231	0xbc29c263	-0.010361287
232	0x3ddaec74	0.10689631
233	0x3e73441c	0.2375645
234	0x3c874b59	0.01651542
235	0xbd872ce6	-0.066003606
236	0x3dfda6b8	0.12385315
237	0xbe5725b1	-0.21010472
238	0xbd22ed08	-0.039776832
239	0xbe232bf3	-0.15934734
240	0x3e2b9ebd	0.16759773
241	0x3edcbf78	0.4311483
242	0xbf28c05f	-0.65918535
243	0xbe14e642	-0.14540961
244	0x3f06e237	0.52688926
245	0xbec1f019	-0.37878492
246	0x3eaffd04	0.34372723
247	0x3da99302	0.08279993
248	0x3d90f703	0.07078364
249	0x3c5e1619	0.013555073
250	0x3efad9ef	0.48994395
251	0xbca359ec	-0.019940339
252	0xbd8cc5df	-0.068736784
253	0x3f005fe5	0.50146323
254	0xbd4891e7	-0.04896727
255	0xbda6748e	-0.081277

fc2.bias f4 [32]
0	0xbd436f0f	-0.047713336
1	0x3de865ee	0.113475665
2	0x3e2443e1	0.16041519
3	0x3e17d0f1	0.14825799
4	0x3e95b34c	0.29238355
5	0x3dc150e5	0.094392575
6	0xbdb0f915	-0.086412586
7	0xbeb185c2	-0.34672362
8	0x3e8c0e76	0.27354783
9	0x3e286576	0.16444954
10	0x3e9794c2	0.2960568
11	0x3e1f6fa8	0.15569937
12	0xbeb1f7f3	-0.34759483
13	0x3d048300	0.032351494
14	0x3eb37ea4	0.35057557
15	0x3e906d34	0.28208315
16	0x3e35da26	0.17758998
17	0x3e36d475	0.17854483
18	0x3e525fd7	0.20544372
19	0xbe110c48	-0.14164841
20	0x3ec231b9	0.3792856
21	0x3e6c9806	0.23104867
22	0x3e10ed7f	0.14153098
23	0x3d67d344	0.056597963
24	0x3e98f961	0.2987776
25	0xbdc315ab	-0.09525617
26	0xbe4d593f	-0.20053576
27	0x3e31dca5	0.17369325
28	0x3ea095c8	0.31364274
29	0x3eb4a3ef	0.3528132
30	0xbe4f99c4	-0.202735
31	0xbe54a72e	-0.20766899

fc2_1.weight f4 [64, 32]
0	0xbe25eac1	-0.16202833
1	0xbf4a12cb	-0.78934926
2	0x3e1ba5e5	0.15200002
3	0xbc86221d	-0.016373688
4	0x3c7a18e4	0.015264723
5	0x3e04462f	0.12917398
6	0x3eed3617	0.4633033
7	0x3e1f9ced	0.15587206
8	0x3e12bce1	0.14329864
9	0xbd97c139	-0.07409901
10	0x3e588646	0.21144971
11	0xbe984c2e	-0.2974562
12	0x3d463656	0.048391663
13	0xbe329c73	-0.17442493
14	0x3dac2190	0.08404839
15	0xbd824df1	-0.063625224
16	0xbe397140	-0.18109608
17	0xbc661235	-0.014042427
18	0xbd9b3759	-0.07578916
19	0x3e6d9082	0.23199657
20	0x3e19d252	0.15021637
21	0x3e0ab14e	0.13544199
22	0xbdd6d20d	-0.10489283
23	0x3f2175c9	0.6307035
24	0xbe527c5d	-0.20555253
25	0x3dfd7fc0	0.12377882
26	0xbddceeed	-0.10787759
27	0x3dd80872	0.10548486
28	0x3d4ed3ee	0.05049508
29	0x3bd51b0b	0.006503468
30	0xbe232b2a	-0.15934435
31	0x3e5a55cc	0.21321791
32	0xbd8cc237	-0.06872981
33	0x3c600612	0.013673322
34	0xbe1d8813	-0.1538394
35	0xbe2aecf0	-0.16691947
36	0xbdd54266	-0.10413055
37	0xbdc5c9e2	-0.09657647
38	0xbc1e0d2e	-0.009646697
39	0xbde2b01f	-0.11068749
40	0x3d901546	0.070353076
41	0x3c658756	0.014009317
42	0x3d3beae7	0.045878317
43	0xbdba0f52	-0.09084953
44	0x3deee947	0.11665588
45	0xbde7d422	-0.11319758
46	0x3d86ee39	0.06588406
47	0xbe01ab6d	-0.1266305
48	0x3ab509e6	0.0013812154
49	0xbd120577	-0.035649743
50	0x3e055e67	0.13024293
51	0xbe13e156	-0.14441428
52	0x3dd630d9	0.10458536
53	0xbdb6c70b	-0.08924683
54	0xbc365d4f	-0.011130645
55	0xbd88f937	-0.06688159
56	0xbcc9772d	-0.02459296
57	0x3c855c65	0.016279409
58	0x3d88fbdb	0.066886626
59	0x3cebf783	0.028804546
60	0x3def3f97	0.11682051
61	0xbd3397d1	-0.043845955
62	0x3e243b49	0.1603824
63	0x3d0880cc	0.033325955
64	0x3eb845ae	0.3599066
65	0x3ed2b959	0.41157034
66	0xbda6fd51	-0.08153785
67	0xbda82879	-0.082108445
68	0x3dce46c4	0.10072091
69	0x3b796d0a	0.0038059377
70	0xbf3a2bc8	-0.72723055
71	0xbd8c6f33	-0.06857147
72	0xbd226e02	-0.039655693
73	0x3e140d16	0.14458117
74	0x3e123f07	0.14281856
75	0x3e60425c	0.21900314
76	0xbdca6cbd	-0.098840214
77	0x3e0c7dc6	0.13719854
78	0x3e31348a	0.17305198
79	0x3e4892ea	0.19587293
80	0xbc996522	-0.018724982
81	0x3daf1975	0.085497774
82	0xbcf514b5	-0.0299171
83	0x3e46a919	0.19400443
84	0x3dce83df	0.10083746
85	0x3ebc624e	0.3679375
86	0x3dd69b8c	0.10478887
87	0xbe3784c5	-0.17921741
88	0xbe27c6af	-0.16384386
89	0x3c5be02c	0.013420146
90	0x3db60637	0.08887904
91	0x3ee4b0a1	0.44666007
92	0xbc9bae30	-0.019003958
93	0x3d8b9a16	0.06816499
94	0xbe1ffdf9	-0.15624227
95	0x3df240f3	0.11828794
96	0xbda8d417	-0.08243578
97	0x3ec30108	0.38086724
98	0x3db4a3b1	0.08820284
99	0x3dd1fb21	0.10252977
100	0xbd316af3	-0.043314885
101	0xbd3cb248	-0.04606846
102	0xbf4db858	-0.8035941
103	0xbe00de36	-0.12584767
104	0xbd59e698	-0.053198427
105	0x3d509f17	0.05093297
106	0x3d4d2000	0.050079346
107	0x3df4831f	0.11939072
108	0x3c6e6bf4	0.014552105
109	0x3eacd61a	0.33757097
110	0xbd933ad9	-0.07188959
111	0x3e2fc0ba	0.17163363
112	0xbdca3586	-0.0987349
113	0x3e5429ce	0.20719072
114	0xbe1f2951	-0.15543105
115	0x3d16a270	0.036776006
116	0x3e14f879	0.1454791
117	0xbd5a3e1c	-0.05328189
118	0xbd811e46	-0.06304602
119	0xbe909456	-0.2823817
120	0x3e665d68	0.22496569
121	0x3d888288	0.06665522
122	0x3e37e5a1	0.1795869
123	0x3dd7b8b9	0.1053328
124	0x3e13a87e	0.14419743
125	0xbd3a3f22	-0.045470364
126	0x3e7cc7ca	0.24685588
127	0xbe852b79	-0.2600973
128	0x3daa282d	0.08308444
129	0x3d96292a	0.0733207
130	0xbd82806d	-0.063721515
131	0xbde91eae	-0.11382805
132	0xbd7970fd	-0.06089877
133	0xbe4cf564	-0.20015484
134	0xbda07046	-0.078339145
135	0x3e2433fa	0.16035452
136	0xbd689d90	-0.05679089
137	0x3d90b89c	0.070664614
138	0x3d8d9184	0.069125205
139	0x3d901a8b	0.07036313
140	0x3cd5259e	0.026018914
141	0x3cbc2c71	0.02297041
142	0xbe490c28	-0.19633543
143	0x3ba1743b	0.004927186
144	0xbe3ddd85	-0.18541534
145	0x3d966249	0.07342965
146	0x3b1b0131	0.0023651833
147	0x3dfed0cb	0.12442168
148	0x3d2314d6	0.039814793
149	0x3d32fff2	0.04370112
150	0xbbb1d101	-0.0054265265
151	0xbd8c71b6	-0.06857626
152	0xbca0b3e6	-0.019617032
153	0x3e233c82	0.1594105
154	0xbe14070b	-0.14455812
155	0x3df06017	0.11737078
156	0xbdd48c8b	-0.10378369
157	0xbd8fa8e4	-0.07014635
158	0xbcf20353	-0.0295426
159	0x3e0a2934	0.1349228
160	0x3f0686c4	0.52549386
161	0x3ea8b844	0.32953084
162	0x3e6c7bab	0.2309405
163	0x3cdcf56b	0.026972493
164	0x3d43e24f	0.047823247
165	0xbe283120	-0.1642499
166	0xbf78447e	-0.9697951
167	0xbe315525	-0.17317636
168	0xbd0a06fb	-0.033698063
169	0xbc91eeac	-0.017814003
170	0x3dbabf8a	0.091185644
171	0x3f19e35f	0.60112566
172	0x3df27654	0.118389755
173	0xbe071169	-0.13190235
174	0x3d8d31b0	0.06894243
175	0x3e5349be	0.20633599
176	0xbd50bf5c	-0.050963745
177	0xbb33162a	-0.0027326443
178	0xbd708f0c	-0.05873017
179	0x3e37c082	0.1794453
180	0x3d636eaa	0.05552546
181	0x3e8fc488	0.2807963
182	0x3e1bd9a4	0.15219742
183	0xbeea7edb	-0.45799908
184	0xbd9b9fe0	-0.07598853
185	0x3e012eaa	0.12615457
186	0xbc593c9d	-0.01325908
187	0x3e6c693a	0.23087016
188	0xbde98266	-0.11401825
189	0x3e0672e8	0.13129771
190	0x3e2f7f83	0.17138486
191	0xbd4fd50c	-0.050740287
192	0x3c6bce4e	0.014392449
193	0x3e0520ab	0.13000743
194	0x3e15eef9	0.14641942
195	0x3ce8336c	0.028344832
196	0x3d48f63c	0.049062952
197	0xbcd479b8	-0.025936946
198	0x3d913f82	0.07092191
199	0xbda793d6	-0.08182494
200	0xbdd8724e	-0.10568677
201	0xbdf96e6b	-0.12179264
202	0x3e048d58	0.12944543
203	0xbddbd557	-0.10734051
204	0xbdc01ea8	-0.09380847
205	0xbe18510a	-0.14874664
206	0xbb696880	-0.0035615265
207	0xbbee41cc	-0.007271027
208	0xbe3ed0a5	-0.18634279
209	0x3d4128b4	0.04715796
210	0x3d306cb2	0.04307241
211	0x3dbf5be5	0.09343699
212	0xbd69bf25	-0.057067055
213	0x3d94b615	0.07261292
214	0xbe39fd25	-0.18162973
215	0x3e216282	0.15760234
216	0x3e1d1a0e	0.1534197
217	0xbe3373c1	-0.17524625
218	0x3b891eaa	0.0041845636
219	0xbd2c7760	-0.042106032
220	0xbd919416	-0.07108323
221	0x3d0d33c2	0.03447319
222	0x3e0bcb75	0.13651831
223	0xbe0e1c8f	-0.13878082
224	0xbdbffb64	-0.09374121
225	0xbd245e66	-0.040129088
226	0xbd6aaa99	-0.0572916
227	0xbd6cb7cd	-0.057792474
228	0xbdfc14b8	-0.12308639
229	0x3dd8a438	0.10578197
230	0xbdf10045	-0.117676295
231	0x3d67d789	0.056602035
232	0xbe02474a	-0.12722507
233	0xbd80947e	-0.06278323
234	0xbcdf8057	-0.027282877
235	0x3ddf5655	0.109051384
236	0xbd0c81a9	-0.03430334
237	0xbd6bb0b1	-0.057541553
238	0x3cb40576	0.02197526
239	0xbe0ab80d	-0.13546772
240	0x3cb2cb82	0.021825556
241	0x3d96606e	0.07342611
242	0x3d93e674	0.0722169
243	0xbdf661de	-0.120303854
244	0x3e34b666	0.17647704
245	0x3d6b2d20	0.05741608
246	0xbcb713ca	-0.022348303
247	0xbe31058b	-0.1728727
248	0xbd56501b	-0.05232249
249	0xbe19ea0a	-0.15030685
250	0x3d173e40	0.0369246
251	0x3c4ce6c5	0.012506192
252	0x3d127e1d	0.035764802
253	0xbe236d34	-0.15959626
254	0x3dd34748	0.1031633
255	0x3df040a2	0.11731078

fc2_1.bias f4 [64]
0	0xbd84fdee	-0.06493746
1	0xbe03a3aa	-0.12855402
2	0x3d5e5e01	0.054288868
3	0x3d797e1c	0.060911283
4	0xbe17d21a	-0.14826241
5	0x3e5a6e77	0.21331201
6	0xbd89fd26	-0.06737737
7	0xbdfed2dd	-0.12442563
8	0xbe29929f	-0.16559838
9	0xbe2f42d0	-0.1711533
10	0xbcabc7ec	-0.020969354
11	0xbd2d60fc	-0.04232882
12	0xbc208c2c	-0.009799045
13	0xbda7cc99	-0.08193321
14	0x3d51f8ed	0.051262785
15	0x3ca36f52	0.019950543
16	0x3e22b44a	0.15889087
17	0x3d781eea	0.060576357
18	0x3dcdd2f9	0.100500055
19	0xbd05d137	-0.032670226
20	0xbda1f60b	-0.07908257
21	0x3e1d95c6	0.15389165
22	0x3de186b8	0.11012024
23	0x3d8771b3	0.06613483
24	0x3e42a940	0.19009876
25	0xbd0ad6e6	-0.03389635
26	0xbda1142d	-0.07865176
27	0x3da1870a	0.07887085
28	0x3db113aa	0.08646329
29	0x3df96f1a	0.12179394
30	0x3e1caa04	0.15299231
31	0x3dbaeef4	0.09127608
32	0x3d659ea6	0.056059502
33	0x3e21fe5b	0.15819685
34	0x3dcc74b1	0.099831946
35	0xbe009d73	-0.12560062
36	0xbd115a14	-0.035486296
37	0xbd34541d	-0.04402553
38	0x3dc792f8	0.09744829
39	0x3bf4ddad	0.007472715
40	0xbb15c722	-0.0022854288
41	0x3e2241ec	0.1584546
42	0x3d1b22a6	0.03787484
43	0x3d424b64	0.04743518
44	0x3e614db1	0.22002293
45	0x3e5fb298	0.21845472
46	0xbdead62f	-0.114666335
47	0xbcf53ca9	-0.029936152
48	0x3e37607f	0.17907904
49	0xbdbf54aa	-0.0934232
50	0xbc66a205	-0.014076714
51	0x3d85d375	0.06534473
52	0x3e17424d	0.14771385
53	0x3dc31611	0.09525693
54	0x3d8f4e21	0.06997324
55	0xbd91a08f	-0.07110702
56	0xbe26652c	-0.16249532
57	0x3e7d29ed	0.24723025
58	0xbe1890df	-0.14899014
59	0xbd59639c	-0.05307351
60	0x3de65bc3	0.11247971
61	0xbdf19529	-0.11796028
62	0x3e5b9e9e	0.21447226
63	0x3cc398cf	0.023876576

fc2_1_1.weight f4 [64, 64]
0	0xbd3dcc54	-0.04633744
1	0x3d814b18	0.06313151
2	0x3de73e6f	0.11291205
3	0x3e0f7b48	0.14011872
4	0xbb1eda2c	-0.0024238927
5	0x3d86c65f	0.06580805
6	0x3d95488a	0.07289226
7	0x3ddc1832	0.107468024
8	0xbf06c680	-0.52646637
9	0x3c3be290	0.011467591
10	0xbccff1e3	-0.025383895
11	0xbe45bd66	-0.19310531
12	0x3d45ab87	0.048259284
13	0x3c1becb2	0.009516882
14	0xbe201409	-0.15632643
15	0x3e3232e1	0.17402221
16	0x3d927e60	0.0715301
17	0xbdc22446	-0.09479575
18	0x3d07f47e	0.03319215
19	0xbd64c2ab	-0.055849712
20	0x3dec612d	0.11541972
21	0x3d315d47	0.043301847
22	0xbe41e29b	-0.189341
23	0x3d229488	0.03969243
24	0xbdfa811f	-0.12231659
25	0xbd2fea94	-0.04294832
26	0x3d464b73	0.048411798
27	0xbdcdd6d6	-0.10050742
28	0x3eb11a16	0.34590214
29	0xbd9ef85a	-0.07762213
30	0xbd3db59e	-0.04631578
31	0x3dc7afc4	0.097503215
32	0xbcf445a0	-0.029818356
33	0x3e1f88d1	0.15579535
34	0xbd9dffe8	-0.07714826
35	0xbdbf5b18	-0.09343547
36	0x3dd45a05	0.10368732
37	0x3e3551cd	0.17706986
38	0xbd8b756f	-0.06809508
39	0x3ded48e6	0.1158617
40	0x3da858bd	0.082200505
41	0xbd06ad20	-0.03287995
42	0xbe08ea34	-0.13370591
43	0x3e5eff66	0.21777114
44	0x3dd038ae	0.10167061
45	0x3da85a83	0.08220389
46	0xbc979410	-0.018503219
47	0x3d9e19ff	0.07719802
48	0xbc060ec2	-0.0081822295
49	0x3e212389	0.15736212
50	0x3dbfde4e	0.09368573
51	0x3d2567ce	0.0403822
52	0xbc569a1a	-0.013098264
53	0x3d753d6b	0.059873026
54	0xbe0e1549	-0.13875307
55	0xbd7ecf8f	-0.062209662
56	0xb8931000	-7.0124865e-05
57	0xbd1ac2eb	-0.037783545
58	0xbd6cc14c	-0.05780153
59	0xbce50f6a	-0.027961452
60	0x3d43c90c	0.047799155
61	0x3d1f2774	0.038855985
62	0xbddbaca3	-0.10726287
63	0x3e2bce98	0.16778028
64	0x3c56c4ad	0.013108415
65	0x3d186c5c	0.037212715
66	0xbdae972d	-0.08524928
67	0x3df71bea	0.12065871
68	0xbde34218	-0.11096591
69	0xbda2bc2f	-0.079460494
70	0x3df8e7e8	0.121536076
71	0xbd1d3b20	-0.038386464
72	0xbdd70fbf	-0.1050105
73	0x3d6625c4	0.05618836
74	0x3daf7ea0	0.08569074
75	0x3dab1b06	0.08354764
76	0x3d7b02f6	0.06128212
77	0xbdd6daa2	-0.1049092
78	0x3dcc981d	0.09989951
79	0x3d6a1d66	0.057156943
80	0xbc9cc490	-0.019136697
81	0x3d28beb0	0.04119748
82	0xbc53f4e0	-0.012936801
83	0xbd7e5061	-0.062088374
84	0xbc8fb91d	-0.017544324
85	0x3d9f845b	0.07788917
86	0xbd03b99e	-0.03215944
87	0x3d3bdca4	0.045864716
88	0x3deb14e5	0.11478595
89	0xbd129594	-0.03578718
90	0xbd6698f3	-0.056298207
91	0xbdd897f4	-0.10575858
92	0xbe0a53e7	-0.13508569
93	0x3d79d4a0	0.06099379
94	0x3d01737d	0.03160428
95	0xbcd43fea	-0.025909383
96	0x3dc5fcec	0.09667382
97	0x3d1c4021	0.038147096
98	0xbd88e5ea	-0.066844776
99	0x3df0ba86	0.117543265
100	0xbd2f22a4	-0.042757645
101	0xbc9c4438	-0.019075498
102	0xbd267460	-0.040638328
103	0x3c0ac0fb	0.008468862
104	0x3d851007	0.064971976
105	0xbde42bbb	-0.111411534
106	0xbd2a7f93	-0.04162557
107	0xbc0bd2e7	-0.00853417
108	0xbd98d5cd	-0.07462654
109	0x3dcd4b7a	0.10024162
110	0xbdc6144a	-0.096718386
111	0x3de67722	0.112531915
112	0x3ccd6519	0.025072621
113	0x3d1c9b35	0.038233954
114	0xbd10bab4	-0.035334304
115	0xbdbd992f	-0.09257733
116	0x3cdcaf14	0.026938953
117	0xbd49123a	-0.049089648
118	0xbda293a4	-0.079383165
119	0x3d874b4e	0.0660616
120	0xbdf1d104	-0.11807445
121	0x3df77e1f	0.120846026
122	0x3cd2b908	0.025722995
123	0xbdd24b78	-0.10268301
124	0xbd800b5b	-0.06252166
125	0xbd165e94	-0.03671129
126	0x3d6e7a0c	0.05822186
127	0xbd2bb896	-0.04192408
128	0xbc8096ff	-0.015697
129	0x3c8c5718	0.017131373
130	0xbd300ebc	-0.0429828
131	0x3dc0fc51	0.094231255
132	0xbd527c84	-0.05138828
133	0xbddad39a	-0.10684891
134	0xbb30328e	-0.0026885602
135	0x3d184bf8	0.037181824
136	0xbdea20ee	-0.11432062
137	0xbdba686e	-0.0910195
138	0xbccd61d0	-0.025071055
139	0xbcfed5f2	-0.031107876
140	0xbdb63977	-0.08897679
141	0x3d8d2307	0.068914466
142	0xbd7e45d0	-0.062078297
143	0xbe03bb99	-0.12864532
144	0xbd07f07e	-0.033188336
145	0x3dcaaa9e	0.09895824
146	0x3ca491af	0.020088999
147	0xbde79801	-0.11308289
148	0x3dc5c07b	0.09655853
149	0xbd1819ff	-0.037134167
150	0xbd53ec71	-0.05173916
151	0x3bb4360c	0.005499607
152	0xbd74a403	-0.059726726
153	0x3d945bc4	0.072440654
154	0x3d068ac7	0.032847192
155	0x3dc7762a	0.09739335
156	0xbbe91ee5	-0.0071142786
157	0xbd7b56ac	-0.061361954
158	0xbcb847d4	-0.022495188
159	0xbde0e7c9	-0.109817095
160	0x3d193094	0.037399843
161	0xbd903715	-0.07041756
162	0x3dd9477c	0.10609338
163	0xbdb414d6	-0.08793037
164	0xbdd39faa	-0.10333188
165	0xbd628b03	-0.055308353
166	0x3dcb8640	0.099377155
167	0x3d5f2a4d	0.0544837
168	0x3d5e7f9d	0.05432092
169	0x3d3ed8b4	0.046593383
170	0xbc6bb235	-0.01438575
171	0xbdb50866	-0.088394925
172	0x3d52e47f	0.051487442
173	0x3da64b43	0.08119824
174	0xbdd2598a	-0.102709845
175	0x3d0f7a95	0.035029013
176	0x3d99354f	0.07480871
177	0x3d5f14af	0.054463085
178	0x3d9679e9	0.07347471
179	0xbdead255	-0.11465899
180	0xbd7e9f22	-0.06216348
181	0x3d5211f2	0.051286645
182	0x3d1c632c	0.038180515
183	0x3dcf728c	0.1012927
184	0xbdaf4950	-0.08558905
185	0x3d1fd8f2	0.039025255
186	0xbde85692	-0.11344637
187	0x3c774ec9	0.015094467
188	0xbdee8c7a	-0.116478875
189	0x3bd20f80	0.006410539
190	0xbdb094e7	-0.08622151
191	0xbdaca900	-0.08430672
192	0x3cd03790	0.02541712
193	0x3db3887e	0.08766268
194	0x3dd7a30e	0.10529147
195	0xbd2992f3	-0.041399907
196	0x3debf0d8	0.11520547
197	0xbdb5930e	-0.08865939
198	0xbbff0780	-0.0077828765
199	0xbdc2cc4a	-0.09511621
200	0xbcb7d6c8	-0.022441283
201	0xbd9ce22a	-0.07660325
202	0x3d887524	0.06662968
203	0x3dd2ca36	0.10292475
204	0xbd9d7278	-0.07687849
205	0x3c8a724f	0.01690021
206	0x3accea00	0.0015633702
207	0x3c8b4d27	0.017004563
208	0x3da9d600	0.082927704
209	0x3dfaad66	0.122401044
210	0xbd052ce0	-0.0325135
211	0x3cd47a62	0.025937263
212	0xbd3e6f99	-0.046493147
213	0x3d61ccef	0.05512708
214	0xbde32d88	-0.11092669
215	0x3d396ffd	0.045272816
216	0x3dc41a19	0.0957529
217	0x3db4c0f0	0.088258624
218	0xbdf58e5a	-0.11990042
219	0xbdd6eb40	-0.10494089
220	0xbda6f692	-0.08152498
221	0x3d72ede0	0.059308887
222	0xbdc025ca	-0.09382208
223	0xbd8881ea	-0.06665404
224	0x3dcf20ea	0.101137
225	0x3d5857a0	0.05281794
226	0x3d488368	0.048953444
227	0x3d45c820	0.048286557
228	0xbda89998	-0.08232421
229	0x3d9df72a	0.077131584
230	0xbce0a98a	-0.027424593
231	0x3db606f4	0.08888045
232	0xbd8bf3e8	-0.06833631
233	0xbd6d0372	-0.057864614
234	0xbe059a24	-0.13047081
235	0xbdc62b20	-0.09676194
236	0xbbd5dc00	-0.00652647
237	0x3d4913d8	0.04909119
238	0xbdf05f06	-0.11736874
239	0xbbabbd40	-0.005241066
240	0x3d6b36a0	0.05742514
241	0xbdfa5868	-0.122238934
242	0x3b80e63f	0.0039336975
243	0xbd18f074	-0.03733869
244	0x3ca6f1af	0.020378916
245	0xbdfd874a	-0.1237932
246	0x3d87ea1d	0.066364504
247	0xbde0eb3a	-0.10982366
248	0x3d2677d8	0.040641636
249	0xbd96824e	-0.073490724
250	0x3d8d46aa	0.06898244
251	0xbd94ca2a	-0.07265122
252	0x3ba91165	0.0051595443
253	0xbd1dfd0c	-0.038571402
254	0xbd81df83	-0.063414596
255	0xbc0acf75	-0.008472313

fc2_1_1.bias f4 [64]
0	0x3dc2a77a	0.095046
1	0xbde3bbdf	-0.11119818
2	0x3d675e10	0.05648619
3	0x3d5497ed	0.0519027
4	0x3e2d2250	0.1690762
5	0xbdef2d1c	-0.11678526
6	0x3db6ff5b	0.08935424
7	0x3db80851	0.08985961
8	0xbdff08f0	-0.124528766
9	0x3df36719	0.11884899
10	0x3e3d64aa	0.18495432
11	0x3db07f96	0.08618085
12	0x3dab5f75	0.08367816
13	0x3d47823f	0.048708197
14	0xbd91d84e	-0.07121335
15	0x3e2691bd	0.16266532
16	0x3aa64b03	0.001268715
17	0x3c80a27a	0.015702475
18	0xbdd8dbce	-0.105887994
19	0x3d9ea6f2	0.07746686
20	0x3d1ab9d4	0.037774876
21	0x3d990f3b	0.07473608
22	0x3dea999b	0.11455079
23	0xbdb31c2d	-0.087456085
24	0xbd6056b2	-0.05477018
25	0xbbf9c55c	-0.007622404
26	0x3df2fdaf	0.118647926
27	0x3d233028	0.039840847
28	0x3dc5fccc	0.09667358
29	0xbe2cde79	-0.16881742
30	0x3dc668ac	0.09687933
31	0x3dbcc692	0.09217562
32	0x3bd582e0	0.0065158457
33	0x3de152e7	0.110021405
34	0x3e523b80	0.2053051
35	0x3c56765c	0.0130897425
36	0xbe1d972a	-0.15389696
37	0xbdff55bc	-0.124675244
38	0x3d0262be	0.03183245
39	0x3d1927d7	0.03739151
40	0x3d71dd18	0.059048742
41	0xbc2aac19	-0.010417008
42	0x3dd253a2	0.10269858
43	0x3dfaab4d	0.12239704
44	0x3da95d2f	0.082697265
45	0xbd9a6038	-0.075378835
46	0x3daba196	0.083804294
47	0xbe0d9fe0	-0.13830519
48	0x3c1f6490	0.009728566
49	0xbc2e14eb	-0.010625104
50	0xbc78628e	-0.015160216
51	0x3dc518b3	0.096238516
52	0x3dced8f2	0.10099973
53	0x3c717fb2	0.014739918
54	0xbd6b2202	-0.05740548
55	0xbd13cd4c	-0.03608446
56	0x3dd302de	0.10303281
57	0x3bd40dc2	0.0064713666
58	0x3d80d721	0.062910326
59	0x3e452992	0.19254139
60	0xbdf4aa5a	-0.119465545
61	0xbda2bb67	-0.079459004
62	0xbd02f000	-0.031967163
63	0x3e3930e4	0.18085057

fc2_1_2.weight f4 [32, 64]
0	0xbc542ffc	-0.0129508935
1	0xbddf0bea	-0.10890944
2	0xbcd52c0e	-0.026021983
3	0xbcab927e	-0.020943876
4	0xbd30ef5b	-0.043197017
5	0xbd495b3a	-0.049159266
6	0xbdd813d0	-0.10550654
7	0xbd99adbc	-0.0750384
8	0x3d2c2c54	0.042034462
9	0x3e0f0ac5	0.13968952
10	0x3e84b50c	0.25919378
11	0xbe0985b7	-0.13429914
12	0x3e3051c5	0.17218693
13	0x3e15a5fa	0.14614096
14	0xbd908268	-0.07056123
15	0x3d9d2e9b	0.07674905
16	0x3dec26ea	0.1153086
17	0xbc12c0be	-0.008957086
18	0x3c20d160	0.009815544
19	0x3e04808d	0.12939663
20	0x3aaf5d86	0.0013379313
21	0xbc8b084c	-0.01697173
22	0x3e115bc5	0.14195164
23	0xbaed73c0	-0.0018116161
24	0x3c4557c7	0.0120448535
25	0x3ca7861c	0.02044969
26	0xbe32f479	-0.17476071
27	0xbdc08127	-0.09399634
28	0xbe739eb8	-0.23791015
29	0x3e44a676	0.19204125
30	0xbd4ae829	-0.04953781
31	0x3c51ddd0	0.012809232
32	0x3c9a49c8	0.01883401
33	0x3d004860	0.031319022
34	0x3e6207a1	0.22073223
35	0xbd227350	-0.03966075
36	0xbcc9fb98	-0.024656102
37	0xbd9ae6f2	-0.075635806
38	0xbcb970a3	-0.022636717
39	0x3e70d3ac	0.23518246
40	0xbd8dfa66	-0.06932525
41	0x3e3f912a	0.1870772
42	0xbe72148c	-0.2364065
43	0x3b0b14b8	0.0021222066
44	0x3c257d37	0.010100654
45	0xbdf89e8a	-0.12139614
46	0x3e5eb3c4	0.21748263
47	0x3c466a03	0.012110236
48	0x3d848010	0.064697385
49	0xbe4163f5	-0.18885787
50	0x3d867494	0.06565204
51	0xbd8898dc	-0.066697806
52	0x3bf2e8b6	0.007412995
53	0x3d83cf7a	0.064360574
54	0x3dab4a67	0.083638005
55	0x3cdbd758	0.026836082
56	0x3e7ca91a	0.24673882
57	0x3d2ec61b	0.042669397
58	0xbe0f29b7	-0.13980757
59	0x3da70601	0.08155442
60	0x3c9e9591	0.019358428
61	0xbe0d423d	-0.13794799
62	0xbdbc2e9a	-0.09188576
63	0xbe6451b6	-0.22296795
64	0xbe1ddcfa	-0.15416327
65	0xbdc930a1	-0.09823728
66	0x3db3f295	0.08786503
67	0x3dbd71d3	0.09250226
68	0xbaff80bb	-0.0019493321
69	0x3c02b557	0.007977805
70	0xbed9ef5c	-0.4256543
71	0xbdf84ddb	-0.12124225
72	0xbd3ea24c	-0.046541497
73	0x3e41dc54	0.18931705
74	0x3cb9abda	0.022664953
75	0xbe37b3ff	-0.17939757
76	0x3e214972	0.15750673
77	0x3d923075	0.07138149
78	0xbe90d145	-0.2828466
79	0xbd7c90b7	-0.06166145
80	0x3e5413c3	0.20710663
81	0x3e1ad885	0.15121658
82	0x3b8bc400	0.0042653084
83	0x3dd01a4c	0.10161266
84	0xbda8aabc	-0.0823569
85	0xbcb00ce6	-0.021490525
86	0x3e7f2a7c	0.2491855
87	0xbceceeb0	-0.028922409
88	0xbd58cd45	-0.052930135
89	0xbe110265	-0.1416107
90	0xbe7555ca	-0.23958507
91	0xbe98ab39	-0.29818133
92	0xbe7d6b03	-0.24747853
93	0x3eca1d6a	0.39475566
94	0xbef55370	-0.4791522
95	0xbd7cd86c	-0.061729833
96	0xbdea194e	-0.11430608
97	0xbea22812	-0.31671196
98	0x3df4437d	0.11926935
99	0xbd1fe1f0	-0.03903383
100	0xbf029b9a	-0.5101868
101	0x3dacda0c	0.08440027
102	0xbdc2ab9a	-0.09505387
103	0x3dfb5992	0.122729436
104	0xbe775c75	-0.24156363
105	0x3dac92bb	0.08426424
106	0xbd9a6ce5	-0.07540301
107	0xbe6077bc	-0.21920675
108	0xbea1b07f	-0.31579968
109	0xbd585c80	-0.05282259
110	0x3e655b02	0.22397998
111	0x3e13d0cc	0.14435118
112	0x3dd298b4	0.10283032
113	0xbdfe0986	-0.1240416
114	0xbcac7e63	-0.02105636
115	0xbe337a94	-0.17527229
116	0xbd8516de	-0.06498502
117	0x3d740d58	0.059583038
118	0x3ddd0473	0.10791864
119	0xbdacae8e	-0.08431731
120	0xbca31b92	-0.019910607
121	0xbdf740b9	-0.12072892
122	0xbd15ef7d	-0.036605347
123	0x3e90f666	0.28312987
124	0x3dd8d546	0.10587554
125	0xbea2b861	-0.31781295
126	0xbda480da	-0.08032389
127	0xbcf7fed7	-0.030272884
128	0x3e3f3656	0.18673071
129	0xbdbf1cac	-0.093316406
130	0x3d912d14	0.07088676
131	0x3a98fc00	0.0011671782
132	0x3e194b00	0.14970016
133	0x3db81b4a	0.0898958
134	0x3e415152	0.18878677
135	0x3d44ae64	0.048017874
136	0x3df08ba0	0.11745381
137	0xbed4c1b2	-0.41554028
138	0xbdbee99a	-0.093219
139	0x3e4caaf9	0.19987096
140	0x3ccbebd0	0.024892718
141	0xbdcc8d1f	-0.09987854
142	0x3e0d4627	0.13796292
143	0xbbf1da23	-0.0073807403
144	0xbea877af	-0.3290381
145	0xbe8f11ec	-0.2794336
146	0xbd29ccec	-0.041455194
147	0xbeb4be87	-0.3530161
148	0xbd2d8dc0	-0.04237151
149	0xbcc6fb88	-0.024289861
150	0xbe1bf143	-0.15228753
151	0xbd9653ff	-0.0734024
152	0x3d4bd4a8	0.04976335
153	0x3dc28a36	0.09499018
154	0x3de99252	0.114048615
155	0x3d131db2	0.03591699
156	0x3d887e33	0.066646956
157	0xbc10a020	-0.008827239
158	0x3dab0b2d	0.08351741
159	0x3dd72036	0.105041906
160	0xbdf5745a	-0.11985083
161	0x3d7d60f6	0.061860047
162	0xbea900bd	-0.33008376
163	0x3d850e62	0.06496884
164	0x3e8d9d85	0.2765924
165	0x3d3aad68	0.04557553
166	0xbca1f46f	-0.019769875
167	0xbe5d639b	-0.21620028
168	0x3e4ada23	0.19809775
169	0xbea6b351	-0.32558683
170	0x3d83d8f0	0.06437862
171	0x3dd34382	0.103156105
172	0x3d08bbc4	0.033382192
173	0x3dd8b736	0.1058182
174	0xbeb3d9d8	-0.3512714
175	0xbd694d9a	-0.056958772
176	0x3c129cc0	0.008948505
177	0x3bd79688	0.006579224
178	0x3dc6f824	0.09715298
179	0x3d1c0206	0.038087867
180	0xbbd27bf0	-0.006423466
181	0xbe8e86dd	-0.27837268
182	0x3df661c6	0.120303676
183	0x3dc80426	0.09766416
184	0xbe74d942	-0.23911002
185	0x3d7615a8	0.060079247
186	0x3e814492	0.25247627
187	0x3f21dd9e	0.63228786
188	0xbdcc3634	-0.09971276
189	0x3e129de7	0.14318047
190	0x3df6bf74	0.120482355
191	0x3df6754b	0.120340906
192	0x3c863d90	0.016386777
193	0xbd6580fd	-0.056031216
194	0x3c34f665	0.011045073
195	0xbd491d90	-0.04910046
196	0xbcd7dd75	-0.026350716
197	0xbdafd214	-0.08584991
198	0x3e2c99be	0.16855523
199	0xbda81a4d	-0.082081415
200	0x3d164888	0.036690265
201	0xbe8b830a	-0.27248412
202	0xbe223311	-0.15839793
203	0xbacd3a80	-0.0015657693
204	0xbd059cc1	-0.032620195
205	0xbe980c15	-0.29696718
206	0x3e1abbda	0.15110722
207	0x3d674f55	0.05647214
208	0xbe95f9b0	-0.2929206
209	0xbeadd1ae	-0.33949035
210	0x3dcdd5dc	0.10050556
211	0xbe8430c3	-0.25818452
212	0x3dd77c69	0.10521776
213	0xbde1c96a	-0.11024745
214	0xbe5d1b91	-0.21592547
215	0x3c1e1e65	0.009650801
216	0xbde59b9e	-0.11211322
217	0x3e40b7da	0.18820134
218	0xbc919ae1	-0.017774047
219	0xbcd9c04a	-0.026580948
220	0xbb5aca35	-0.0033384685
221	0x3d10213c	0.035187945
222	0x3e0cd718	0.13753927
223	0x3d1aea94	0.037821367
224	0x3dab26a2	0.08356978
225	0x3dfd840c	0.123787016
226	0xbe73b0c5	-0.23797901
227	0x3d92390f	0.07139789
228	0x3c988564	0.018618293
229	0x3cf3a240	0.029740453
230	0x3d57de40	0.05270219
231	0xbe84899a	-0.25886232
232	0x3b19844c	0.0023424802
233	0xbe8d6e4b	-0.2762321
234	0x3d41aeb0	0.047285736
235	0xbb018ad2	-0.0019766581
236	0x3d5cd776	0.053916417
237	0x3d99ed88	0.075160086
238	0xbe94aea7	-0.290395
239	0xbdee7d3d	-0.11644981
240	0x3dcbd900	0.09953499
241	0xbce81400	-0.02832985
242	0xbd0fa1f8	-0.035066575
243	0x3e3031db	0.17206518
244	0xbcb34b8a	-0.021886606
245	0xbe948dbb	-0.29014382
246	0xbd61513d	-0.055009115
247	0xbddcfeda	-0.107907966
248	0xbe550fa3	-0.20806746
249	0xbb8b1354	-0.0042442475
250	0x3d296fbc	0.041366324
251	0xbe1723e7	-0.1475979
252	0x3df7fd70	0.12108886
253	0x3e1abceb	0.15111129
254	0x3ddf9d7a	0.10918708
255	0x3e008935	0.1255234

fc2_1_2.bias f4 [32]
0	0xbd888791	-0.06666482
1	0x3e41e064	0.18933254
2	0xbcbeaeaa	-0.023276646
3	0x3e15a193	0.14612417
4	0x3d9eee6f	0.07760321
5	0x3c917dd9	0.017760204
6	0xbcefbc47	-0.029264582
7	0x3d105146	0.03523376
8	0x3e338dd9	0.1753458
9	0x3e29a623	0.16567282
10	0x3e42e7c0	0.19033718
11	0xbd045a97	-0.032312956
12	0x3e15edce	0.14641497
13	0x3e6138a6	0.21994266
14	0xbc81be33	-0.015837764
15	0xbdd8253c	-0.10553977
16	0x3e01789a	0.12643662
17	0xbda6b040	-0.08139086
18	0x3dc97266	0.09836273
19	0x3dffc9b1	0.124896415
20	0x3e5a4f74	0.21319371
21	0x3e120150	0.14258313
22	0x3e208035	0.15673907
23	0x3e51f13f	0.20502184
24	0x3e36e9e8	0.17862666
25	0x3e254e22	0.16143087
26	0xbb00339a	-0.0019562007
27	0x3cbe55d1	0.02323428
28	0x3d10fd09	0.035397563
29	0xbc84f079	-0.016227948
30	0xbcbbe0f0	-0.022934407
31	0x3c2688b8	0.010164432

fc2_2.weight f4 [16, 32]
0	0x3eb348ca	0.3501647
1	0xbf4c84ce	-0.79890144
2	0x3d23e22a	0.04001061
3	0x3c522393	0.012825864
4	0x3da480f9	0.08032412
5	0x3e456e7d	0.19280429
6	0xbf1ad0a9	-0.6047464
7	0x3e61d144	0.22052485
8	0xbd67f62d	-0.056631256
9	0xbb0d7401	-0.0021584036
10	0xbf2b1099	-0.668222
11	0xbe0fc97b	-0.14041702
12	0xbd89089b	-0.066910945
13	0xbf43f384	-0.7654345
14	0xbc87cca2	-0.016577069
15	0x3e36b28a	0.17841545
16	0xbd0ef52a	-0.034901775
17	0x3e87bfec	0.26513612
18	0xbf27e8c1	-0.6558953
19	0x3e69f1c6	0.22846135
20	0xbea62087	-0.3244669
21	0x3e6f8a9a	0.23392716
22	0x3d9faa63	0.077961706
23	0xbdeb9596	-0.11503141
24	0xbe6c8002	-0.23095706
25	0xbf4e5b96	-0.806085
26	0x3e55c72b	0.20876758
27	0x3e874488	0.26419473
28	0xbedddd21	-0.4333277
29	0x3cea13eb	0.02857395
30	0xbeef1bf8	-0.46701026
31	0x3e4b5a13	0.1985858
32	0x3ddd326d	0.108006336
33	0xbe2c0db2	-0.168021
34	0xbcd0a00a	-0.025466938
35	0xbd9a93f0	-0.07547748
36	0xbe30f3cd	-0.17280503
37	0xbe1d77f9	-0.15377797
38	0xbc97d4ff	-0.018534182
39	0x3ce41119	0.027840184
40	0x3e2b34cb	0.16719358
41	0xbe1b9623	-0.15193991
42	0x3e07ad8c	0.13249797
43	0xbe2e85e2	-0.1704326
44	0xbd796cbc	-0.060894713
45	0xbd9675fc	-0.073467225
46	0x3d8f9b06	0.0701199
47	0xbe10be79	-0.1413516
48	0xbdd2b05f	-0.10287546
49	0xbda84ab6	-0.08217375
50	0xbe13c5aa	-0.14430872
51	0x3d29802e	0.041382007
52	0x3dca6a74	0.098835856
53	0xbd139528	-0.03603092
54	0x3cd315fc	0.025767319
55	0xbdc0125c	-0.09378502
56	0xbc033bf8	-0.008009903
57	0xbe3117d5	-0.17294247
58	0xbe1b1d44	-0.15147883
59	0x3dd8630e	0.10565768
60	0x3e0508c9	0.12991633
61	0xbd04e30a	-0.032443084
62	0xbb8f3a23	-0.004370944
63	0xbdbe8141	-0.09301997
64	0x3df611c4	0.12015107
65	0xbe47dc86	-0.19517717
66	0xbc87bb9d	-0.016568953
67	0xbe366641	-0.17812444
68	0x3db60f2a	0.08889611
69	0xbd6f2f8a	-0.058394946
70	0x3d887ece	0.06664811
71	0x3d14594a	0.036217965
72	0x3df06ffb	0.117401086
73	0xbea735a3	-0.3265811
74	0xbe5958db	-0.21225302
75	0x3e40d0f2	0.18829706
76	0xbd809bcd	-0.06279717
77	0xbe1a7d33	-0.15086822
78	0xbdcdd0df	-0.100496046
79	0x3e188cc7	0.14897452
80	0x3e69a053	0.22815065
81	0x3d3ffab8	0.046869963
82	0xbe5f65dd	-0.21816202
83	0xbe1396ee	-0.14413044
84	0xbeace02e	-0.33764786
85	0x3de25ccf	0.11052858
86	0x3df87c8d	0.12133131
87	0xbe331d08	-0.17491543
88	0x3e7c5646	0.24642286
89	0xbd2e101a	-0.042495824
90	0xbd6ef5b0	-0.058339775
91	0x3e6b5e54	0.22985202
92	0x3e169309	0.14704527
93	0x3d6befa5	0.05760159
94	0xbe81d5c8	-0.25358415
95	0x3d03710d	0.032090236
96	0x3d5864ca	0.052830495
97	0xbdc3b98a	-0.09556873
98	0xbe12ffdb	-0.14355414
99	0xbcad2d8b	-0.02113988
100	0xbdfb0dcf	-0.12258493
101	0xbdff5aef	-0.12468516
102	0xbcfd2a3d	-0.03090393
103	0xbe047761	-0.12936164
104	0x3ccbdf0e	0.024886634
105	0x3dcff9fb	0.10155102
106	0xbdba3508	-0.09092146
107	0xbbc97229	-0.006147642
108	0x3d41b244	0.047289148
109	0x3e089cc2	0.13341048
110	0x3d197202	0.037462242
111	0x3ccae3e3	0.024766868
112	0x3d1d6107	0.03842261
113	0xbe448bdc	-0.19193977
114	0xbe494bf6	-0.19657883
115	0xbd9c286c	-0.07624897
116	0x3d842a92	0.06453432
117	0x3d7c2906	0.06156256
118	0xbd53eedf	-0.051741477
119	0xbd55cc8c	-0.052197024
120	0xbe3b6e32	-0.18303755
121	0x3de0ecf6	0.10982697
122	0x3dccd198	0.10000914
123	0xbd493e97	-0.049131956
124	0xbd0118e2	-0.03151787
125	0xbe000b47	-0.12504302
126	0xbdd41498	-0.103554904
127	0xbd5dcf35	-0.054152686
128	0x3e2bd781	0.16781427
129	0xbe8b6719	-0.27227095
130	0xbd9646c7	-0.073377185
131	0xbe777b2f	-0.24168085
132	0xbdc06374	-0.09393969
133	0x3d272cab	0.040814083
134	0x3eaf87d5	0.3428332
135	0x3ac0e61a	0.0014717013
136	0x3dcabe7e	0.09899615
137	0xbea3f1c0	-0.32020378
138	0xbe1fd67a	-0.1560916
139	0x3e1cdfae	0.15319702
140	0xbaec1195	-0.0018010611
141	0xbe3584c7	-0.17726432
142	0xbe719185	-0.23590668
143	0x3e5de5f8	0.21669757
144	0x3e6eb41e	0.23310897
145	0x3e1d52c4	0.15363604
146	0xbe72dfcf	-0.23718189
147	0xbe1ebd23	-0.15501837
148	0xbeb26cd2	-0.34848648
149	0x3e6f3358	0.2335943
150	0x3e932466	0.28738707
151	0xbf077e94	-0.5292752
152	0x3e3617a3	0.17782454
153	0xbe05f046	-0.13079938
154	0xbd46982b	-0.048484962
155	0x3df57286	0.11984734
156	0x3ee3d137	0.44495556
157	0x3e093980	0.13400841
158	0xbe6cd7d7	-0.23129211
159	0xbe389037	-0.18023764
160	0xbe4a7407	-0.19770823
161	0x3d44d9a5	0.048059124
162	0x3d06d46c	0.032917425
163	0x3e646e4a	0.22307697
164	0x3e2dcd87	0.16972934
165	0xbd913b3c	-0.07091376
166	0x3ee84138	0.45362258
167	0xbe529aa7	-0.20566808
168	0xbdb1f57a	-0.08689399
169	0x3d06ac40	0.032879114
170	0xbe5fa387	-0.21839724
171	0xbdf3c84a	-0.119034365
172	0x3e3b5866	0.1829544
173	0xbe040c90	-0.12895417
174	0xbd97e3ba	-0.07416482
175	0x3dcc1468	0.0996483
176	0x3dbf39f9	0.09337229
177	0x3b2103f3	0.0024569004
178	0xbec06a9f	-0.37581345
179	0x3e04aef9	0.12957372
180	0xbbc2bd77	-0.005942996
181	0xbe20eec3	-0.1571608
182	0x3cb23c11	0.021757158
183	0x3e64e95a	0.22354642
184	0xbd1a6e98	-0.037703127
185	0xbe7f9618	-0.249596
186	0x3dd67d24	0.104730874
187	0xbe082544	-0.13295466
188	0xbd0276d7	-0.031851616
189	0x3e586782	0.21133235
190	0xbeb3f336	-0.35146493
191	0x3e4a5ef0	0.19762778
192	0x3de3d3ab	0.11124357
193	0x3c1e6ef7	0.009670011
194	0x3e02eee3	0.1278644
195	0x3e3fee33	0.1874321
196	0x3df4ea75	0.11958782
197	0x3e0a28b8	0.13492095
198	0x3d9100f3	0.07080259
199	0xbdab608e	-0.08368026
200	0x3e3bd1da	0.18341771
201	0x3c5c41ac	0.013443392
202	0xbdcb9232	-0.09939994
203	0x3d9daaa6	0.07698564
204	0x3d8fe0a4	0.07025269
205	0xbd040ccf	-0.032238778
206	0x3dc45076	0.09585659
207	0xbc3c14b2	-0.0114795435
208	0x3d6f8e5d	0.058485378
209	0x3dadee59	0.08492727
210	0xbdbb2d2f	-0.091394775
211	0xbd8f7072	-0.07003869
212	0xbe3497a7	-0.17635976
213	0x3e1589bb	0.14603321
214	0x3d8229e3	0.063556455
215	0xbe374abf	-0.17899607
216	0xbdfe4a98	-0.124165714
217	0xbde023d7	-0.10944336
218	0x3e2ee2ac	0.17078656
219	0x3e1466ba	0.14492312
220	0xbd570ec1	-0.052504305
221	0xbdf92c97	-0.12166708
222	0x3e1dd652	0.15413788
223	0xbd990eea	-0.07473548
224	0x3e616b61	0.22013618
225	0x3d236948	0.039895326
226	0x3dec86f3	0.11549177
227	0x3d66244e	0.056186967
228	0xbe6530a9	-0.22381844
229	0xbc1a5dab	-0.009421746
230	0xbdb4bee3	-0.08825471
231	0x3e1ca7fd	0.15298457
232	0xbe38f257	-0.18061195
233	0xbd7f4ae9	-0.0623273
234	0x3e899b00	0.26876068
235	0x3e3e6bdb	0.18595831
236	0x3ddefec9	0.1088844
237	0x3ddc7fb5	0.10766546
238	0xbdb4d350	-0.08829367
239	0x3db29c83	0.087212585
240	0x3d98a8d5	0.07454077
241	0x3e19e614	0.15029174
242	0x3d2fda26	0.042932652
243	0xbd264d2b	-0.040600937
244	0xbe2a7111	-0.16644694
245	0xbdbb79b0	-0.091540694
246	0x3e1b9a05	0.15195473
247	0xbd797f35	-0.06091233
248	0xbb36c23a	-0.0027886764
249	0xbc9a373f	-0.018825172
250	0xbd300f79	-0.042983506
251	0x3e3b467f	0.18288611
252	0xbddf7acb	-0.10912093
253	0xbe6ed454	-0.23323184
254	0x3e299a6b	0.16562812
255	0xbdf60948	-0.12013489

fc2_2.bias f4 [16]
0	0xbdedfe00	-0.11620712
1	0xbd8de5f7	-0.06928628
2	0x3c9c8f25	0.019111225
3	0xbe50eb7e	-0.20402333
4	0x3e70c1de	0.23511454
5	0x3e30c7cf	0.17263721
6	0x3e25f7b3	0.16207771
7	0x3e511ad7	0.20420395
8	0xbd79b373	-0.06096215
9	0xbcb9ab6a	-0.022664744
10	0xbdb84d0b	-0.0899907
11	0xbe2ec016	-0.17065462
12	0x3e128106	0.14307031
13	0x3dfd6688	0.12373072
14	0x3e121f19	0.14269675
15	0x3e6998aa	0.22812143

fc3.weight f4 [4, 16]
0	0x3f4c58ce	0.79823005
1	0xbd18bea8	-0.0372912
2	0x3f2da52a	0.67830145
3	0xbe32b46e	-0.17451641
4	0x3f13e598	0.5777221
5	0xbe987887	-0.29779455
6	0x3e5ab2f0	0.21357322
7	0xbeae348e	-0.3402447
8	0x3f589626	0.8460411
9	0x3ea7b048	0.3275168
10	0xbe87a2a7	-0.2649128
11	0x3d5e4fc0	0.054275274
12	0xbe5afc99	-0.21385421
13	0xbef18c19	-0.471772
14	0x3dab7bab	0.08373197
15	0x3f3a8ed7	0.72874206
16	0x3ea810be	0.32825273
17	0xbd7e7a20	-0.062128186
18	0x3e843f16	0.2582938
19	0xbe30089d	-0.17190786
20	0x3e2a67f6	0.1664122
21	0xbdf23611	-0.118267186
22	0x3e08ae10	0.1334765
23	0xbe9a513c	-0.30140102
24	0x3c29d1e7	0.010364986
25	0x3f09bfec	0.53808475
26	0x3e25e9a4	0.16202408
27	0x3d8c0938	0.06837696
28	0xbe5b319f	-0.21405648
29	0xbe392c47	-0.18083297
30	0xbe01d96e	-0.12680599
31	0x3dec6d19	0.11544246
32	0x3e96c882	0.2944985
33	0x3e1d6744	0.15371424
34	0x3e44e386	0.19227418
35	0xbe2b4446	-0.16725263
36	0x3e141bf7	0.14463793
37	0x3abf2d26	0.0014585599
38	0x3e8f02c1	0.2793179
39	0xbe5b503b	-0.21417324
40	0xbf29e233	-0.6636078
41	0x3efa5949	0.48896244
42	0xbd30031e	-0.042971723
43	0xbe05ab80	-0.13053703
44	0x3e80e718	0.2517631
45	0x3cab4467	0.02090664
46	0x3bf1d0cc	0.007379627
47	0xbe246733	-0.16054992
48	0x3e92aca1	0.2864733
49	0x3d6f18d0	0.058373272
50	0x3e5f156d	0.21785517
51	0xbdca6e6b	-0.09884342
52	0x3d84dbfc	0.06487271
53	0xbe925d17	-0.28586647
54	0xbea71fe9	-0.32641533
55	0x3e4eae1f	0.2018361
56	0xbea79d00	-0.3273697
57	0xbdfdf73a	-0.1240067
58	0x3e684f02	0.22686389
59	0x3e1b65da	0.15175572
60	0x3c5f837a	0.013642186
61	0xbe9635cc	-0.2933792
62	0x3e77579d	0.24154516
63	0xbe2c2758	-0.16811883

fc3.bias f4 [4]
0	0xbd9d1c0b	-0.076713644
1	0xbea3c9f5	-0.31990018
2	0xbec63d90	-0.38718843
3	0x3e2a61b3	0.16638832
